experiments/smnist/models/12-16_00-55-23__1334_Adam(0.1),NLL,LinearLR,LabelLast(False),PERMUTED(True),RFSNN(1,256,10,bs=256,ep=300),RF(abs(omega_uni(15.0,85.0)),nothing,abs(b(uni(0.1,1.0)),linearMask(0.0))LI(norm_20.0,1.0).pt (torch, 544063 bytes, 6 tensors)

hidden.omega f4 [256]
000000 9e 95 4b 42 95 bf 25 42 cc 8e 1b 42 f8 77 91 42
       50.89611 41.43709 38.88945 72.734314
000010 c4 52 40 42 fa 9a 9c 41 38 2b d8 41 50 7d ad 41
       48.080826 19.575672 27.021103 21.686188
000020 8b a1 2c 42 4a ca 0f 42 a4 ea 8f 42 7c b8 87 42
       43.157757 35.947548 71.95828 67.86032
000030 7a 7a a1 41 15 d4 24 42 17 d1 7c 42 23 24 4d 42
       20.184803 41.20711 63.20419 51.28529
000040 57 cd 36 42 11 63 9f 42 1b 3b 9e 41 eb 68 8d 42
       45.700527 79.69349 19.77886 70.70492
000050 e4 76 96 42 a4 d3 ca 41 b0 d6 e6 41 c8 aa 95 42
       75.23221 25.35334 28.854828 74.83356
000060 d1 3d 08 42 5a 4a 5a 42 07 cd a0 42 d3 51 93 42
       34.060368 54.57261 80.400444 73.65981
000070 85 4c 6e 42 f9 19 8d 42 42 bb 72 42 a4 b8 a6 42
       59.574726 70.55073 60.68287 83.36063
000080 58 33 28 42 5f 9b 25 42 9f d7 87 42 53 12 9a 41
       42.05014 41.40173 67.921135 19.258947
000090 3a 09 83 42 22 73 8c 41 a2 58 11 42 a3 68 d0 41
       65.51802 17.556217 36.336555 26.051092
0000a0 e7 b2 3a 42 a1 fb b5 41 64 c2 80 42 f6 a0 8a 42
       46.67471 22.747866 64.37967 69.31438
0000b0 28 6c 1e 42 db 25 73 42 3a eb 7f 42 e7 de 73 41
       39.60562 60.78697 63.979713 15.2419195
0000c0 03 b3 d9 41 ea db 86 42 19 94 78 41 eb a8 a6 42
       27.212408 67.42952 15.536157 83.32992
0000d0 dc 1d 93 42 f1 68 38 42 5b ee 8f 42 fc 6f 8e 42
       73.55832 46.10248 71.96554 71.21872
0000e0 2f 43 8b 42 18 5c 87 42 43 71 13 42 87 31 83 42
       69.63122 67.67987 36.860607 65.59673
0000f0 b9 de 4e 42 e5 21 ff 41 99 3c 9b 42 bc ae b2 41
       51.717503 31.89155 77.618355 22.33532
000100 ea 2a ba 41 cc bb d6 41 07 41 8c 42 15 d2 01 42
       23.270954 26.841698 70.12701 32.45516
000110 c6 02 21 42 35 fd a3 42 1f 21 d1 41 24 00 40 42
       40.25271 81.994545 26.141172 48.000137
000120 0b b6 0d 42 48 34 69 42 f5 48 23 42 9a 0f 37 42
       35.427776 58.301056 40.821247 45.765236
000130 6a 4d 88 42 56 34 95 41 00 0e b0 41 d9 d4 74 42
       68.1512 18.650555 22.006836 61.20786
000140 3d 9c 6d 42 59 85 d9 41 ac 72 25 42 7e 1a 40 42
       59.402576 27.190111 41.361984 48.02587
000150 5c d1 de 41 df 4f 56 42 c4 2a a1 42 78 16 a1 42
       27.852226 53.578 80.58353 80.543884
000160 02 52 11 42 9d 57 97 41 bd 95 91 42 f9 8c 83 42
       36.330086 18.91778 72.79246 65.77534
000170 1d c4 c5 41 aa e0 94 41 5d fe 59 42 b8 29 1d 42
       24.720758 18.6097 54.4984 39.29074
000180 fd a7 68 42 02 6f 81 42 cd cc 4e 42 c1 f4 d7 41
       58.16405 64.71681 51.7 26.994509
000190 1b ad a1 42 ca b0 96 41 f8 25 a2 42 6f e5 3c 42
       80.8381 18.836323 81.07416 47.224056
0001a0 5c c7 3d 42 1f d7 11 42 89 17 1f 42 bb de 82 42
       47.444687 36.46008 39.772984 65.43502
0001b0 0d d7 23 42 7f 4e 47 42 71 81 19 42 04 60 8c 42
       40.96001 49.826656 38.376408 70.18753
0001c0 a8 b7 95 42 52 90 58 42 3e 46 83 42 ef 00 e6 41
       74.8587 54.140938 65.63719 28.750456
0001d0 65 76 a2 42 6f 04 b8 41 b3 d1 86 41 c0 ee 40 42
       81.23124 23.002165 16.852392 48.233154
0001e0 f9 17 76 42 c0 db 8c 42 8b ea e7 41 fa df 2b 42
       61.52341 70.4292 28.989523 42.968727
0001f0 fc 6a a4 41 2d 6e b8 41 28 5f 6d 42 48 4a 20 42
       20.552238 23.053797 59.342926 40.07254
000200 0a ec a8 42 40 79 5a 42 df 34 7e 42 f7 dd a7 41
       84.46101 54.61841 63.551632 20.983381
000210 ec c9 83 42 d5 81 ca 41 19 9d cb 41 a7 03 83 42
       65.89438 25.313395 25.451708 65.50713
000220 b6 b0 24 42 02 28 fe 41 b9 ac a7 42 5e 81 85 42
       41.17257 31.769535 83.83735 66.75267
000230 c5 5b 1b 42 37 c5 1a 42 af 94 dd 41 d0 ac 9a 42
       38.83962 38.692593 27.6976 77.337524
000240 f4 cf 97 41 02 d8 2c 42 de 4c 74 42 88 a2 17 42
       18.97654 43.210945 61.075066 37.908722
000250 d0 c8 92 42 71 ef 30 42 cc bb a9 42 00 4d a6 42
       73.39221 44.23383 84.86679 83.15039
000260 7d 05 8d 41 cb 18 9e 42 96 2b f5 41 ab 07 3f 42
       17.62768 79.04842 30.646282 47.75749
000270 1e 8d f1 41 f6 a8 fd 41 fa 8b a3 42 19 be 9d 42
       30.193905 31.7075 81.77339 78.871284
000280 c1 14 df 41 15 39 5a 42 7d 58 96 42 50 bf 49 42
       27.885134 54.555744 75.17283 50.43683
000290 94 3b a1 41 60 ee c9 41 fd fd 63 42 90 33 85 42
       20.15409 25.241394 56.998035 66.60071
0002a0 1f fb 80 42 e7 d9 de 41 c6 da 9c 42 80 62 e9 41
       64.49047 27.856398 78.42729 29.173096
0002b0 3c ce 9b 42 e1 1a 2d 42 85 07 0a 42 81 0d 94 42
       77.9028 43.27625 34.507343 74.026375
0002c0 73 37 f7 41 fa dc 89 42 c1 ca 07 42 4f b6 15 42
       30.902075 68.931595 33.948 37.428036
0002d0 b9 be 60 42 1a 29 5d 42 cb 74 60 42 db 58 71 42
       56.186253 55.29014 56.114056 60.336773
0002e0 b7 65 95 42 75 b6 3b 42 5f 3d 7f 41 fd 85 f6 41
       74.69866 46.92818 15.952483 30.815424
0002f0 ef fa 6e 42 27 1c 92 42 8e 90 a5 42 7f 0e 9e 42
       59.745052 73.054985 82.78233 79.02831
000300 d8 8f 10 42 ac 98 ab 41 ac 9f 6b 42 30 36 58 42
       36.140472 21.449547 58.90593 54.052917
000310 22 73 f8 41 27 1d a5 42 2d 02 bc 41 a7 6c 55 42
       31.056217 82.55694 23.501062 53.356106
000320 7a 13 09 42 84 2b 89 42 ae b4 a4 42 7e 73 af 41
       34.26902 68.58499 82.35289 21.931393
000330 b9 72 81 42 91 d7 ed 41 4f 5d 7f 42 33 42 23 42
       64.72407 29.730257 63.84112 40.814648
000340 1c 85 38 42 d0 3f 86 42 cc f2 26 42 8d ab 85 42
       46.12999 67.12463 41.737106 66.83506
000350 3b df 57 42 65 61 5e 42 b0 ed a2 42 be 28 fd 41
       53.968 55.59511 81.46423 31.644894
000360 c2 af d2 41 3b 1b 54 42 8f c7 0f 42 dc 21 fc 41
       26.33582 53.026592 35.94488 31.516533
000370 72 9d ec 41 c5 4c 96 42 4c c7 70 42 cb f4 80 42
       29.576878 75.14994 60.194626 64.47811
000380 1b f6 7a 42 36 72 92 42 b6 e4 2f 42 0c 63 0a 42
       62.740337 73.22307 43.97335 34.596725
000390 64 64 a2 42 db 83 96 42 0e 76 32 42 61 5f 71 42
       81.196075 75.25753 44.615288 60.343143
0003a0 3c 39 0a 42 fb 2a 31 42 19 11 a6 42 50 61 79 41
       34.555893 44.291973 83.033394 15.586258
0003b0 fe 0d ef 41 79 eb a1 41 08 a7 ef 41 ff ca 84 42
       29.881832 20.239977 29.956558 66.39648
0003c0 96 5e 8f 42 4e 28 5b 42 f8 4d 31 42 80 a3 ab 41
       71.68474 54.78936 44.32614 21.454834
0003d0 f0 51 88 42 53 5d a7 42 9c e3 2b 42 b7 bb 2e 42
       68.160034 83.682274 42.972275 43.683315
0003e0 65 a1 18 42 6c 40 5d 42 8a a0 58 42 c8 89 43 42
       38.15761 55.312912 54.156776 48.884552
0003f0 71 65 7f 42 00 9f 8d 41 1a 06 eb 41 9f e8 ed 41
       63.849064 17.702637 29.37798 29.738585

hidden.b_offset f4 [256]
000000 3b 1f 7d 3f aa 3c e2 3d af 3a b7 3e c1 d2 cd 3e
       0.9887578 0.11046727 0.3578696 0.40199855
000010 d8 df 2b 3f a9 4e 37 3f aa 5e 41 3f 3c 5c 2c 3f
       0.67138433 0.716044 0.7553507 0.6732824
000020 af aa 5c 3f cb a4 9a 3e 04 f7 63 3f 45 ef 8b 3e
       0.8619794 0.30203852 0.8904879 0.27330986
000030 9a 21 15 3f f4 b2 da 3e f8 08 c4 3e 3b 75 4e 3f
       0.58254397 0.42714655 0.38288093 0.8064763
000040 22 29 54 3e 47 da 48 3f 94 1e f3 3e 8b c5 6f 3f
       0.20718816 0.78458065 0.47484267 0.936608
000050 45 20 46 3f 6a 6f 93 3e 6f 27 09 3f bc 7c f4 3e
       0.7739299 0.2879594 0.53575796 0.47751415
000060 eb 66 7d 3f bb fe e6 3e c7 90 2e 3f 48 ce 3b 3f
       0.98985165 0.4511622 0.6818966 0.73361635
000070 1d 55 54 3f 28 96 25 3f ad 77 a8 3e 97 08 8d 3e
       0.8294237 0.64682245 0.32903805 0.27545616
000080 21 25 77 3f 27 8c ea 3e a8 a2 59 3e ce 8e 24 3f
       0.9654103 0.45810053 0.21253455 0.642804
000090 fb 15 f3 3e 91 92 5b 3f 96 5e ee 3e 59 a3 4b 3e
       0.47477707 0.8577052 0.46556538 0.19886531
0000a0 cf 5c 29 3f 8a 44 86 3e bd 2a d1 3e 49 38 49 3f
       0.6615724 0.26224166 0.4085292 0.7860151
0000b0 91 1b 3a 3f b5 c6 4c 3f 02 b5 58 3f f6 4b 11 3e
       0.72698313 0.799907 0.84651196 0.14189133
0000c0 21 77 35 3f d6 7b 56 3f 26 cc 95 3e 4d b1 9a 3e
       0.708849 0.8378271 0.29257315 0.30213395
0000d0 9d 75 13 3f 32 fb 1c 3e fd 2e e0 3e c3 4d 3c 3f
       0.5760134 0.15330198 0.4378585 0.73556155
0000e0 5c 08 64 3f 52 5f 4c 3f 70 e1 3d 3e 7b 33 5c 3f
       0.89075255 0.7983295 0.18543029 0.8601605
0000f0 50 04 15 3f 7e d1 6e 3f 4c 41 37 3f 80 5f 10 3e
       0.58209705 0.9328841 0.7158401 0.1409893
000100 1f 4f 1f 3e b4 2b b2 3e fb 44 e3 3d 39 63 7f 3e
       0.15557526 0.34798968 0.11097141 0.24940194
000110 d8 a4 80 3e f5 7e 0e 3f 11 9e 5d 3f 29 fe cf 3e
       0.25125766 0.5566247 0.86569315 0.40623596
000120 78 15 e9 3d df 45 3a 3f a4 9e 25 3f d4 1a 70 3f
       0.11381048 0.72762865 0.6469519 0.93790936
000130 74 d3 1c 3e 5f cc a1 3e de a1 1c 3f 0b 17 fe 3e
       0.15315038 0.31601235 0.6118449 0.49626955
000140 f8 55 40 3f b3 d7 c9 3e f1 2c 34 3f 43 39 41 3f
       0.7513118 0.39422378 0.70381075 0.75478
000150 e6 6e 37 3f 03 f1 e2 3e 4e 5e 1b 3e 10 0e 1f 3f
       0.7165359 0.44324502 0.15172693 0.6213083
000160 31 07 aa 3e 47 8f 2a 3e b5 60 54 3f 52 d3 2a 3f
       0.33208612 0.16656218 0.82960063 0.667287
000170 d8 33 36 3f 70 bb aa 3e bd 5e 21 3f cb 3c cd 3d
       0.7117286 0.33346128 0.63035184 0.10021361
000180 63 e0 50 3f 5d 56 0d 3e 0c fd 12 3f ed fe 47 3f
       0.81592387 0.13802476 0.5741737 0.7812336
000190 04 e2 f9 3e 23 42 56 3e e3 cb f4 3e 85 82 62 3f
       0.4880525 0.20923667 0.47811803 0.88480407
0001a0 0a 3e 63 3f e0 f9 78 3e e5 d1 b0 3e ae c4 65 3f
       0.8876654 0.2431407 0.34535137 0.89753234
0001b0 5f 37 63 3f 0c 9b 47 3f 57 07 d0 3e a7 21 22 3e
       0.88756365 0.7797096 0.406306 0.1583315
0001c0 db 9c 09 3e 3b a5 53 3f 53 85 0e 3f 5b 15 fc 3e
       0.13438742 0.82673997 0.55672187 0.49235043
0001d0 ed 89 21 3f 42 fc 31 3f 02 9b 47 3e 68 ec e5 3e
       0.63101083 0.6952554 0.19492725 0.44906926
0001e0 9a 93 37 3f 98 f2 09 3f 92 26 bb 3e 79 7f 6f 3e
       0.717096 0.53885794 0.36552864 0.2338847
0001f0 27 4a 37 3f a0 14 3e 3e 02 a7 1e 3f b3 cd 55 3f
       0.7159752 0.18562555 0.61973584 0.83517
000200 78 77 16 3e 4c cf eb 3e fb 55 7c 3e 21 01 cf 3d
       0.14694011 0.46056592 0.24642174 0.10107637
000210 98 7f 73 3f 70 d5 57 3f 92 06 c8 3e fa 5b 46 3f
       0.9511657 0.84310055 0.39067513 0.77484095
000220 82 25 13 3f 63 0c e4 3d 28 47 3b 3f 82 9c 13 3f
       0.5747911 0.11135175 0.7315545 0.57660687
000230 7e 45 52 3f 2c bf ab 3e 9d 25 ec 3e c7 0c 00 3f
       0.82137287 0.3354429 0.46122447 0.50019497
000240 71 f1 63 3f 09 90 37 3f 24 ec 3e 3f 7a 52 04 3f
       0.89040285 0.71704155 0.7457907 0.5168835
000250 ee de 09 3f 71 45 05 3e 67 7c 6d 3f c8 05 29 3e
       0.5385579 0.13014771 0.9276795 0.16506112
000260 c5 68 e4 3e 25 27 6b 3f 04 97 3f 3f 22 b2 32 3f
       0.44611183 0.91856605 0.74839807 0.6980306
000270 a3 16 7f 3e 71 63 3d 3f 6b 24 6e 3f e5 a1 6c 3f
       0.24910979 0.7397986 0.9302432 0.9243453
000280 7b 9f 8b 3e ab 82 57 3f 6e 39 7c 3f 1c dc dd 3e
       0.2727011 0.8418376 0.9852513 0.43331993
000290 5b 69 73 3e 44 f7 81 3e c1 6e 37 3f bd 5f 74 3f
       0.23770659 0.2538396 0.7165337 0.95458585
0002a0 90 69 da 3e 8d e0 b7 3e d3 99 62 3f 77 c1 04 3e
       0.42658663 0.35913506 0.8851597 0.12964426
0002b0 7f dd 78 3e ed a4 c8 3e 9b 60 dd 3e 07 72 f2 3d
       0.24303244 0.39188328 0.43237767 0.11838155
0002c0 cc 74 d1 3e d2 38 73 3f 9e 3d 5d 3f eb ab 79 3f
       0.4090942 0.95008576 0.86422145 0.9752795
0002d0 b7 ef fd 3e 66 a7 82 3e e5 f9 1d 3e 6b 53 71 3e
       0.4959695 0.2551834 0.15427358 0.23566978
0002e0 fe 65 81 3e a3 a2 8e 3e a5 9a 73 3e 81 51 37 3f
       0.25273126 0.27858457 0.23789461 0.7160874
0002f0 16 95 77 3f 7e 65 6b 3f 6c 5f 41 3f c0 57 a0 3e
       0.9671186 0.9195174 0.7553623 0.31316948
000300 59 06 90 3e c3 4b 25 3f 63 f8 3b 3f 13 84 1e 3f
       0.28129843 0.6456873 0.73425883 0.6192028
000310 27 10 7b 3f 21 22 47 3f 06 0f 66 3f 06 ed c6 3e
       0.9807152 0.7778645 0.89866674 0.3885271
000320 a0 fc 42 3f 8b bd d2 3e 38 cb 90 3e 8d 6a be 3e
       0.76166725 0.41160235 0.28280044 0.37190667
000330 3a 86 a0 3e f4 20 32 3f 87 a0 8c 3e 78 c5 74 3f
       0.31352407 0.6958153 0.27466223 0.95613813
000340 3c 69 46 3f 02 91 64 3e 5e 50 58 3e 31 bf 24 3f
       0.77504325 0.22320941 0.21124408 0.64354235
000350 b6 11 59 3f 46 42 27 3f 83 4f 23 3f 37 53 b4 3e
       0.8479265 0.653355 0.637932 0.35219738
000360 1b 4f 38 3e 14 ae a8 3e d5 29 77 3f b7 59 59 3e
       0.17998926 0.3294531 0.96548206 0.2122563
000370 27 05 79 3f a1 b2 13 3f e6 79 47 3f 38 03 40 3e
       0.97273487 0.5769444 0.7792038 0.18751228
000380 52 01 55 3f f3 1e 7e 3f b3 a8 c6 3e 29 93 15 3f
       0.8320514 0.99265975 0.38800582 0.58427674
000390 fb 92 01 3f af d3 6e 3f a8 24 15 3f 0e 5c 71 3f
       0.506149 0.93291754 0.5825906 0.9428109
0003a0 a5 67 47 3f 0f 87 11 3f 4c 06 3a 3f 79 36 ec 3e
       0.77892524 0.5684671 0.7266586 0.4613531
0003b0 e0 ce 5e 3f 2e 67 b9 3e bc 97 6f 3f 27 a5 41 3f
       0.87034416 0.36211532 0.93590903 0.7564263
0003c0 9c 4e 6a 3e fe b4 17 3f e1 f5 81 3e 3b 05 63 3f
       0.2288155 0.5926055 0.25382903 0.88679856
0003d0 79 72 64 3f 7c 1a 52 3f da 66 e9 3e ad 7e 38 3f
       0.8923717 0.8207166 0.45586282 0.7206829
0003e0 88 64 9e 3e 7e b6 32 3f eb 00 22 3f cf 5d 01 3e
       0.30936074 0.6980971 0.6328265 0.12633441
0003f0 55 0c 38 3f 49 c0 5f 3f 21 47 ad 3e e1 92 49 3f
       0.7189382 0.8740278 0.3384333 0.78739744

hidden.linear.weight f4 [256, 257]
000000 7c 82 5e bd 4a 9e 48 3d 9d 99 ea 3c ef 15 cf bd
       -0.05432366 0.04897908 0.028637702 -0.101116054
000010 c9 d3 9e bd 3f f9 41 bd 67 33 10 bd f7 6e af 3d
       -0.077552386 -0.04735684 -0.03520527 0.08566087
000020 0e 8e be bd ce 0d 20 3d 75 c2 f4 bc d4 9e 98 bd
       -0.093044385 0.039075665 -0.02987788 -0.07452169
000030 a1 f2 4a 3d 0c 4f b6 3d 34 d5 77 3d 97 b4 d0 bd
       0.049547795 0.08901796 0.06050606 -0.10190695
000040 0c 7e 62 bc 7a d2 a3 3d ee 93 92 3d fd 54 19 bc
       -0.013823997 0.079991296 0.071571216 -0.009358642
000050 51 76 a0 bd 7a 21 9f 3b 8b a9 40 bd 98 17 6a bd
       -0.07835067 0.0048562856 -0.04703669 -0.057151407
000060 91 04 c5 bd 71 f2 c6 3c 8c 64 57 3d aa ff 8c bd
       -0.096200116 0.024285527 0.052586123 -0.068847016
000070 f8 68 0a 3d 64 8a 21 bd 76 fa d2 3c eb ca c2 3c
       0.033791512 -0.03943862 0.025754195 0.0237784
000080 3a 11 94 3c 68 67 a1 bd 9c bd e2 3c 00 10 cd 3d
       0.01807462 -0.07881051 0.027678303 0.100128174
000090 db de 46 3d 48 d1 b5 bd 9c 76 64 3c 3e 1a 88 3b
       0.048552375 -0.08877808 0.013944294 0.004153519
0000a0 f4 1e 7e 3c ab 77 88 3d f0 c8 85 3d 31 00 13 3d
       0.0155103095 0.0666345 0.065324664 0.035888854
0000b0 f7 c5 9b bd 03 65 b9 bd 20 bc 2d bd 42 e9 ba bd
       -0.07606118 -0.090524696 -0.042415738 -0.09126522
0000c0 94 00 64 3d fe 27 52 3d 41 54 68 bd 47 05 cb 3d
       0.055664614 0.05130767 -0.056720976 0.09913116
0000d0 0e 57 41 bb 9d e9 ee bc b9 a3 c3 3d 0a 41 d4 3b
       -0.0029501352 -0.02916413 0.09552712 0.00647748
0000e0 a6 5e 9e 3c c5 38 11 3d 49 a3 1b 3d 21 09 d0 3c
       0.019332241 0.03545453 0.037997518 0.025394978
0000f0 6f a0 fc 3c 2e 54 c3 bd fa 7b fb 3c 55 16 56 bd
       0.03083822 -0.095375404 0.030698765 -0.05226739
000100 6d 3d a5 bd 44 08 ab bd 2f 3d b6 3d d3 9c 19 bd
       -0.08068357 -0.08351186 0.088983886 -0.037503075
000110 e1 23 61 3d 89 22 40 3d b4 1b c4 bd 84 3d e7 3b
       0.054965857 0.046907935 -0.095755965 0.007056894
000120 b7 11 c9 3d 8d cb cd 3d 81 31 c4 3d bb f3 68 3c
       0.09817832 0.1004859 0.095797546 0.014218266
000130 24 95 98 bd 7c eb b4 3c 26 00 6f 3d 39 a0 9b bd
       -0.07450321 0.022084944 0.05834975 -0.075989194
000140 93 6e c1 bc 10 31 2d bd b1 36 59 bd 47 0f 5f bd
       -0.023612296 -0.042283118 -0.053030673 -0.05445793
000150 fa 37 31 bd 44 7e 07 3d 6c bf d3 3c a4 69 9d 3d
       -0.043266274 0.0330794 0.025848113 0.07686165
000160 be 36 b8 bd 18 86 c3 bd 55 76 99 3d b3 20 63 3d
       -0.08994816 -0.09547061 0.07493273 0.055451106
000170 e9 a7 85 3d fc ec e7 bc 16 86 4b bd 68 59 8f bb
       0.06526167 -0.028311245 -0.04968842 -0.0043746717
000180 ca 37 49 bd c8 35 50 bd dd 71 98 3d 51 47 cd bd
       -0.04912547 -0.05083254 0.07443593 -0.10023368
000190 b2 dd 1e 3d 59 09 97 3d 80 45 52 3d 80 89 d8 bd
       0.038785644 0.0737483 0.05133581 -0.10573101
0001a0 3f ee 18 bc f2 c2 4b 3c 57 56 94 3d c3 c3 5f 3d
       -0.009334146 0.012436615 0.072430305 0.054630052
0001b0 e7 f5 bb 38 53 6e 6e bd 5c 2b b6 3c dd 64 a0 bd
       8.962658e-05 -0.058210682 0.022237472 -0.07831738
0001c0 b5 95 5f bd ea ab 08 bc 7c 96 8b 3d 2f da 94 bd
       -0.05458613 -0.008341769 0.06815812 -0.07268178
0001d0 33 75 e6 bc 45 e2 85 bd b0 6a b5 bd e5 30 7b 3c
       -0.028132057 -0.06537298 -0.0885824 0.015331482
0001e0 da 0f 35 bd d8 aa 63 3d 1b bb c7 bd cb d5 e1 bc
       -0.04420457 0.05558285 -0.097524844 -0.027567765
0001f0 d9 47 c5 bd b4 46 8a bd 0c 1c b9 bd a5 3a 7a 3d
       -0.096328445 -0.06751767 -0.09038553 0.061091084
000200 8f 08 c7 3b ab 11 63 3c 9a 97 9e bd b2 41 9c 3c
       0.0060740183 0.013859193 -0.077437595 0.019074295
000210 78 9b 04 3d 8f 1b 72 3d fe 05 86 bc 4d e0 f8 3c
       0.03237483 0.059108313 -0.01636028 0.030380392
000220 15 de 53 3c d2 2e ab 3c 94 60 87 bd bb 71 dc 3d
       0.012931366 0.02089635 -0.06610218 0.1076388
000230 96 ab ad bd 81 0d 4a bd 8b 1d 8c bd 09 b9 0f bd
       -0.08479993 -0.049329285 -0.068415724 -0.035088573
000240 9d 4b 5e 3d 04 c1 e2 3c 61 8d 92 3c 82 0f 88 3d
       0.05427133 0.027679928 0.01788968 0.06643583
000250 10 75 c9 3d 2c ec c4 bc 6c e2 c6 3d 95 2f a7 bc
       0.09836781 -0.024038397 0.09711155 -0.020408431
000260 ef c0 be bd 61 38 a9 3d be 1a 80 3d 21 b7 1d bd
       -0.09314143 0.082627065 0.06255101 -0.038504723
000270 15 79 8c bc 3d 91 d2 3d 0c 96 11 bb 92 93 78 3d
       -0.01714758 0.10281608 -0.002221468 0.06068761
000280 c1 cd 1f 3d 45 78 65 bb ad dd 0a bd 7e f2 55 3b
       0.03901458 -0.0035014313 -0.033902813 0.0032645757
000290 26 54 bf bd 1f 9f 71 bd 2d 1f 80 bd 31 30 f0 3c
       -0.09342222 -0.05898964 -0.06255946 0.029319854
0002a0 c9 9f 01 3d 17 28 7f 3d 91 7f 44 3b da 71 a5 bc
       0.031646524 0.062294092 0.0029983262 -0.02019589
0002b0 db 33 80 3d 2b 37 7a 3d 93 c7 c6 3d c3 d1 a0 3d
       0.06259891 0.06108777 0.097060345 0.07852509
0002c0 24 c4 a9 3d f3 43 be 3d 43 b4 96 bd 59 38 39 bd
       0.08289364 0.09290304 -0.07358601 -0.045219753
0002d0 74 bd 74 3d e3 c0 10 bc b0 53 94 3d ab b5 7f 3d
       0.05975099 -0.00883505 0.072425246 0.06242911
0002e0 6f e1 d6 bd 00 06 65 bd 4e c5 ae 3d a6 3f cd 3d
       -0.10492217 -0.055913925 0.08533727 0.100219056
0002f0 f5 ff ef 3c f3 12 18 bd 4f 66 d9 bd a0 41 c4 bc
       0.029296855 -0.037127446 -0.10615217 -0.023957074
000300 e8 4c 61 bc b9 81 62 bd d0 86 4d bd 88 67 9b bc
       -0.013751246 -0.055299494 -0.050177395 -0.018970266
000310 0b 36 8e 3d 07 ed d2 bd c8 a0 4e 3c c6 9f e1 3c
       0.06943902 -0.10299116 0.012611575 0.027542006
000320 10 c6 9f bd 16 4e 08 bd ca 30 f9 3c 4a ff f4 3c
       -0.07801449 -0.033277594 0.030418772 0.029906888
000330 1f 4a 49 3d ea 5b ce bd d5 71 7f ba 5e 79 96 3c
       0.049142953 -0.10076125 -0.00097444403 0.01836842
000340 25 7b 43 bd 4a 83 d6 3d f9 fb 79 bc f0 0a 47 3d
       -0.04772486 0.1047426 -0.015257829 0.048594415
000350 87 6f 7a 3c 5f 70 74 bd 40 59 3b bd 1f 21 6c 3d
       0.015285379 -0.059677478 -0.045739412 0.057648774
000360 71 58 9f bd 76 f7 a9 3b c9 97 dc bd 70 e6 cb bd
       -0.07780541 0.0051869703 -0.10771138 -0.09956062
000370 83 0b c1 bc ab 22 5b bd 5b d0 c0 bd a0 27 d4 bd
       -0.02356506 -0.05349986 -0.09414741 -0.1035912
000380 57 dd 47 3d 13 d3 19 3d d5 51 51 bd fa 47 d1 3d
       0.04879507 0.03755481 -0.05110343 0.102188066
000390 9a 64 d7 3d cc 30 7e 3d 54 68 75 bd 33 c9 06 bd
       0.10517235 0.062058255 -0.05991395 -0.032906722
0003a0 23 50 ef 3c 55 02 a8 bd d2 db 71 bd 78 67 d7 bc
       0.029213017 -0.0820357 -0.059047528 -0.026294455
0003b0 24 d7 83 bb a6 40 d3 3c a2 9f 02 3d 0c 50 9a 3d
       -0.0040234495 0.025787663 0.03189052 0.07534799
0003c0 6c 43 11 3b 38 97 96 3c 21 16 fb bc 4c 6c af 3d
       0.002216543 0.018382654 -0.0306502 0.08565578
0003d0 bb ad 50 bc a5 96 e6 bc 99 4d c1 bd cf 60 a0 bd
       -0.012736733 -0.028148005 -0.09438629 -0.07830965
0003e0 29 53 68 3d 0c 3a 6e bd 58 40 c1 3b 3c 35 dc 3d
       0.056719933 -0.058160827 0.005897563 0.10752341
0003f0 f4 80 d5 3d ed 84 a2 bb 58 c9 09 bd 7d cc ba bd
       0.104249865 -0.0049596936 -0.033639282 -0.09121034

hidden.linear.mask f4 [256, 257]
000000 00 00 80 3f 00 00 80 3f 00 00 80 3f 00 00 80 3f
       1.0 1.0 1.0 1.0
000010 00 00 80 3f 00 00 80 3f 00 00 80 3f 00 00 80 3f
       1.0 1.0 1.0 1.0
000020 00 00 80 3f 00 00 80 3f 00 00 80 3f 00 00 80 3f
       1.0 1.0 1.0 1.0
000030 00 00 80 3f 00 00 80 3f 00 00 80 3f 00 00 80 3f
       1.0 1.0 1.0 1.0
000040 00 00 80 3f 00 00 80 3f 00 00 80 3f 00 00 80 3f
       1.0 1.0 1.0 1.0
000050 00 00 80 3f 00 00 80 3f 00 00 80 3f 00 00 80 3f
       1.0 1.0 1.0 1.0
000060 00 00 80 3f 00 00 80 3f 00 00 80 3f 00 00 80 3f
       1.0 1.0 1.0 1.0
000070 00 00 80 3f 00 00 80 3f 00 00 80 3f 00 00 80 3f
       1.0 1.0 1.0 1.0
000080 00 00 80 3f 00 00 80 3f 00 00 80 3f 00 00 80 3f
       1.0 1.0 1.0 1.0
000090 00 00 80 3f 00 00 80 3f 00 00 80 3f 00 00 80 3f
       1.0 1.0 1.0 1.0
0000a0 00 00 80 3f 00 00 80 3f 00 00 80 3f 00 00 80 3f
       1.0 1.0 1.0 1.0
0000b0 00 00 80 3f 00 00 80 3f 00 00 80 3f 00 00 80 3f
       1.0 1.0 1.0 1.0
0000c0 00 00 80 3f 00 00 80 3f 00 00 80 3f 00 00 80 3f
       1.0 1.0 1.0 1.0
0000d0 00 00 80 3f 00 00 80 3f 00 00 80 3f 00 00 80 3f
       1.0 1.0 1.0 1.0
0000e0 00 00 80 3f 00 00 80 3f 00 00 80 3f 00 00 80 3f
       1.0 1.0 1.0 1.0
0000f0 00 00 80 3f 00 00 80 3f 00 00 80 3f 00 00 80 3f
       1.0 1.0 1.0 1.0
000100 00 00 80 3f 00 00 80 3f 00 00 80 3f 00 00 80 3f
       1.0 1.0 1.0 1.0
000110 00 00 80 3f 00 00 80 3f 00 00 80 3f 00 00 80 3f
       1.0 1.0 1.0 1.0
000120 00 00 80 3f 00 00 80 3f 00 00 80 3f 00 00 80 3f
       1.0 1.0 1.0 1.0
000130 00 00 80 3f 00 00 80 3f 00 00 80 3f 00 00 80 3f
       1.0 1.0 1.0 1.0
000140 00 00 80 3f 00 00 80 3f 00 00 80 3f 00 00 80 3f
       1.0 1.0 1.0 1.0
000150 00 00 80 3f 00 00 80 3f 00 00 80 3f 00 00 80 3f
       1.0 1.0 1.0 1.0
000160 00 00 80 3f 00 00 80 3f 00 00 80 3f 00 00 80 3f
       1.0 1.0 1.0 1.0
000170 00 00 80 3f 00 00 80 3f 00 00 80 3f 00 00 80 3f
       1.0 1.0 1.0 1.0
000180 00 00 80 3f 00 00 80 3f 00 00 80 3f 00 00 80 3f
       1.0 1.0 1.0 1.0
000190 00 00 80 3f 00 00 80 3f 00 00 80 3f 00 00 80 3f
       1.0 1.0 1.0 1.0
0001a0 00 00 80 3f 00 00 80 3f 00 00 80 3f 00 00 80 3f
       1.0 1.0 1.0 1.0
0001b0 00 00 80 3f 00 00 80 3f 00 00 80 3f 00 00 80 3f
       1.0 1.0 1.0 1.0
0001c0 00 00 80 3f 00 00 80 3f 00 00 80 3f 00 00 80 3f
       1.0 1.0 1.0 1.0
0001d0 00 00 80 3f 00 00 80 3f 00 00 80 3f 00 00 80 3f
       1.0 1.0 1.0 1.0
0001e0 00 00 80 3f 00 00 80 3f 00 00 80 3f 00 00 80 3f
       1.0 1.0 1.0 1.0
0001f0 00 00 80 3f 00 00 80 3f 00 00 80 3f 00 00 80 3f
       1.0 1.0 1.0 1.0
000200 00 00 80 3f 00 00 80 3f 00 00 80 3f 00 00 80 3f
       1.0 1.0 1.0 1.0
000210 00 00 80 3f 00 00 80 3f 00 00 80 3f 00 00 80 3f
       1.0 1.0 1.0 1.0
000220 00 00 80 3f 00 00 80 3f 00 00 80 3f 00 00 80 3f
       1.0 1.0 1.0 1.0
000230 00 00 80 3f 00 00 80 3f 00 00 80 3f 00 00 80 3f
       1.0 1.0 1.0 1.0
000240 00 00 80 3f 00 00 80 3f 00 00 80 3f 00 00 80 3f
       1.0 1.0 1.0 1.0
000250 00 00 80 3f 00 00 80 3f 00 00 80 3f 00 00 80 3f
       1.0 1.0 1.0 1.0
000260 00 00 80 3f 00 00 80 3f 00 00 80 3f 00 00 80 3f
       1.0 1.0 1.0 1.0
000270 00 00 80 3f 00 00 80 3f 00 00 80 3f 00 00 80 3f
       1.0 1.0 1.0 1.0
000280 00 00 80 3f 00 00 80 3f 00 00 80 3f 00 00 80 3f
       1.0 1.0 1.0 1.0
000290 00 00 80 3f 00 00 80 3f 00 00 80 3f 00 00 80 3f
       1.0 1.0 1.0 1.0
0002a0 00 00 80 3f 00 00 80 3f 00 00 80 3f 00 00 80 3f
       1.0 1.0 1.0 1.0
0002b0 00 00 80 3f 00 00 80 3f 00 00 80 3f 00 00 80 3f
       1.0 1.0 1.0 1.0
0002c0 00 00 80 3f 00 00 80 3f 00 00 80 3f 00 00 80 3f
       1.0 1.0 1.0 1.0
0002d0 00 00 80 3f 00 00 80 3f 00 00 80 3f 00 00 80 3f
       1.0 1.0 1.0 1.0
0002e0 00 00 80 3f 00 00 80 3f 00 00 80 3f 00 00 80 3f
       1.0 1.0 1.0 1.0
0002f0 00 00 80 3f 00 00 80 3f 00 00 80 3f 00 00 80 3f
       1.0 1.0 1.0 1.0
000300 00 00 80 3f 00 00 80 3f 00 00 80 3f 00 00 80 3f
       1.0 1.0 1.0 1.0
000310 00 00 80 3f 00 00 80 3f 00 00 80 3f 00 00 80 3f
       1.0 1.0 1.0 1.0
000320 00 00 80 3f 00 00 80 3f 00 00 80 3f 00 00 80 3f
       1.0 1.0 1.0 1.0
000330 00 00 80 3f 00 00 80 3f 00 00 80 3f 00 00 80 3f
       1.0 1.0 1.0 1.0
000340 00 00 80 3f 00 00 80 3f 00 00 80 3f 00 00 80 3f
       1.0 1.0 1.0 1.0
000350 00 00 80 3f 00 00 80 3f 00 00 80 3f 00 00 80 3f
       1.0 1.0 1.0 1.0
000360 00 00 80 3f 00 00 80 3f 00 00 80 3f 00 00 80 3f
       1.0 1.0 1.0 1.0
000370 00 00 80 3f 00 00 80 3f 00 00 80 3f 00 00 80 3f
       1.0 1.0 1.0 1.0
000380 00 00 80 3f 00 00 80 3f 00 00 80 3f 00 00 80 3f
       1.0 1.0 1.0 1.0
000390 00 00 80 3f 00 00 80 3f 00 00 80 3f 00 00 80 3f
       1.0 1.0 1.0 1.0
0003a0 00 00 80 3f 00 00 80 3f 00 00 80 3f 00 00 80 3f
       1.0 1.0 1.0 1.0
0003b0 00 00 80 3f 00 00 80 3f 00 00 80 3f 00 00 80 3f
       1.0 1.0 1.0 1.0
0003c0 00 00 80 3f 00 00 80 3f 00 00 80 3f 00 00 80 3f
       1.0 1.0 1.0 1.0
0003d0 00 00 80 3f 00 00 80 3f 00 00 80 3f 00 00 80 3f
       1.0 1.0 1.0 1.0
0003e0 00 00 80 3f 00 00 80 3f 00 00 80 3f 00 00 80 3f
       1.0 1.0 1.0 1.0
0003f0 00 00 80 3f 00 00 80 3f 00 00 80 3f 00 00 80 3f
       1.0 1.0 1.0 1.0

out.tau_mem f4 [10]
000000 23 36 a5 41 32 cf a2 41 ec 85 a3 41 38 ba 98 41
       20.651434 20.35117 20.440392 19.090927
000010 b8 79 9d 41 49 60 ae 41 75 5e 97 41 f7 16 a0 41
       19.684433 21.797014 18.921122 20.011213
000020 99 40 9b 41 dc 95 9b 41
       19.406542 19.448174

out.linear.weight f4 [10, 256]
000000 49 94 c1 3d c8 c9 d2 bd 2a 7b a8 3d 90 71 13 3e
       0.09452111 -0.10292393 0.08226617 0.1439879
000010 70 cc f7 bd 3e d9 ca 3d 82 e4 16 3e 04 fe 0e bd
       -0.1209954 0.09904717 0.14735606 -0.034910217
000020 5d f5 bb bd 43 cd ff 3d 4a 60 f4 bd 37 d8 0e 3e
       -0.09177659 0.124903224 -0.11932428 0.13949667
000030 ba ee d8 3d d7 80 7e 3d a9 2c cf 3c f0 ca ce bd
       0.105924085 0.06213459 0.02528985 -0.10097301
000040 71 36 f2 3d 32 c5 c5 bd 50 9a 03 3e a8 02 d7 bd
       0.1182679 -0.09656753 0.12851834 -0.104985535
000050 14 c2 2c 3d 7f 7f 9d bd da 27 ef bd 40 8a 04 be
       0.042177275 -0.076903336 -0.11677523 -0.12943363
000060 5f fb 9d bc 85 51 1f 3d da 6a 96 3d ca 69 2c bd
       -0.019284902 0.038896102 0.07344599 -0.042093076
000070 a4 de 4e 3b c1 4d fd bd bc 5d 03 be aa 6d c5 3b
       0.003156581 -0.12368346 -0.12828726 0.006025036
000080 a4 9d 3f bd 4f e4 eb bd 8b b8 fe bd f9 02 b2 3c
       -0.046781197 -0.11518156 -0.124375425 0.021729933
000090 d4 c1 17 be d5 98 b8 3c b2 39 80 3d 51 c3 e5 bd
       -0.14820033 0.022533813 0.062610045 -0.11218894
0000a0 08 15 03 3e a6 b4 f8 bc 17 cd 0c 3e 9e 38 16 be
       0.12800992 -0.030359577 0.1375011 -0.14670035
0000b0 74 a3 e4 bd 67 ae 48 bd 48 48 04 bd 65 53 06 be
       -0.11163989 -0.048994448 -0.032295495 -0.1311775
0000c0 41 28 8c bc 7c bb 12 be af 62 b5 bd 74 84 93 bd
       -0.017109038 -0.14329332 -0.08856713 -0.07202998
0000d0 ea 18 de ba 57 5a e8 bd 18 d7 e9 3d ab c7 d2 3d
       -0.0016944681 -0.11345356 0.11417979 0.1029199
0000e0 5a 3b 0f bd b2 fa b5 3c 1d 34 f4 bd bc ad 4a 3d
       -0.03496871 0.022214267 -0.11924002 0.049482092
0000f0 6e 67 09 be c2 68 7d bd 03 04 11 be ff 53 c8 bd
       -0.13418362 -0.061867483 -0.14161687 -0.09781646
000100 e0 6f 00 3c 0f 9b 87 bc 8e f2 94 bc 54 a0 f9 bb
       0.007839173 -0.01655343 -0.018182065 -0.0076179896
000110 75 ae c4 3d e2 19 ff 3c 4f c5 bf 3d 52 eb be bd
       0.096035875 0.031140272 0.093638055 -0.093222275
000120 d9 74 bd bd 60 03 6f 3d 17 6d d7 3d 47 25 54 bd
       -0.092508025 0.058352828 0.10518854 -0.051793363
000130 f0 34 0f 3e 54 3d c8 bd c7 d9 c0 3d 32 45 14 be
       0.13985038 -0.097773224 0.09416538 -0.14479521
000140 e8 ea bf bd 0d 24 a3 3c 63 5e a5 bc 75 be 3b 3d
       -0.09370977 0.019914651 -0.020186609 0.04583593
000150 14 46 19 3d 8e 6a e3 3d 93 e6 09 3e 68 be 8f 3d
       0.037420347 0.11104308 0.13466863 0.07018739
000160 00 10 a3 3d dd c7 16 be 07 d0 e7 3c 6a ae 32 3b
       0.07962036 -0.1472468 0.028297437 0.0027264603
000170 b3 73 10 be 7e 5d 7e bd 00 f4 3b bd 73 67 36 3d
       -0.14106636 -0.06210088 -0.045886993 0.04453225
000180 99 60 c5 ba fe 8f 83 bd 55 0d 04 3c 4d cd a5 bc
       -0.0015058696 -0.06423949 0.008059819 -0.020239497
000190 79 d1 05 be 43 47 09 be 55 39 fa bc 77 f2 f5 3d
       -0.13068189 -0.1340609 -0.030544916 0.12009137
0001a0 36 61 10 bd 71 ae e1 3d e9 77 d2 3d 6b 23 af bd
       -0.035248958 0.110196 0.10276777 -0.08551677
0001b0 94 4b db 3d 0e 14 0a be 5e 76 b7 bd 59 48 6b 3d
       0.10707775 -0.13484213 -0.089581236 0.057442043
0001c0 cc 75 80 3d c0 b5 b3 3d 56 20 0c 3e 1c f2 bc 3d
       0.06272468 0.087749004 0.1368421 0.09225866
0001d0 5a 8c 3b 3b 72 22 c0 bc 11 cc 5b bd 31 a9 56 bd
       0.0028617592 -0.023453925 -0.05366141 -0.052407447
0001e0 65 80 13 be 59 37 b1 3d 69 3d 09 3e 53 2b 8c 3d
       -0.14404447 0.08653135 0.13402332 0.06844201
0001f0 b6 34 31 bd 4e 63 96 3b 7a f7 05 be 55 e9 16 3e
       -0.04326316 0.0045894748 -0.13082686 0.14737447
000200 d7 e9 11 3e 34 ef e4 3b cf a1 e2 bd 4b 4f 2d bb
       0.14249359 0.006986523 -0.11066019 -0.0026444967
000210 3e 32 1b 3d b5 f4 02 be c9 d3 d8 3d 97 93 7b bd
       0.03788971 -0.12788661 0.1058727 -0.06142005
000220 39 25 86 bd 06 f0 65 ba 15 f1 14 3e 08 02 a3 bd
       -0.065500684 -0.0008771423 0.1454509 -0.07959372
000230 98 1c 8a 3d 4f 84 c5 bc 25 0e 3a bd b4 92 d5 bd
       0.06743735 -0.024110941 -0.045423646 -0.10428372
000240 6c c2 b3 3d 83 15 d1 bd 75 ce 13 3e 1f eb c9 bd
       0.087773174 -0.10209181 0.14434226 -0.09859299
000250 45 08 c5 bd 0b 19 ec 3d 3f 39 15 be cd 52 ec bd
       -0.09620718 0.11528214 -0.14572619 -0.115392305
000260 61 a2 42 3d 9a d5 ed 3d 24 ac b6 3b 5a 34 35 bd
       0.047518138 0.11613007 0.00557472 -0.04423938
000270 27 6b ad bc 72 23 cd bd 8a 78 ce 3d e8 5b 01 3e
       -0.021169258 -0.10016526 0.10081585 0.12632716
000280 e3 91 fe bd 66 dd 90 bd 66 0b a9 3d 1c 6b 06 3e
       -0.124301694 -0.070734784 0.08254127 0.13126796
000290 cf ec 81 bd 9b ef 0d be db 73 00 3d fd 83 8c bd
       -0.06343996 -0.13860933 0.03136049 -0.06861112
0002a0 38 ba eb bd 0f a5 88 3d 66 5d a8 3c ce f4 d5 3d
       -0.11510128 0.066721074 0.020552348 0.104470834
0002b0 ec e2 93 bd 94 4a 90 bd 94 e4 a4 bd 0f 65 81 bc
       -0.07221016 -0.07045475 -0.0805141 -0.015795259
0002c0 46 03 87 3d e1 be 00 3e ec f3 cd 3d f1 8d 06 bd
       0.06592421 0.12572815 0.1005629 -0.03285021
0002d0 ed 1e cc bd 62 de 60 bd 1e 26 03 be 0b 01 31 3d
       -0.09966836 -0.05489958 -0.1280751 0.043213885
0002e0 50 61 51 bd cf e6 42 3b d7 f6 d9 bc bc 80 79 bd
       -0.051118195 0.0029739623 -0.02660696 -0.060913786
0002f0 1b 22 58 3c 57 d9 89 ba 00 45 aa 3d a4 4b 90 bc
       0.013191725 -0.0010517043 0.08313942 -0.017614193
000300 ef f3 ec bd d4 62 da 3d 1e 46 99 bd c8 19 11 be
       -0.11569964 0.10663381 -0.07484077 -0.14169991
000310 dd 3e 12 be 31 68 8f 3d 03 03 03 be 85 ab 82 bd
       -0.14281793 0.07002295 -0.12794118 -0.06380371
000320 60 da 33 3d f6 a3 e4 bb 5e 35 af 3d e9 3d fb bc
       0.04390943 -0.0069775535 0.08555101 -0.03066917
000330 23 ed 0e be 80 9d 2e 3d c6 0c be bd dc 02 10 be
       -0.13957648 0.042630672 -0.0927978 -0.14063591
000340 0f bb a4 3d 6a 9c e4 3c 77 8b 9b bd 30 f7 6f 3d
       0.08043491 0.027906615 -0.0759496 0.058585346
000350 1c 18 ed 3d 78 5c 9c bd fb 18 d0 3c 77 7a 8f 3c
       0.11576864 -0.076348245 0.025402537 0.01751445
000360 9a 04 c5 bd 53 ac 62 3d 6c ef 04 3d a1 53 f7 bc
       -0.09620018 0.055340122 0.032454893 -0.030191245
000370 ed d8 b8 3d ce af 16 bd 4e 5e c4 3d d9 95 63 bc
       0.0902575 -0.036788754 0.095883 -0.013890707
000380 25 f1 ac 3d 57 dc b8 3b 34 90 04 bd 85 de b4 3d
       0.08444432 0.005641501 -0.032364085 0.08831505
000390 ba 78 39 bd 7b 9c ff 3d 8c 60 7f 3c 6b 9e 61 bd
       -0.04528115 0.12481018 0.015586983 -0.05508272
0003a0 a5 7e 8f bd 12 17 09 bd 2e 79 11 bb 97 45 99 bc
       -0.070065774 -0.033469267 -0.0022197473 -0.01870994
0003b0 5d 72 80 bd 4b 6c 0c 3e ca a3 1a 3c 02 fe 18 3e
       -0.06271813 0.13713185 0.009438464 0.14940646
0003c0 fb a6 fc bd c2 ec 65 3d 4c a9 8f bd 51 15 85 3d
       -0.123365365 0.056133993 -0.07014713 0.064982064
0003d0 1c 31 cd bd bc f3 91 ba 18 ed d0 bd 09 cf f8 3d
       -0.100191325 -0.001113526 -0.10201472 0.12148864
0003e0 98 1a c3 bd 89 09 15 bd fe bb c4 3b f8 4e 08 3e
       -0.09526557 -0.036386047 0.0060038557 0.13311374
0003f0 41 33 de 3d 7b a7 c1 3d 64 d9 7b 3d 99 67 e1 bc
       0.1084962 0.094557725 0.061486617 -0.02751522
