experiments/ecg/models/05-21_13-51-07_217_Adam(0.1),NLL,LinearLR,no_gc,4,36,6,bs=16,ep=400,VRF(omega3.0,5.0,b0.1,1.0,NoR)LI(20.0,1.0).pt (torch, 30659 bytes, 15 tensors)

hidden.omega f4 [36]
0	0xad90d334	-1.6464698e-11
1	0x40aa2a64	5.3176746
2	0x00000024	5e-44
3	0x40b3b715	5.616099
4	0x409da0ba	4.92587
5	0x3ff5f183	1.9214329
6	0x4076f966	3.858972
7	0x4015afb1	2.3388484
8	0x403bedac	2.9363813
9	0x3f9affef	1.2109355
10	0x407a1451	3.90749
11	0x3fabdddb	1.342708
12	0x4085434a	4.164464
13	0x40ce9adc	6.4564037
14	0x40e0496a	7.0089617
15	0x40ce6e00	6.4509277
16	0x3fad0524	1.3517194
17	0x3fb75e9f	1.4325751
18	0x405e6ed9	3.4755156
19	0x4090cd11	4.5250325
20	0x3f915556	1.1354167
21	0x40a7a4a8	5.2388496
22	0x8000002b	-6e-44
23	0x3f74bfb6	0.9560503
24	0x40734f71	3.8017237
25	0x3fba2be9	1.454465
26	0x3fbb80d6	1.4648693
27	0x409734a2	4.725175
28	0x403da7b5	2.963361
29	0x408458f8	4.1358604
30	0x40d296d1	6.58091
31	0x405363c8	3.3029652
32	0x3d1e3446	0.03862407
33	0x40805c38	4.011257
34	0x4072abed	3.7917435
35	0x3c1c7dd8	0.009551488

hidden.b_offset f4 [36]
0	0x3fada7b2	1.3566802
1	0xbfb6cfab	-1.4282125
2	0x4076db74	3.8571444
3	0xc04ac263	-3.1681144
4	0xbfe8b84f	-1.8181247
5	0x3f8386d9	1.0275527
6	0x402183af	2.5236623
7	0x3f52e755	0.82384235
8	0x3faf6f3e	1.3705823
9	0xbfaeb5a8	-1.3649187
10	0x4017c2ae	2.3712573
11	0x3f184a2a	0.59488165
12	0x3f6e7a74	0.931556
13	0x40c975e0	6.295639
14	0x409aeb40	4.841217
15	0x3f81fc83	1.0155185
16	0x3f38a4ee	0.7212666
17	0x3f838f5f	1.0278128
18	0xbf826d31	-1.0189573
19	0x4000d768	2.0131474
20	0x40c7d6fc	6.244993
21	0x40889b71	4.268975
22	0xc009d0b2	-2.1533628
23	0x402ead00	2.729309
24	0x3ecdfeec	0.40233552
25	0x3f690e85	0.9103778
26	0x3fd77175	1.6831499
27	0x3f5d41c9	0.86428505
28	0x3ef87e9b	0.48534092
29	0x3faa049f	1.328266
30	0x3f9a8df0	1.2074566
31	0x3f8ddb25	1.1082503
32	0x4093c7eb	4.618154
33	0x3f3e1ab9	0.74259526
34	0x401bd8e0	2.435112
35	0x411fd2c6	9.988958

hidden.linear.weight f4 [36, 40]
0	0xc0837c44	-4.108919
1	0x40a5db3d	5.1830125
2	0xc053fa57	-3.3121545
3	0x41047596	8.2787075
4	0xbf6cb9b3	-0.92470855
5	0xbe8b1ebd	-0.2717189
6	0xc0512c05	-3.2683117
7	0x40809aff	4.0189204
8	0xbeea37e0	-0.45745754
9	0x3fa579e8	1.2927828
10	0x3f386802	0.72033703
11	0x3f1e04eb	0.61726254
12	0x408bda91	4.3704305
13	0xc011908f	-2.2744482
14	0x3fead9c5	1.8347708
15	0xbebab6dd	-0.3646764
16	0x3ef4be6c	0.4780153
17	0xbf8fa51f	-1.1222266
18	0xc0201a11	-2.501591
19	0xbff76d02	-1.9330142
20	0xbe42907f	-0.19000433
21	0x3eaea8fb	0.34113297
22	0xc00a5174	-2.1612215
23	0xbf681a7c	-0.9066541
24	0xc1161702	-9.380617
25	0xc03c0ed1	-2.9384043
26	0x3fe741d3	1.8066963
27	0xc0670686	-3.6097732
28	0x3ff7e977	1.9368123
29	0xc077151f	-3.8606641
30	0xbd87b9c6	-0.0662723
31	0x3f3830f6	0.7194971
32	0x3f997e69	1.1991702
33	0xbf53bbc3	-0.82708377
34	0xbef8c96a	-0.48591167
35	0xbea74393	-0.32668743
36	0xbe7c5d10	-0.24644876
37	0x3fec2e75	1.8451678
38	0x40a7d93b	5.2452674
39	0xc08e23dd	-4.441878
40	0x4106c814	8.423847
41	0xc1bfe334	-23.985939
42	0xc138db4b	-11.553538
43	0xc19b5dec	-19.42086
44	0xbf5d2752	-0.86388123
45	0xc0f9d670	-7.8074265
46	0x40af5727	5.4793887
47	0xc06160c8	-3.521532
48	0x40a77dab	5.2340903
49	0x3f75b001	0.95971686
50	0x3fabc120	1.3418312
51	0x40238b94	2.5553942
52	0x3fad2d1f	1.3529395
53	0xbfde914b	-1.738809
54	0xc040879a	-3.0082765
55	0xc0259947	-2.5874803
56	0x40b6869f	5.7039332
57	0xc10b1247	-8.691962
58	0x3fec14b6	1.844382
59	0x3fdaa65e	1.7082021
60	0x405fa209	3.4942648
61	0xbf85b876	-1.0446918
62	0xc0f16a30	-7.5442123
63	0xbf213b19	-0.629808
64	0xc051f0b7	-3.280317
65	0xbfb2224d	-1.3916718
66	0x40914a90	4.540352
67	0x40106664	2.2562494
68	0x3d057533	0.032582473
69	0xc0c27c28	-6.077656
70	0x40467073	3.1006134
71	0x40368c3c	2.8523092
72	0xc00118d4	-2.0171404
73	0xbee1e512	-0.4412008
74	0xc03bc688	-2.9339924
75	0xc083936c	-4.111746
76	0xc0297aed	-2.6481278
77	0xbf78dc77	-0.972114
78	0x3e49393d	0.19650741
79	0x406935ad	3.643901
80	0x40353903	2.8316047
81	0xbeb6744f	-0.3563561
82	0x41e69f6c	28.827843
83	0xc284a0f0	-66.31433
84	0x3f366b83	0.712578
85	0xc033f2d1	-2.8116953
86	0xc1042d81	-8.261109
87	0x3ffab1bc	1.958549
88	0x405babdf	3.4323652
89	0x3f90013a	1.1250374
90	0xc00d509d	-2.2080452
91	0xc053b699	-3.3080199
92	0x4000746f	2.0071065
93	0xc0b9b073	-5.802789
94	0x3f9f6a38	1.245429
95	0x3edd70ec	0.43250215
96	0xc0317809	-2.7729514
97	0xc05c19dd	-3.4390786
98	0xbf8a1650	-1.0788059
99	0x4005caff	2.090515
100	0x3ddb1fb5	0.10699407
101	0xbfa528f5	-1.2903124
102	0x402b37df	2.675285
103	0xc026cd93	-2.6062973
104	0xbfd52720	-1.6652565
105	0xbf40ec0d	-0.75360185
106	0x3f697e38	0.9120822
107	0x404b15b9	3.1732008
108	0xbe4ca400	-0.19984436
109	0x40bf2a01	5.9738774
110	0x3e8d1e65	0.27562252
111	0x3f3c76d9	0.7361885
112	0x40a9ba12	5.3039637
113	0x3e930eb3	0.28722152
114	0xbe601814	-0.21884185
115	0xbfe4a98f	-1.7864245
116	0x41278bc9	10.471627
117	0x3fe445bf	1.7833785
118	0x4027a539	2.6194594
119	0x40100cef	2.2507894
120	0x430d477e	141.27927
121	0x428e6763	71.20193
122	0x42f77559	123.729195
123	0x4270acb3	60.16865
124	0x3c870ad7	0.016484661
125	0xc14bbb43	-12.733218
126	0x409488b3	4.641687
127	0xc12e9550	-10.911453
128	0x4135d7db	11.365199
129	0xc0d6711e	-6.7013083
130	0x3f3fb6d8	0.7488837
131	0xbf8c801f	-1.09766
132	0xbf8d22b5	-1.1026217
133	0xc1a53bd2	-20.65421
134	0xc01b6f8d	-2.4286835
135	0x3f26fe9a	0.6523224
136	0x3fe68dbb	1.8012003
137	0xc0a2b38d	-5.084418
138	0x401d1133	2.4541748
139	0xc0d58310	-6.672249
140	0xc0bd8d2b	-5.9234824
141	0xbe86da24	-0.26338303
142	0x40178d9e	2.3680186
143	0x3fc48507	1.5353097
144	0xc1f1edc3	-30.241095
145	0xc0256ce3	-2.584771
146	0x40e00e52	7.001748
147	0xc116f5f7	-9.43505
148	0xc09d75ec	-4.9206448
149	0x4093c833	4.6181884
150	0xbf360af3	-0.7111046
151	0xc0870b49	-4.2201276
152	0xbf52e93f	-0.82387155
153	0x40d46b46	6.638095
154	0xc0238722	-2.5551229
155	0x402fbc32	2.7458615
156	0xc0733fcc	-3.8007689
157	0x3f147614	0.5799267
158	0xc07ca066	-3.94729
159	0xc0674f47	-3.6142137
160	0xc1b036dc	-22.026787
161	0xc1c23949	-24.277971
162	0xc18fb576	-17.963604
163	0xc245121f	-49.267696
164	0x40061c1f	2.0954664
165	0xc06b0eaa	-3.67277
166	0xbfbdfffe	-1.4843748
167	0xc0a35939	-5.1046414
168	0xc125a493	-10.352679
169	0x3f0de1af	0.5542249
170	0x3d8b9053	0.06814637
171	0xbf8c0571	-1.093916
172	0x406e4a4a	3.7232842
173	0x406d9c5b	3.7126682
174	0xc08452aa	-4.135091
175	0xbffa5f32	-1.9560301
176	0xc0a18b07	-5.048221
177	0x4128d0e9	10.551003
178	0xc00a8f52	-2.1649976
179	0x3fbb47ef	1.4631327
180	0x40f56375	7.6683908
181	0xbfaa2578	-1.3292685
182	0xc0818b68	-4.0482674
183	0x40145bac	2.3180952
184	0x4061c61e	3.527717
185	0xc00c4c35	-2.1921513
186	0xc1084b04	-8.518314
187	0xbed976e8	-0.4247353
188	0x3feb26d8	1.8371229
189	0xbf12c060	-0.5732479
190	0x3fe1a5b3	1.7628692
191	0x40b63730	5.6942368
192	0x3fc9c826	1.5764205
193	0xc00d42b8	-2.2071972
194	0x4027a2eb	2.6193187
195	0x3f9015a4	1.1256604
196	0x40566d44	3.350419
197	0xbf890d01	-1.0707093
198	0xc064fe3b	-3.578017
199	0xc0840f06	-4.126834
200	0x3f8ffa2f	1.1248225
201	0xbfec6f1b	-1.8471407
202	0x41d19673	26.198462
203	0xc1dab79c	-27.339653
204	0xbf6d9d42	-0.9281808
205	0x4113ff92	9.249895
206	0xbe891a48	-0.26777864
207	0x4049c72a	3.152781
208	0x3f83ba69	1.0291263
209	0xc0be5e7e	-5.9490347
210	0xc08883b8	-4.266079
211	0xc021bcd9	-2.5271513
212	0x4080c7af	4.0243754
213	0x409d7a45	4.9211755
214	0x40a53455	5.162638
215	0x409413c1	4.6274114
216	0x40104516	2.2542167
217	0x412446d4	10.267292
218	0x3ff1c07f	1.888687
219	0x4084b6a2	4.147294
220	0xbfe594d2	-1.7936041
221	0xbea6c6d4	-0.3257357
222	0x40e6e557	7.2154956
223	0x4025f936	2.5933356
224	0xc11a71bb	-9.652766
225	0xbfdd10f9	-1.7270805
226	0x3f9ea771	1.2394849
227	0xc0ed445d	-7.414595
228	0xbf9c303d	-1.2202221
229	0xc11a8b2f	-9.65898
230	0xc05c7e7f	-3.4452207
231	0xbecafd34	-0.39646304
232	0xbf95d00a	-1.1704113
233	0x4012e75f	2.2953718
234	0x402583f0	2.5861778
235	0xc079b52f	-3.9016836
236	0x40fd18db	7.909284
237	0x3f92f4e2	1.1480982
238	0x3f8e6bb7	1.1126622
239	0x3fa8e603	1.3195194
240	0xc2374047	-45.81277
241	0xc1e141ee	-28.157192
242	0xc187f34c	-16.993797
243	0xc2395264	-46.33046
244	0x408fbca0	4.4917755
245	0xc1973673	-18.901587
246	0xbef08b5e	-0.4698133
247	0xc063fbdc	-3.5622473
248	0x4045d470	3.0910912
249	0xbf58654c	-0.84529567
250	0xc112bdb2	-9.171312
251	0x3ff8ec8a	1.9447186
252	0x3f9f3ac6	1.2439811
253	0x3fcfe461	1.6241571
254	0x3f79e36b	0.9761264
255	0x40936275	4.6057687

out.tau_mem f4 [6]
0	0x41edb5e1	29.713808
1	0x4146277c	12.38464
2	0x40f90c7c	7.782774
3	0x4125b462	10.356539
4	0x41add4b7	21.728865
5	0x423e2272	47.533638

out.linear.weight f4 [6, 36]
0	0xbfe22e0f	-1.7670306
1	0xbf054c4d	-0.5206955
2	0xc07f4eeb	-3.9891918
3	0x40509450	3.2590523
4	0xbbb78523	-0.005600588
5	0x402ff575	2.7493565
6	0x3e32f402	0.17475894
7	0x3f7bc478	0.9834666
8	0xbf961a67	-1.1726807
9	0xc037e99c	-2.8736334
10	0xbe7a50eb	-0.2444493
11	0xc012ad18	-2.2918148
12	0xbe45004b	-0.19238393
13	0xbf9f7e6b	-1.2460455
14	0xc0b18f8c	-5.548773
15	0xc0876ca2	-4.232011
16	0xbf9424e1	-1.1573755
17	0xbea6e341	-0.32595256
18	0xbe9b96e5	-0.3038856
19	0xbfeed41d	-1.8658482
20	0xbfee786e	-1.8630502
21	0xbfdf6f6d	-1.745588
22	0x3fa3369b	1.2751039
23	0x3feef033	1.8667053
24	0x3ff50cf0	1.9144573
25	0x3e35ec12	0.17765835
26	0xc04fa40c	-3.2443876
27	0xbdebaa3d	-0.1150708
28	0x3f888139	1.0664436
29	0x3e14d821	0.14535572
30	0xbf3d4cf0	-0.7394552
31	0x3f540c7a	0.8283154
32	0xc1062bb4	-8.38567
33	0x3fa31203	1.2739872
34	0x40be42ee	5.94567
35	0xc0eec37c	-7.461363
36	0xbea92624	-0.3303691
37	0x3eea2e8d	0.4573864
38	0xbe71e209	-0.23621382
39	0xbffcfab5	-1.976401
40	0xbdfa6703	-0.12226679
41	0xbfa59d63	-1.2938656
42	0xc014d7e6	-2.3256774
43	0x3e789a03	0.24277501
44	0x3f1e5f63	0.618643
45	0xbe882213	-0.26588497
46	0x3ef5d351	0.48012784
47	0xc002571e	-2.0365672
48	0xbf2450f7	-0.6418604
49	0x40847d11	4.140267
50	0x40709842	3.759293
51	0x3f16dfe5	0.58935386
52	0xbf03803b	-0.5136754
53	0x3e11c2cb	0.14234464
54	0x3f935ce7	1.1512727
55	0xbf7b9d7c	-0.9828718
56	0xbfe680a3	-1.8008007
57	0xc0a85afc	-5.2611065
58	0xc031f090	-2.7803078
59	0x3f9369b5	1.1516634
60	0xbdb8657a	-0.0900373
61	0xbfa91f21	-1.3212625
62	0x3f1be3b7	0.6089434
63	0xbff6c50f	-1.9278888
64	0x3f582777	0.8443522
65	0xbfc64f7c	-1.5493007
66	0x3fa7f203	1.3120731
67	0xbfef5f5f	-1.870098
68	0xc0912060	-4.535202
69	0xbfae6648	-1.3624964
70	0xc03f8800	-2.9926758
71	0x4098af17	4.7713733
72	0x3f0d9de1	0.5531903
73	0xc04d9c1b	-3.212653
74	0x3f9df875	1.2341448
75	0xc0012a11	-2.0181925
76	0xbfd18168	-1.6367617
77	0xbe29abd6	-0.16569456
78	0xc0ec4086	-7.3828764
79	0x3e196d1f	0.14983033
80	0xbf2c2ebd	-0.67258817
81	0x3f81d926	1.0144393
82	0xbf4777b9	-0.7791706
83	0xc011a4cb	-2.2756832
84	0xbf78f797	-0.9725279
85	0x4066c2a7	3.6056306
86	0xbfc5dcb1	-1.5457975
87	0x3fe99ef6	1.8251636
88	0xbe969341	-0.2940922
89	0xbc80fe1a	-0.015746165
90	0x3f0474d0	0.5174074
91	0xbfcc7fba	-1.5976479
92	0x3fd6d085	1.6782385
93	0xc082ca58	-4.0872
94	0xc0a2debd	-5.0896897
95	0x3f1ceeeb	0.6130206
96	0x3e01e4a2	0.12684873
97	0xc04d8560	-3.2112656
98	0xbfe0d127	-1.7563828
99	0xc02cb5a0	-2.6985855
100	0x3f61e7c9	0.882443
101	0xc0555804	-3.333497
102	0x3e1e4b38	0.15458381
103	0xc0049171	-2.071377
104	0x3f0c9e8f	0.5492944
105	0xbf80e982	-1.0071261
106	0xc0997348	-4.7953224
107	0x402a2c5d	2.6589577
108	0x3faf5ba8	1.3699846
109	0xc0487b35	-3.13252
110	0x4005abcc	2.0886106
111	0xc084609d	-4.1367936
112	0xc039a056	-2.9004111
113	0x4018c32c	2.3869123
114	0xc184371e	-16.526913
115	0x3f4ee98d	0.8082512
116	0xbfdbfcbf	-1.7186507
117	0x3e5ae567	0.21376573
118	0xbf5d3a89	-0.8641744
119	0xbeb1eba7	-0.347501
120	0xbef73f9b	-0.48290715
121	0xbf3752e8	-0.7161088
122	0xc0160e39	-2.344618
123	0x401ecfde	2.4814372
124	0x3f502472	0.8130561
125	0xbfe33ecb	-1.7753538
126	0xbfaf8057	-1.3711041
127	0xc11a3b3a	-9.63946
128	0x40bc5056	5.8848066
129	0x4029f07c	2.655303
130	0xc03795af	-2.868511
131	0x3fe042cf	1.7520388
132	0xbf72687c	-0.9469068
133	0xc05c9f1a	-3.4472108
134	0xbf80420c	-1.0020156
135	0xc0b3939d	-5.611769
136	0xbe092dda	-0.13396397
137	0xbe764da6	-0.24053058
138	0x3f2eaf11	0.6823588
139	0xbf8edf31	-1.1161863
140	0x3fbfbe06	1.4979866
141	0xbf311988	-0.6917958
142	0xc0abd47e	-5.369689
143	0xbfea6016	-1.8310573
144	0x3ee10f42	0.43956953
145	0x3f22f0d0	0.636487
146	0x4092e0b4	4.5899296
147	0xbfadda6a	-1.358228
148	0xc045a0fa	-3.0879502
149	0x3fbdfd27	1.4842881
150	0xc0834923	-4.102678
151	0x3fcd5263	1.6040767
152	0x3f37e5b1	0.71834856
153	0x40790a89	3.891268
154	0xbfc768fc	-1.5578914
155	0x3fdf597f	1.7449187
156	0x3eea6cac	0.45786035
157	0xc1031634	-8.192921
158	0xbfa0cfbd	-1.2563397
159	0x40093539	2.1438735
160	0x40346687	2.8187578
161	0xbe8034b0	-0.25040197
162	0xc09fd86e	-4.9951696
163	0xbed76dca	-0.4207595
164	0x3fa7349c	1.306293
165	0x40859d92	4.1754847
166	0xbffc2910	-1.9700031
167	0x40a36eb9	5.107266
168	0xbf915663	-1.1354488
169	0xc0aa5094	-5.322336
170	0xc07fa000	-3.9941406
171	0xbd953e11	-0.07287229
172	0xbfaee368	-1.3663149
173	0xbf29e003	-0.6635744
174	0x404e686f	3.2251241
175	0xc00cc782	-2.199677
176	0x3ea57e1d	0.3232278
177	0xc0017d81	-2.0232852
178	0xc02ee884	-2.7329416
179	0x3f1eafae	0.61986816
180	0xbfc2b12e	-1.5210321
181	0x3bbef17f	0.0058271284
182	0x3e44dee7	0.19225655
183	0xbebbd3ac	-0.3668493
184	0x3fd7c491	1.6856862
185	0xbfaf44f0	-1.3692913
186	0xbf402af6	-0.75065553
187	0x4067bbd4	3.620839
188	0xc051a826	-3.275888
189	0x3ffe18fb	1.9851373
190	0xc0a1c5d2	-5.055398
191	0x400bf694	2.186925
192	0x404c473d	3.191848
193	0xbfb865c7	-1.440606
194	0xbfda77a4	-1.7067761
195	0xbe2d5e3b	-0.16930477
196	0x40108cda	2.258597
197	0x3ee29747	0.4425604
198	0x3f72a9b0	0.9479017
199	0x3fda4253	1.705149
200	0x3f22423a	0.63382304
201	0x3f6eaeb2	0.93235314
202	0xbfeb06da	-1.8361466
203	0x410c3e59	8.765222
204	0xc0320f66	-2.7821898
205	0xc0996ac3	-4.7942824
206	0xc0deddc6	-6.964572
207	0x4013ae97	2.307531
208	0xc04d30ce	-3.2061038
209	0xbed4a69d	-0.41533366
210	0x40812f23	4.037004
211	0xbd0f7c6b	-0.035030764
212	0xc07286f9	-3.789488
213	0xbfcc1178	-1.5942831
214	0xbee5281c	-0.44757164
215	0x40523cfb	3.284972

exp_avg f4 [36]
0	0x2d6f14c4	1.3590188e-11
1	0x4008a2d4	2.1349382
2	0x80000002	-3e-45
3	0x3fbc7cf4	1.4725633
4	0xbe553139	-0.20819558
5	0x401acd28	2.4187717
6	0x3df8b88f	0.12144577
7	0xbfa49f69	-1.2861148
8	0xbf7a7a92	-0.9784328
9	0x3de770de	0.113008246
10	0x3f15c541	0.5850411
11	0x3fb53b66	1.4158752
12	0x3ef23eab	0.47313437
13	0xbd48f05a	-0.049057342
14	0xbf375129	-0.71608216
15	0x3f953f42	1.165993
16	0xc028a1a8	-2.6348667
17	0xbed2319f	-0.41053483
18	0x3f27cf1c	0.655504
19	0xbe3bd9d9	-0.18344821
20	0x3de6a407	0.112617545
21	0xbf1b7e7c	-0.60739875
22	0x80000004	-6e-45
23	0x3ec0db2d	0.37667218
24	0x3f3e1373	0.7424843
25	0xbf4f1b27	-0.80900806
26	0x3e8394f1	0.2569957
27	0xc0a28281	-5.0784307
28	0x3fdfa8a3	1.7473339
29	0xbe0cc11f	-0.13745545
30	0x3f37280d	0.7154549
31	0x3de9b299	0.11411018
32	0xbb597753	-0.0033182695
33	0xc01a1dea	-2.4080758
34	0xbeeb8dc5	-0.460066
35	0xba493dfc	-0.0007676778

exp_avg_sq f4 [36]
0	0x3d76b813	0.06023414
1	0x424e78b5	51.617878
2	0x3b71e984	0.0036912868
3	0x4183c40f	16.470732
4	0x4203a804	32.914078
5	0x42af5188	87.65924
6	0x41391e46	11.569891
7	0x424ac68c	50.693893
8	0x4106c484	8.422977
9	0x40e9dffd	7.3085923
10	0x40811dfd	4.0349107
11	0x42b42877	90.07903
12	0x419f74af	19.931974
13	0x409a3633	4.819116
14	0x40a4d64a	5.1511583
15	0x41a91425	21.134836
16	0x43b042d7	352.5222
17	0x4103170c	8.193127
18	0x4198d7e6	19.10542
19	0x40cba11f	6.363418
20	0x3ec0d7ab	0.37664542
21	0x40ba80aa	5.828206
22	0x3bcda3ac	0.0062756147
23	0x3fdfd26a	1.7486088
24	0x4221ce9e	40.451775
25	0x42c3c973	97.893456
26	0x40dbcc15	6.8686624
27	0x428b42dd	69.63059
28	0x434561e6	197.38242
29	0x41a94d69	21.162798
30	0x41d2cec2	26.350956
31	0x4181e166	16.235058
32	0x3d4e3e78	0.050352544
33	0x4221d282	40.455574
34	0x42072f1a	33.795998
35	0x3cd8e373	0.026475644

exp_avg f4 [36]
0	0xbea88658	-0.32914996
1	0xbee728e0	-0.45148373
2	0xbf6f9a27	-0.9359459
3	0xbf09fde5	-0.5390304
4	0xbf72724a	-0.9470564
5	0xbfb50dcc	-1.4144835
6	0xbf44ff4f	-0.7695207
7	0xc00e847c	-2.2268362
8	0xbf22eaf2	-0.6363975
9	0x3feb45ea	1.8380711
10	0x3f030a03	0.5118715
11	0x3fe26540	1.7687149
12	0xc03592fa	-2.8370957
13	0xbd4fa5c5	-0.0506952
14	0x3d003ef7	0.031310048
15	0xbfc28d8b	-1.5199445
16	0xbf179e3a	-0.5922581
17	0xbebb7c0a	-0.36618072
18	0x3f50445d	0.81354314
19	0xbfd4fa12	-1.6638815
20	0x3edae877	0.42755482
21	0xbedd5719	-0.43230513
22	0xbf11431f	-0.56743044
23	0xbea600cd	-0.32422486
24	0xbedadc3d	-0.42746153
25	0x406ca5b2	3.6976132
26	0x3f509e80	0.8149185
27	0x3f8f359a	1.1188233
28	0xc0ded0f2	-6.963006
29	0x3f1c80b0	0.6113386
30	0xbd039da2	-0.032132752
31	0x3ddee44d	0.10883389
32	0xbefc1773	-0.4923664
33	0xbf60af0a	-0.8776709
34	0xbf17dd8a	-0.59322417
35	0xbf0db2fa	-0.5535122

exp_avg_sq f4 [36]
0	0x4174564d	15.27107
1	0x412a3bbf	10.639586
2	0x40b243f1	5.5707936
3	0x4147a69d	12.478177
4	0x426cf697	59.24081
5	0x41da318a	27.274189
6	0x41cee337	25.860945
7	0x4326e0ab	166.87761
8	0x413affcb	11.687449
9	0x40cd91b4	6.424036
10	0x404d2401	3.2053225
11	0x432447be	164.28024
12	0x42c2b4a1	97.35279
13	0x3f210ad5	0.62907153
14	0x3e888485	0.26663604
15	0x4285bf01	66.873055
16	0x42645aa2	57.08851
17	0x40a7a0d1	5.238381
18	0x41d2e412	26.361362
19	0x41fc46f9	31.534655
20	0x400f99a9	2.2437537
21	0x3fceab5e	1.6146047
22	0x403a6aac	2.9127607
23	0x400e094e	2.219318
24	0x41d8f0cb	27.117575
25	0x42831fd0	65.56213
26	0x40bb4bae	5.8529882
27	0x42a4c37b	82.3818
28	0x42c0d4cf	96.41564
29	0x4150688c	13.025524
30	0x42107611	36.1153
31	0x4260fb5c	56.24547
32	0x40296322	2.6466756
33	0x4199c31e	19.220272
34	0x41d32d60	26.397156
35	0x4044ff06	3.0780654

exp_avg f4 [36, 40]
0	0x3d374444	0.044742838
1	0x3c28d7b9	0.010305339
2	0x3d0a9a17	0.033838358
3	0x3c989115	0.018623868
4	0x3c050ba1	0.008120448
5	0x3e6baf11	0.23016001
6	0x3e3a65c8	0.18202889
7	0x3e0af773	0.13570957
8	0x3cc116b1	0.02357039
9	0x3ecb074f	0.39654014
10	0x3e8da132	0.27662045
11	0x3e31e865	0.17373808
12	0x3e257e58	0.16161478
13	0x3e93a783	0.2883874
14	0x3e332890	0.17495942
15	0x3e8225ec	0.25419557
16	0x3dd22349	0.10260636
17	0x3c392ffa	0.011302942
18	0x3e9cd9e9	0.30635002
19	0x3e42944d	0.19001885
20	0x3eee1f41	0.4650822
21	0x3f1daf3c	0.6159551
22	0x3e8ae349	0.2712653
23	0x3e82d3f9	0.25552347
24	0xbc291489	-0.010319837
25	0x3e3fb861	0.18722679
26	0x3ed469fe	0.41487116
27	0x3e3d2f12	0.18474987
28	0x3e27eaa1	0.16398098
29	0x3e61607a	0.22009459
30	0x3e13a29c	0.144175
31	0x3ea5f69e	0.32414716
32	0x3eb88dbf	0.36045644
33	0x3e4d3129	0.20038284
34	0x3e0385bc	0.12843984
35	0x3df68f5d	0.12039063
36	0x3c3e88ca	0.011629293
37	0x3e304297	0.17212902
38	0x3f1b3c7f	0.60639185
39	0x3d3f3448	0.04668072
40	0xbc910237	-0.017701251
41	0xbb9332a5	-0.0044921213
42	0x3d10423d	0.03521942
43	0xbc33b8d7	-0.010969362
44	0xbdbc7a8c	-0.092030615
45	0xbd2bca7f	-0.041941162
46	0x3d884f39	0.066557355
47	0x3d6c1bbe	0.057643645
48	0xbd666df4	-0.056257203
49	0x3d3ada6f	0.04561847
50	0xbd8d690a	-0.069048
51	0xbcbab4a2	-0.02279121
52	0xbd677ef6	-0.056517564
53	0xbc0395ff	-0.008031367
54	0x3c13d00a	0.009021768
55	0xbdd42a94	-0.10359684
56	0x3d383e28	0.04498115
57	0x3d28b021	0.041183595
58	0x3cbd20f0	0.023086995
59	0xbda7e052	-0.081970826
60	0x3dae6d6c	0.08516964
61	0xbdf587aa	-0.119887665
62	0xbc5b1d17	-0.013373635
63	0xbce4857f	-0.027895687
64	0x3d85220b	0.06500634
65	0x3e4cc9f4	0.19998914
66	0xbdfd10cc	-0.123567194
67	0xbccc8add	-0.024968559
68	0xbe305e55	-0.17223485
69	0xbdf3b517	-0.118997745
70	0xbe002ee4	-0.12517887
71	0xbe38ab96	-0.18034205
72	0x3cd56d4c	0.026053093
73	0x3e100034	0.14062577
74	0x3e44bf17	0.1921352
75	0xbcec1aea	-0.028821427
76	0x3d977bc5	0.07396654
77	0xbe172440	-0.14759922
78	0x3e939e7a	0.28831846
79	0xbc0c72c8	-0.008572288
80	0x3e2c2773	0.16811924
81	0x3e0b0dce	0.13579485
82	0x3e300195	0.17188103
83	0x3dac0612	0.08399595
84	0x3f30f9d7	0.69131225
85	0x3ebf8a88	0.37410378
86	0x3ecd0b0f	0.400475
87	0x3f02fd93	0.51168174
88	0x3e7d78cf	0.24753116
89	0x3f65d06c	0.8977115
90	0x3e622351	0.22083785
91	0x3e4ff62c	0.20308751
92	0x3f0629bf	0.5240745
93	0x3f073f24	0.5283072
94	0x3ec137db	0.37737927
95	0xbe14df0e	-0.14538214
96	0x3d1ccb27	0.03827968
97	0x3e92ad9f	0.28648087
98	0x3eb8eb04	0.36116803
99	0x3de09627	0.10966139
100	0x3f9cb0ce	1.2241457
101	0x3f0d4f9c	0.551996
102	0x3eb21eae	0.34789032
103	0x3e880b1d	0.2657098
104	0x3ec0c18c	0.37647665
105	0x3f170399	0.58989865
106	0x3e8f6f8b	0.28014788
107	0x3de7a8ee	0.11311518
108	0x3eabc186	0.33546084
109	0x3e1cf7e3	0.15328936
110	0x3eb9f3fe	0.36318964
111	0x3cef4309	0.02920677
112	0x3ea511c8	0.3224013
113	0x3dda5e29	0.10662491
114	0x3eda1177	0.4259145
115	0x3e820c97	0.2540023
116	0x3ea154bd	0.31509963
117	0x3ed3fdec	0.41404665
118	0x3fac18f0	1.344511
119	0x3eb79bb9	0.35860994
120	0xbbe2b18b	-0.0069181374
121	0x3b2cb3b3	0.0026352226
122	0xbc46dbca	-0.012137363
123	0x3b702729	0.0036644435
124	0xbd97146c	-0.07376942
125	0x3d3b5ded	0.04574387
126	0xbca1f2bd	-0.019769067
127	0xbdd071ba	-0.101779416
128	0x3d3eab3e	0.046550028
129	0x3bcec9fa	0.0063106986
130	0xbe99f1b8	-0.3006723
131	0x3aea145e	0.0017858853
132	0xbd4ddb23	-0.050257813
133	0x3ce3bd4e	0.027800228
134	0xbc6268d8	-0.013818942
135	0xbe24dfc6	-0.16100988
136	0xbdcf89b3	-0.10133686
137	0xbd0ce5d9	-0.034398887
138	0xbd68b00f	-0.056808528
139	0x3cfd04d0	0.030886084
140	0x3cf1866e	0.029483046
141	0xbe05b90b	-0.1305887
142	0x3cf62723	0.030047959
143	0xbe04e3e2	-0.12977555
144	0xbd0dc091	-0.034607474
145	0x3bb7a60d	0.0056045116
146	0xbe2c61a6	-0.16834125
147	0x3b541ba6	0.0032365113
148	0xbbf57832	-0.007491135
149	0xbe12536c	-0.14289635
150	0xbab0a9df	-0.001347836
151	0xbd381b03	-0.044947635
152	0xbb5c602f	-0.0033626666
153	0xbe046a43	-0.1293116
154	0xbd72869a	-0.059210397
155	0xbd712d12	-0.058880873
156	0xbcaf5b20	-0.021405756
157	0xbe5c1a47	-0.21494399
158	0xbb47e38c	-0.0030500619
159	0xbbcbb582	-0.006216706
160	0x3c75a5b7	0.014993123
161	0x3ba4b673	0.0050266325
162	0xbc8928a9	-0.016743021
163	0x3d115603	0.035482418
164	0xbe58ec55	-0.21183904
165	0xbe713d7c	-0.2355861
166	0xbd2845b9	-0.041082118
167	0x3ddefdda	0.10888262
168	0xbd9955ec	-0.074870914
169	0xbdb602cb	-0.088872515
170	0x3cc2cd2b	0.023779472
171	0xbc1b391e	-0.009474067
172	0xbd9a29f6	-0.07527535
173	0xbdf4848e	-0.11939345
174	0xbdd03480	-0.101662636
175	0x3e4269e8	0.18985713
176	0x3dbe7e79	0.093014665
177	0x3d84a4ab	0.064767204
178	0x3d248a15	0.040170748
179	0x3e1dbfc5	0.15405186
180	0xbdbb37cc	-0.09141502
181	0xbce4fa8c	-0.027951501
182	0x3d6e17f1	0.0581283
183	0x3db53509	0.08848006
184	0x3cc74421	0.024324479
185	0xbd9b4d48	-0.075830996
186	0x3b8d31a8	0.004308898
187	0xbd988d7a	-0.074488595
188	0xbd8570ef	-0.06515681
189	0x3c8ef83a	0.017452348
190	0xbe1280f5	-0.14307006
191	0x3e45dbec	0.19322175
192	0xbe00963f	-0.12557314
193	0xbd4d1747	-0.050071027
194	0x3be55abd	0.0069993422
195	0x3d37b64e	0.044851594
196	0x3d21920b	0.039445918
197	0xbe29a5a7	-0.16567098
198	0xbdfe45ea	-0.12415679
199	0xbde476b9	-0.11155457
200	0x3d021bb7	0.031764712
201	0x3d064b90	0.032786906
202	0x3d4285a2	0.047490723
203	0x3d0e5d83	0.03475715
204	0x3cc7b3bd	0.024377698
205	0xbe985b47	-0.2975714
206	0x3cd133e2	0.025537435
207	0x3e3c355a	0.18379727
208	0xbe8ad249	-0.2711356
209	0xbe32f005	-0.17474373
210	0x3c571988	0.013128646
211	0xbd226dbe	-0.03965544
212	0xbdb409d9	-0.08790941
213	0x3db9a310	0.09064305
214	0x3d78c87a	0.060738064
215	0xbe85b4c5	-0.2611448
216	0xbcdbf98d	-0.026852394
217	0x3cf5c505	0.030001173
218	0x3c820650	0.01587215
219	0xbdd87ace	-0.10570298
220	0xbe88a4fd	-0.26688376
221	0xbd998dcd	-0.074977495
222	0xbc0d8f03	-0.008640054
223	0x3bf082af	0.0073397974
224	0x3ddc8e45	0.10769323
225	0xbdc342a0	-0.09534192
226	0xbdde1335	-0.10843507
227	0xbd9571d2	-0.072971
228	0xbd2c7188	-0.04210046
229	0x3d3a0b65	0.045421023
230	0x3e6f85b7	0.23390852
231	0xbeeb593f	-0.45966527
232	0xbc3401bf	-0.010986744
233	0x3c7059b5	0.014669825
234	0xbdece2a9	-0.115666695
235	0xbe00830f	-0.12549995
236	0x3e09b02b	0.13446109
237	0x3e041837	0.12899862
238	0x3dc88cdf	0.09792494
239	0x3d790635	0.060796935
240	0x3b92f7ae	0.004485092
241	0x3c2558bb	0.010091956
242	0xbbc3aa4d	-0.005971229
243	0x3c40facf	0.011778547
244	0x3c842cb3	0.016134595
245	0xbd751bd7	-0.059841003
246	0xbbb749fc	-0.0055935364
247	0x3d2f816b	0.042848032
248	0x3c1bcc12	0.009509103
249	0x3c3564d1	0.0110714
250	0x3d820b95	0.06349865
251	0xbd92537e	-0.07144831
252	0xbbddfe32	-0.006774687
253	0x3d17c45e	0.037052505
254	0x3d00c6f9	0.031439755
255	0x3db340ea	0.08752616

exp_avg_sq f4 [36, 40]
0	0x3e3df95e	0.18552157
1	0x3e0b9e2b	0.13634555
2	0x3e429727	0.19002973
3	0x3e2a7c62	0.16649011
4	0x40630269	3.547022
5	0x3f6ea9fa	0.93228114
6	0x3f7df535	0.9920228
7	0x404faaa6	3.2447906
8	0x3f834b48	1.0257349
9	0x4062ede1	3.545769
10	0x40a46b2a	5.1380816
11	0x3fbaf191	1.460497
12	0x3fd2fb01	1.648285
13	0x3f71546b	0.94269437
14	0x3f2ecabd	0.68278104
15	0x400e4427	2.2229097
16	0x3f1e169e	0.6175326
17	0x3f8ab9a9	1.0837909
18	0x3ff08874	1.8791642
19	0x3f4952c2	0.78641903
20	0x40cac360	6.3363495
21	0x409a4473	4.8208556
22	0x3feae34e	1.8350618
23	0x3fde2e53	1.7357887
24	0x3f4bdb6a	0.79631674
25	0x3f3a0381	0.72661597
26	0x40825ac9	4.073582
27	0x3e735c8e	0.23765776
28	0x3fb94ac9	1.4475948
29	0x3ff23737	1.89231
30	0x3fa41ec4	1.2821889
31	0x40842ff8	4.1308556
32	0x4063c68a	3.5589929
33	0x3f875f3b	1.0575937
34	0x3fdea35f	1.7393607
35	0x3f91694e	1.1360261
36	0x3eeaad76	0.45835465
37	0x40bb5fa4	5.855425
38	0x40c6fdff	6.2185054
39	0x3f1f14f8	0.6214137
40	0x3c01a695	0.007913251
41	0x3ba18258	0.0049288683
42	0x3c02a8d4	0.007974822
43	0x3bb747a6	0.005593258
44	0x3e193aef	0.14963888
45	0x3debbae0	0.11510253
46	0x3da7c8a7	0.08192568
47	0x3d7bb386	0.061450504
48	0x3db9bf8c	0.09069738
49	0x3df8d96f	0.12150847
50	0x3e1af012	0.15130642
51	0x3d3daecf	0.04630929
52	0x3dbc0f47	0.091826014
53	0x3e09bdf6	0.1345137
54	0x3dbd66c9	0.0924812
55	0x3e253dec	0.16136903
56	0x3dbbcaa0	0.09169507
57	0x3d20314e	0.03910952
58	0x3d83973f	0.06425332
59	0x3e456336	0.19276127
60	0x3dc7ed88	0.09762102
61	0x3e38df43	0.18053918
62	0x3d8747e5	0.0660551
63	0x3e06728c	0.13129634
64	0x3d5f94fe	0.05458545
65	0x3e81d49a	0.25357515
66	0x3e0c78be	0.13717934
67	0x3d64c0af	0.05584782
68	0x3e06c600	0.13161469
69	0x3d70d201	0.058794025
70	0x3da3a27c	0.07989976
71	0x3f04239d	0.5161684
72	0x3ee743e9	0.45169
73	0x3dcffa1a	0.10155125
74	0x3e2ae822	0.16690114
75	0x3e0c3cc2	0.13695052
76	0x3dd3e4dd	0.103463866
77	0x3e98e2cb	0.2986053
78	0x3eca6238	0.3952806
79	0x3cc71490	0.024301797
80	0x3dccc61f	0.09998726
81	0x3d71b943	0.05901457
82	0x3e0dc2f0	0.13843894
83	0x3d15d87d	0.036583412
84	0x3ffcfdb4	1.9764924
85	0x3fbbad51	1.4662267
86	0x3f90f8bb	1.1325907
87	0x3fdd8ecb	1.7309202
88	0x3f94f257	1.1636456
89	0x4081c940	4.0558167
90	0x3fe1f74c	1.7653594
91	0x3e954035	0.2915055
92	0x3f172397	0.5903868
93	0x3f5991b0	0.84987926
94	0x3f934798	1.1506224
95	0x3fc9165d	1.570995
96	0x3f0e1673	0.55503005
97	0x3f0120bf	0.5044059
98	0x3f079a9b	0.52970284
99	0x3f575513	0.8411419
100	0x40d78562	6.735032
101	0x3fbe8aa4	1.488606
102	0x3f751a1b	0.9574296
103	0x3f22374d	0.6336563
104	0x3f0beeb7	0.54661125
105	0x3f9d23c2	1.2276537
106	0x3f3c6df2	0.73605263
107	0x3e7a8b39	0.24467172
108	0x3fb134d1	1.3844243
109	0x3f1ab221	0.60428053
110	0x3f6968a4	0.91175294
111	0x40276afd	2.615905
112	0x4085de60	4.1833954
113	0x3f7eea7b	0.9957654
114	0x3f92eba6	1.1478164
115	0x3f55f6a8	0.8357949
116	0x3ef0d29b	0.4703568
117	0x4048f075	3.1396763
118	0x40964409	4.695805
119	0x3eca5fa0	0.3952608
120	0x3aa482f7	0.0012551238
121	0x3b28d874	0.0025763782
122	0x3a9e5e78	0.0012082597
123	0x3b5b5412	0.0033466858
124	0x3e85ba3e	0.26118654
125	0x3ce26348	0.027635232
126	0x3d828437	0.06372874
127	0x3e84249f	0.2580919
128	0x3d7c56d5	0.061606247
129	0x3d93e27c	0.07220933
130	0x3f844072	1.0332167
131	0x3e63c5d4	0.22243434
132	0x3e475ac6	0.19468221
133	0x3c5d8c2c	0.013522189
134	0x3cc48325	0.023988316
135	0x3f315ebc	0.6928518
136	0x3e0b2e1c	0.13591808
137	0x3d31a1ba	0.043367125
138	0x3e400a70	0.18753982
139	0x3d72aabe	0.059244864
140	0x3dc75c02	0.09734346
141	0x3f2e381f	0.68054384
142	0x3ea026ca	0.31279594
143	0x3e914cf2	0.28379017
144	0x3c1abc86	0.009444362
145	0x3c2a2488	0.010384686
146	0x3f502d63	0.81319255
147	0x3c8253d6	0.015909117
148	0x3d5fc2ec	0.05462925
149	0x3f249caf	0.6430158
150	0x3e47b22a	0.19501558
151	0x3e92ddeb	0.28684935
152	0x3e6a5473	0.22883777
153	0x3e727d4c	0.2368061
154	0x3e597faf	0.21240114
155	0x3e16723e	0.14692017
156	0x3ca7af26	0.02046926
157	0x3f4e329a	0.8054596
158	0x3e51f9af	0.20505403
159	0x3c7ece7d	0.01555216
160	0x3c89a3a9	0.016801672
161	0x3c853775	0.016261796
162	0x3c9f89db	0.019474914
163	0x3c54661e	0.0129638
164	0x3e9b605d	0.30346957
165	0x3f2095fa	0.62728846
166	0x3e32393b	0.17404644
167	0x3e609be9	0.21934475
168	0x3e89ddb9	0.26926973
169	0x3f350e1a	0.7072464
170	0x3ed43750	0.4144845
171	0x3daa7d71	0.08324707
172	0x3e2f6b5b	0.17130797
173	0x3e321462	0.17390588
174	0x3e686dae	0.2269809
175	0x3ebbdb4d	0.3669075
176	0x3e36b5e9	0.1784283
177	0x3dd0bde4	0.10192469
178	0x3db380da	0.08764811
179	0x3ef8bdf9	0.48582438
180	0x3f234d90	0.63790226
181	0x3e3c9336	0.18415532
182	0x3de09848	0.10966545
183	0x3e9e81b9	0.30958346
184	0x3dd53210	0.10409939
185	0x3efb65cc	0.49101102
186	0x3d84bd34	0.064814
187	0x3dd3c548	0.10340363
188	0x3ea7b089	0.32751873
189	0x3d7e133b	0.06203006
190	0x3dd1f596	0.1025192
191	0x3f5dbba2	0.8661443
192	0x3f4755bb	0.7786519
193	0x3e3b134e	0.18269083
194	0x3ea42f45	0.32067314
195	0x3ec4c6e5	0.38432994
196	0x3dc4c791	0.09608377
197	0x3f0080d1	0.5019656
198	0x3ebe3afa	0.3715437
199	0x3cf41ca9	0.029798822
200	0x3c9fead6	0.019521158
201	0x3c41386a	0.011793235
202	0x3c87550a	0.016520042
203	0x3c9dd126	0.019264769
204	0x3f0ba61c	0.5455034
205	0x3f3a4c25	0.7277244
206	0x3e57df5a	0.21081296
207	0x3e8a5d14	0.27024138
208	0x3edc1529	0.42984894
209	0x3fa7abbb	1.3099283
210	0x3f8bd7ff	1.0925292
211	0x3ed5edb7	0.41782925
212	0x3e46c996	0.19412836
213	0x3e80e940	0.25177956
214	0x3eba3816	0.36370915
215	0x3fb6b8c9	1.4275142
216	0x3eaff941	0.34369853
217	0x3db862e4	0.09003237
218	0x3e6342ef	0.22193502
219	0x3eb1cbd8	0.34725833
220	0x401579ca	2.3355584
221	0x3f96b052	1.1772559
222	0x3ea3735f	0.3192396
223	0x3e4ff4b9	0.20308198
224	0x3dc00eec	0.09377846
225	0x3eb73dcb	0.35789332
226	0x3f4039dc	0.75088286
227	0x3e2d8050	0.16943479
228	0x3ee52805	0.44757095
229	0x3ea2b5a6	0.31779212
230	0x3e110c22	0.14164785
231	0x3fbe1484	1.4850011
232	0x3fbe8454	1.4884133
233	0x3ea572d6	0.32314175
234	0x3eb1c973	0.34724006
235	0x3e896ff5	0.2684323
236	0x3d887509	0.06662948
237	0x3f330b8a	0.6993948
238	0x3f471aaf	0.7777509
239	0x3dc4ac80	0.09603214
240	0x3b04f79c	0.0020289188
241	0x3afecdce	0.0019439997
242	0x3b692b01	0.003557861
243	0x3ad0b765	0.0015923796
244	0x3e1ddb46	0.15415677
245	0x3db1d50e	0.08683215
246	0x3d2b3581	0.041799072
247	0x3d5ae170	0.05343765
248	0x3dad0159	0.08447523
249	0x3dab6fed	0.083709575
250	0x3e055d5c	0.13023895
251	0x3d497ec4	0.04919316
252	0x3d815421	0.063148744
253	0x3cb6bea2	0.022307698
254	0x3d87ba47	0.066273265
255	0x3e6e8ac5	0.23295124

exp_avg f4 [6]
0	0xbcb9cca5	-0.02268059
1	0xbd7b2a50	-0.06131965
2	0x3e460be9	0.19340481
3	0xbdc5caaf	-0.096577995
4	0xbed3843f	-0.41311833
5	0xbd973a40	-0.07384157

exp_avg_sq f4 [6]
0	0x3e9f2dae	0.31089538
1	0x3f2a2ac5	0.6647151
2	0x408953f0	4.2914963
3	0x406be275	3.6856968
4	0x4019c807	2.4028337
5	0x3f0de9c3	0.5543482

exp_avg f4 [6, 36]
0	0xbf6ce9f0	-0.9254446
1	0xbeafa159	-0.34302786
2	0xbed63f11	-0.4184499
3	0xbf93bcb3	-1.1541961
4	0xbe5d899b	-0.21634524
5	0xbf6ca7a1	-0.9244328
6	0xbfda268a	-1.7043011
7	0xbf2cb8c2	-0.6746942
8	0xbf32b354	-0.69804883
9	0xbf294c8e	-0.6613244
10	0xbed348cb	-0.41266474
11	0xbf973f7b	-1.1816248
12	0xbef3fc15	-0.4765326
13	0xbf14a470	-0.5806341
14	0xbf7e388d	-0.9930504
15	0xbf0a570f	-0.5403909
16	0xbfb392de	-1.4029195
17	0xc0137dd9	-2.3045561
18	0xbf405667	-0.7513184
19	0xbf88e95c	-1.0696216
20	0xbe87b273	-0.26503333
21	0xbee93c84	-0.45553982
22	0xbff8c8fd	-1.9436337
23	0xbe956507	-0.2917864
24	0xbe90119c	-0.28138435
25	0xbf710482	-0.94147503
26	0xbe9633bd	-0.29336348
27	0xbf9d78fa	-1.2302544
28	0xbf91d0ac	-1.1391807
29	0xbe9cb232	-0.30604702
30	0xbec204eb	-0.37894377
31	0xbf269c6c	-0.6508243
32	0xbe78cc27	-0.24296628
33	0xbf8d0f1a	-1.1020234
34	0xbfcdbeb6	-1.6073825
35	0xbe8e0e3f	-0.27745244
36	0xbf91f76b	-1.1403631
37	0xbeaa1c7f	-0.33224866
38	0xbe9050b4	-0.28186572
39	0xbe7fd3ba	-0.24983111
40	0xbf334760	-0.70030785
41	0xbe237369	-0.15961994
42	0xbfc1e643	-1.5148395
43	0x3dda2ef3	0.10653486
44	0x3eedfb27	0.46480677
45	0x3c57ddc2	0.01317543
46	0xbebadfa2	-0.36498743
47	0xbeb8d96f	-0.3610339
48	0xbecf2df3	-0.40464744
49	0xbe451549	-0.19246401
50	0xbe7b3edb	-0.24535696
51	0xbeaa577e	-0.33269876
52	0xbf233ac0	-0.6376152
53	0xbe8c8e0f	-0.27452132
54	0x3e049ad7	0.12949692
55	0x3ca0206a	0.019546706
56	0x3e400b54	0.18754321
57	0xbe366914	-0.17813522
58	0xbef91861	-0.48651412
59	0x3d8e49dc	0.06947681
60	0xbf801e4a	-1.0009243
61	0xbef72030	-0.48266745
62	0xbe230e6e	-0.15923473
63	0xbfc1226f	-1.5088633
64	0xbf6bbba9	-0.9208322
65	0xbf125bcd	-0.57171327
66	0xbeba33e7	-0.36367723
67	0xbea47f74	-0.3212849
68	0x3c84aaa2	0.016194645
69	0xc0034ad4	-2.0514421
70	0x3f293255	0.66092426
71	0xbe940e82	-0.2891732
72	0xbe7ca46b	-0.24672095
73	0x3cbe2407	0.023210539
74	0xbe110a57	-0.141641
75	0xbe2b0497	-0.1670097
76	0x3c071898	0.00824561
77	0xbd6fec4c	-0.05857496
78	0xbd5635a9	-0.052297268
79	0xbd963502	-0.07334329
80	0x3e1ac601	0.15114595
81	0x3d913182	0.07089521
82	0x3d6be677	0.057592835
83	0xbcc1facc	-0.02367916
84	0xbda904af	-0.082528464
85	0xbd5e7134	-0.054307178
86	0xbbb05759	-0.0053815064
87	0xbe5a2a46	-0.21305189
88	0x3d95184b	0.07280024
89	0xbe0a7379	-0.13520612
90	0x3d70bba2	0.05877269
91	0x3c8e265d	0.017352277
92	0xbdf7e1a3	-0.12103584
93	0x3c9a45c5	0.018832097
94	0x3da51ad8	0.08061761
95	0xbd367f29	-0.044554863
96	0x3e740967	0.23831712
97	0x3e353ca3	0.17698912
98	0xbd17ed39	-0.037091468
99	0xbbbd5452	-0.005777874
100	0xbeade8cd	-0.33966675
101	0xbd73c011	-0.05950934
102	0x3ea26701	0.3171921
103	0xbb599109	-0.003319802
104	0x3d6b17fc	0.05739592
105	0xbe666739	-0.22500314
106	0xbe0d6252	-0.13807037
107	0xbe60b463	-0.21943812
108	0xbca74a5a	-0.020421196
109	0x3d26be61	0.040708903
110	0xbe85ab26	-0.26107138
111	0x3dbac0eb	0.091188274
112	0xbe6e2cb9	-0.23259248
113	0xbe4bd22a	-0.1990439
114	0x3c423a53	0.011854726
115	0xbd2a16cf	-0.04152566
116	0x3d25c46e	0.040470533
117	0x3e3408a5	0.17581423
118	0xbee4ffd4	-0.4472643
119	0x3c96822d	0.01837262
120	0x3e189248	0.14899552
121	0x3d8fe5a1	0.0702622
122	0x371b1af6	9.244997e-06
123	0x3e6223fb	0.22084038
124	0xbe860407	-0.26174948
125	0x3d264203	0.040590297
126	0x3e0db509	0.1383859
127	0xbb47dd23	-0.0030496798
128	0x3e3d4c97	0.18486248
129	0xbed5ec9f	-0.4178209
130	0x3d9dd4a9	0.07706577
131	0x3d4c1d4d	0.04983263
132	0xbd165fc7	-0.036712434
133	0x3bb04b6a	0.005380084
134	0x3d4447d9	0.04792008
135	0xbb420aa8	-0.0029608402
136	0xbe5c03b7	-0.21485792
137	0xbcebc401	-0.028779985
138	0xbf223230	-0.6335783
139	0xbc73ef00	-0.014888525
140	0x3c0f6cbf	0.008753954
141	0xbce608ef	-0.028080432
142	0xbe3837a3	-0.17989974
143	0x3df19c1c	0.117973536
144	0x3f2c421b	0.6728837
145	0xbd836362	-0.0641544
146	0x3d1c2bde	0.038127773
147	0x3caf41c4	0.021393664
148	0x3d7f64b8	0.062351912
149	0x3e3c38e2	0.18381074
150	0xbe8bf636	-0.27336282
151	0x3dfe78b5	0.12425367
152	0x3f06bfb4	0.52636266
153	0x3f171c36	0.5902742
154	0x3f00a6d1	0.5025454
155	0xbf8e67cb	-1.1125425
156	0xbf94f066	-1.1635864
157	0xbe255350	-0.16145062
158	0xbebbefc8	-0.36706376
159	0xbea694c0	-0.32535362
160	0xbde71c66	-0.112847134
161	0x3f18c3ef	0.5967397
162	0xbe15df46	-0.14635953
163	0xbebabbe2	-0.36471468
164	0xbdda7de8	-0.10668546
165	0x3d0d2903	0.03446294
166	0x3ebac099	0.36475065
167	0xbd2ebc86	-0.04266026
168	0xbe5a1c5b	-0.21299879
169	0x3e253745	0.16134365
170	0x3f0ed7d8	0.557981
171	0xbf92d823	-1.147221
172	0xbec156fd	-0.3776168
173	0xbf05f417	-0.52325577
174	0xbd92cb63	-0.07167699
175	0xbf1f342f	-0.62189
176	0x3e87cd1d	0.26523677
177	0x3d52f8e1	0.05150688
178	0x3f46c351	0.7764178
179	0x3d999140	0.07498407
180	0x4003de6d	2.0604508
181	0x3f911d17	1.1337003
182	0x3f9665c9	1.1749812
183	0x3fc1b9a3	1.5134777
184	0x3fb28dd7	1.3949536
185	0x3fe8bdd7	1.8182935
186	0x404d553f	3.208328
187	0x3f1f84e4	0.6231215
188	0x3ea0e76f	0.3142657
189	0x3f0c7f8f	0.5488214
190	0x3f3f1336	0.7463869
191	0x3ff2a7b7	1.8957433
192	0x3fb51474	1.4146867
193	0x3f84d750	1.0378208
194	0x3fc964be	1.5733869
195	0x3f9623d4	1.1729684
196	0x4049ad69	3.151209
197	0x3fee9e8a	1.8642132
198	0x3f3aff58	0.73045874
199	0x3f9d00c6	1.2265861
200	0x3ef49e22	0.47776896
201	0x3f98123c	1.1880565
202	0x3fd9b3ea	1.700803
203	0x3ed5faf9	0.4179304
204	0x3fd005d1	1.6251775
205	0x3f434180	0.7627182
206	0x3e153398	0.14570463
207	0x406a9407	3.6652849
208	0x4035d2d5	2.8409932
209	0x3fb71635	1.4303652
210	0x3fa92381	1.321396
211	0x3fc907cf	1.5705508
212	0x3e849a1e	0.25898832
213	0x404472f0	3.0695152
214	0x3fb9e201	1.4522096
215	0x3f5ba4ba	0.8579823

exp_avg_sq f4 [6, 36]
0	0x422590ea	41.391518
1	0x40b95e89	5.79279
2	0x40f4ed4c	7.653967
3	0x41fc7c1f	31.560606
4	0x4117749d	9.46597
5	0x41a02758	20.01921
6	0x42836e7f	65.71581
7	0x416898f6	14.537344
8	0x418459de	16.54388
9	0x4091a7ac	4.5517178
10	0x40ed0390	7.406685
11	0x41e59abd	28.700556
12	0x40c5d5c9	6.182347
13	0x40e1c892	7.0557337
14	0x418d42fa	17.657703
15	0x406343a8	3.5510044
16	0x4211f30e	36.48736
17	0x4265feb3	57.49873
18	0x41704313	15.016376
19	0x41a27ee4	20.311958
20	0x401c7ebf	2.445236
21	0x408a9dda	4.331769
22	0x425c5c52	55.090157
23	0x3fb01824	1.3757367
24	0x41686335	14.52422
25	0x42009011	32.14069
26	0x4187f6ed	16.99557
27	0x4221e55e	40.47399
28	0x421538e9	37.305576
29	0x41409384	12.036015
30	0x41592e08	13.573738
31	0x416bc108	14.734627
32	0x3fe1aa0b	1.7630018
33	0x4268932a	58.143715
34	0x422162ed	40.346607
35	0x4085cbf4	4.1811466
36	0x4209967c	34.396957
37	0x3fd8d741	1.694069
38	0x4094c899	4.649487
39	0x4198b4d8	19.088303
40	0x3faf8dc1	1.3715135
41	0x404eec26	3.2331634
42	0x4141d2d1	12.113969
43	0x4141e4a2	12.118319
44	0x41ce710f	25.805204
45	0x40a1a6cb	5.0516105
46	0x3fefc09b	1.8730654
47	0x3f2c9f0a	0.67430174
48	0x3ff16292	1.8858206
49	0x40e709f9	7.2199674
50	0x415e6e6e	13.90196
51	0x408defc6	4.435519
52	0x40f908f8	7.782345
53	0x41d51b5c	26.63836
54	0x41827b5d	16.310236
55	0x41614359	14.078942
56	0x4095df83	4.683534
57	0x3e1986bb	0.14992802
58	0x41bc539f	23.54083
59	0x3e926763	0.28594503
60	0x40d64b9a	6.6967287
61	0x41b196d8	22.198654
62	0x41893779	17.152086
63	0x40e093af	7.018028
64	0x4144ce5d	12.300382
65	0x4086e38b	4.2152762
66	0x4028a9e2	2.6353688
67	0x40d81692	6.752755
68	0x402480d5	2.5703633
69	0x41a3ba62	20.466007
70	0x41c744bd	24.908564
71	0x4101a03d	8.101621
72	0x41225b64	10.147312
73	0x3cf1ea0c	0.029530548
74	0x4084d8bd	4.1514573
75	0x41c625df	24.768492
76	0x3d2ba885	0.04190876
77	0x416c2249	14.75837
78	0x3d9f2a86	0.077717826
79	0x4083ba15	4.116465
80	0x413f84d3	11.969928
81	0x41496f84	12.5897255
82	0x3f072be7	0.52801365
83	0x3b71f739	0.0036921038
84	0x3f24ef99	0.64428097
85	0x41a17dea	20.186481
86	0x401350ab	2.3017986
87	0x40ffd8b7	7.9952044
88	0x41920920	18.254456
89	0x40233db2	2.5506406
90	0x41a38efc	20.444817
91	0x3e922bf0	0.28549147
92	0x419d5688	19.667252
93	0x3f63d2e0	0.88993645
94	0x3ee8b1cc	0.45448148
95	0x3ce39c91	0.027784618
96	0x4095876a	4.67278
97	0x3ef1628d	0.471455
98	0x3f9aada8	1.2084246
99	0x3dea10fa	0.11429019
100	0x3fb0dfcf	1.3818301
101	0x3d6b751e	0.05748474
102	0x3f2e7814	0.68151975
103	0x3df74fb0	0.12075746
104	0x4194d8d9	18.605883
105	0x410a5405	8.645513
106	0x41eb9c00	29.451172
107	0x40b863c1	5.762177
108	0x4051a38c	3.275607
109	0x3e464ca1	0.19365169
110	0x41025851	8.146562
111	0x41212adf	10.072967
112	0x400340ac	2.0508223
113	0x41ab391f	21.402891
114	0x3c162961	0.009165139
115	0x3f9e47b5	1.2365633
116	0x3feebaae	1.865072
117	0x41482d90	12.511124
118	0x406c2da0	3.6902847
119	0x3c128940	0.008943856
120	0x3f33d20f	0.702424
121	0x40f4c651	7.6492085
122	0x40080f6e	2.1259418
123	0x40015abd	2.0211632
124	0x41b70992	22.879673
125	0x3e9815ab	0.2970403
126	0x411fad8b	9.979869
127	0x3cbbd4ac	0.022928558
128	0x413a6426	11.64945
129	0x40f84076	7.757869
130	0x3dafaa9a	0.085774615
131	0x3df71972	0.120654
132	0x401adcb4	2.4197206
133	0x3d445186	0.04792931
134	0x3f748672	0.9551765
135	0x3c36422f	0.011124178
136	0x3f644c72	0.89179146
137	0x3dec0a59	0.11525411
138	0x403e7bd3	2.9763076
139	0x3dbfd9ab	0.09367689
140	0x415b1834	13.693409
141	0x40d095cc	6.5182858
142	0x41d05c9e	26.045223
143	0x3f6ba0aa	0.9204203
144	0x4197b6e1	18.964296
145	0x41a1ed78	20.240952
146	0x415ce084	13.804813
147	0x418037a5	16.02717
148	0x41960cb9	18.756212
149	0x427ce51d	63.223743
150	0x41359339	11.348443
151	0x401c958d	2.4466279
152	0x40fff0f3	7.9981627
153	0x418a9967	17.324903
154	0x41675ea1	14.460603
155	0x418c9af8	17.575668
156	0x4128a9f2	10.541491
157	0x40be4e62	5.947068
158	0x411994bb	9.598811
159	0x41ac98be	21.574581
160	0x430c3efb	140.24602
161	0x418409a3	16.504705
162	0x4123927f	10.223266
163	0x414952b3	12.58269
164	0x4126aee2	10.417696
165	0x41a8d156	21.102215
166	0x401269e8	2.287714
167	0x40d7f905	6.749148
168	0x419d685c	19.675957
169	0x3f42daad	0.7611492
170	0x40b64b5c	5.696699
171	0x4221b725	40.428852
172	0x4265e6f3	57.475536
173	0x4103139f	8.19229
174	0x4184c4d2	16.596104
175	0x4173441e	15.20413
176	0x40e1164b	7.0339713
177	0x41cbc360	25.470398
178	0x429692ca	75.2867
179	0x40a817fa	5.252927
180	0x4277b7b6	61.929405
181	0x4197d4fa	18.978992
182	0x41a92db0	21.147308
183	0x42811afb	64.5527
184	0x41a26997	20.301558
185	0x42893793	68.60854
186	0x42a8edef	84.464714
187	0x41d950f9	27.164537
188	0x41b0acdc	22.084404
189	0x417b38fb	15.701411
190	0x41213d36	10.077444
191	0x423ea5fe	47.6621
192	0x417ac286	15.672491
193	0x41bc52b9	23.540392
194	0x41fca220	31.579163
195	0x41bb7e33	23.43662
196	0x43178cd7	151.55016
197	0x42966555	75.197914
198	0x421dcc7d	39.449696
199	0x41c51e33	24.639746
200	0x4194ee35	18.616312
201	0x417e64d7	15.899619
202	0x423c4981	47.07178
203	0x40fe6281	7.9495244
204	0x41c1b06c	24.211143
205	0x41b4e3a5	22.611155
206	0x416101aa	14.062906
207	0x42ad2516	86.57243
208	0x42b167ba	88.70259
209	0x41bee56c	23.862022
210	0x42166b9f	37.6051
211	0x419f6593	19.924597
212	0x4109104e	8.566481
213	0x42c51b50	98.553345
214	0x42f23b8a	121.11629
215	0x41416117	12.086204
