experiments/ecg/models/09-25_23-50-01_Adam(0.1),NLL,LinearLR,no_gc,RFSNN(4,36,6,sub_seq_length=0,bs=16,ep=400),RF(thres(0),abs(omega_uni(3.0,5.0)),sust_osc,abs(b_offset(uni(0.1,1.0))-q,theta(1),LinearMask(0.0))LI(20.0,1.0).pt (torch, 41510 bytes, 16 tensors)

hidden.omega f4 [36]
0	0x3ffa8d5e	1.9574392
1	0xbf89b8ef	-1.0759562
2	0x40f26dcd	7.5759034
3	0x406519b8	3.5796947
4	0x40b5f68a	5.686345
5	0x4136a480	11.415161
6	0x3f977b32	1.1834471
7	0x3feccf43	1.8500751
8	0x40f30a6c	7.595022
9	0x3f715b38	0.94279814
10	0xbf71d637	-0.9446749
11	0x403a8c04	2.9147959
12	0x3fae52c6	1.361901
13	0x40d7537c	6.728941
14	0x3f8b7d3c	1.0897593
15	0x333fb479	4.4634792e-08
16	0x4045bdf3	3.0897186
17	0x40ae74b5	5.4517465
18	0x9e6de68e	-1.2594353e-20
19	0x40c40f85	6.1268945
20	0x408969e5	4.2941766
21	0x4143ced6	12.237997
22	0x3fbc07e0	1.4689903
23	0x11841bec	2.0843136e-28
24	0x40b574bd	5.6705003
25	0x40e0d9b9	7.0265775
26	0x4023ddda	2.5604157
27	0x402dd5d9	2.7161772
28	0x4083b80e	4.1162176
29	0x4058dec5	3.3885968
30	0x400a21f5	2.1583226
31	0x3ff13aab	1.8846029
32	0x3eb77b5f	0.35836312
33	0x3f98c8e5	1.1936308
34	0x3ff23fdb	1.8925737
35	0x408543ee	4.164542

hidden.b_offset f4 [36]
0	0x3ed6fee3	0.41991338
1	0x3ff9215f	1.9463309
2	0xc023b182	-2.5577092
3	0x3f8d9eff	1.1064147
4	0x3f9f0023	1.2421917
5	0x401a930b	2.4152248
6	0x3f57bc58	0.84271765
7	0x3f1db2c5	0.61600906
8	0x3fc510ce	1.5395753
9	0x3f91cd8c	1.1390853
10	0x3f6ed614	0.9329541
11	0x3d5da691	0.05411393
12	0xbe4cb967	-0.199926
13	0x3f635c1b	0.88812417
14	0x3ef647e4	0.48101723
15	0x3e51ba8b	0.20481317
16	0xbe91ce47	-0.2847769
17	0x3f318f47	0.6935925
18	0xbec9e54e	-0.39432758
19	0xbffa0f4a	-1.9535916
20	0xbfa48a90	-1.2854786
21	0x407d010d	3.9531891
22	0x3fbfb785	1.4977881
23	0xbd2b43ad	-0.041812588
24	0xbfdcb23e	-1.7241895
25	0x401f0e00	2.4852295
26	0x3ed62e19	0.41832045
27	0x3e2ea307	0.17054377
28	0xbea1385c	-0.3148831
29	0xbca0780a	-0.01958849
30	0x3ec3eb7c	0.38265598
31	0xbd8bd9a1	-0.06828619
32	0xbf04c30c	-0.5186012
33	0xbe2bc823	-0.16775565
34	0x3e9c1be2	0.30490023
35	0x3f7acba4	0.9796698

hidden.linear.weight f4 [36, 40]
0	0xc1481d75	-12.507192
1	0xc18bd659	-17.479662
2	0xc10e828a	-8.90687
3	0xc1d3c8a5	-26.472971
4	0x41af1a86	21.88795
5	0xc1514f55	-13.081868
6	0x40548e2e	3.321178
7	0x411cef4f	9.808425
8	0xbfc03d86	-1.5018775
9	0xc1a28621	-20.315493
10	0xbf7d7ebf	-0.99021524
11	0x41397f7b	11.593623
12	0xc074cf32	-3.8251462
13	0x40a59440	5.174347
14	0xbfdb5225	-1.7134444
15	0xc00f0c0b	-2.23511
16	0x40f759e9	7.7297254
17	0x411e75a5	9.903722
18	0xc0a89054	-5.267618
19	0xc03ac9b4	-2.918561
20	0xc152c6af	-13.173507
21	0xc0c4bccd	-6.148047
22	0x4037465a	2.863669
23	0x4180711b	16.055227
24	0xc0f20d29	-7.5641065
25	0x4172a55d	15.165372
26	0xc144a6f2	-12.290758
27	0x4126d621	10.427278
28	0x419a950c	19.322777
29	0x40276b2c	2.6159163
30	0xc0f02406	-7.5043974
31	0xc12cd8fe	-10.802977
32	0x3f9186e4	1.136929
33	0x417053f0	15.020493
34	0xc128fbd9	-10.561486
35	0x40e02df7	7.005611
36	0xc147fa6a	-12.498636
37	0x405cef29	3.4520972
38	0x419f4a7a	19.911366
39	0xc0afd56f	-5.494804
40	0xc272e715	-60.725666
41	0xc2913e7c	-72.62204
42	0xc100e83e	-8.0567
43	0xc2980a98	-76.02069
44	0x403e44c7	2.9729478
45	0x41e9108b	29.133078
46	0x40076e22	2.116097
47	0x3f72b0f2	0.9480125
48	0xbfb557a4	-1.4167371
49	0xc134928a	-11.285776
50	0x3fe9f800	1.8278809
51	0xc02849d4	-2.629506
52	0xc1863e27	-16.780348
53	0x40a11c05	5.0346704
54	0x4183a159	16.453783
55	0x40c9a595	6.3014627
56	0x413f6a38	11.963432
57	0xc0eeb47b	-7.4595313
58	0x40e4e7ad	7.1532807
59	0x413c8ac5	11.783879
60	0xc12d2fec	-10.8242
61	0xc079db24	-3.9040003
62	0x40daf661	6.8425756
63	0xc11faf25	-9.98026
64	0xc236f19f	-45.73596
65	0xc2332b65	-44.792377
66	0xc0c66795	-6.2001443
67	0x413b8e6d	11.722272
68	0xc0ffdcac	-7.9956875
69	0xbfd6edfb	-1.6791376
70	0x41015f07	8.0857
71	0xc0b4d894	-5.6514378
72	0x3fd5edf2	1.671324
73	0xc1e29c82	-28.32642
74	0xc14d4e58	-12.831627
75	0xc0f2192a	-7.565572
76	0xc2d90c06	-108.52348
77	0x4025a7c6	2.588365
78	0xc1e5824b	-28.68862
79	0x4101f68c	8.122692
80	0x4172960e	15.161634
81	0x41d27121	26.305239
82	0x41bc2f10	23.52298
83	0x41424939	12.142877
84	0xc163dd62	-14.241549
85	0x410ee6d3	8.931354
86	0x41e127b8	28.144394
87	0xc0f982ca	-7.7972155
88	0xc0a47c55	-5.1401772
89	0xc1ce8918	-25.81694
90	0x4148dd87	12.554084
91	0x41a1459f	20.158995
92	0x405e62a0	3.4747696
93	0x40edfa87	7.436832
94	0xc1de6a73	-27.801977
95	0xc087e9b5	-4.2472787
96	0xc115e103	-9.3674345
97	0x411f6fd9	9.964807
98	0x41a045d5	20.034098
99	0xc18c290a	-17.520039
100	0xc1297d42	-10.5930805
101	0xc0032c8f	-2.0495946
102	0xc09c5af1	-4.8861012
103	0xc1244fc9	-10.269479
104	0xbfb78a64	-1.4339108
105	0x417473c5	15.278264
106	0xc11b4b5e	-9.7059
107	0x4132c3df	11.17282
108	0xc12dd8db	-10.865443
109	0x414c5c8c	12.772594
110	0x4159a3cb	13.6024885
111	0xc1584c12	-13.518572
112	0xc0eedd23	-7.464494
113	0x41143599	9.263085
114	0x3fab377c	1.3376307
115	0x418bd47c	17.478752
116	0xc0b3ee54	-5.622843
117	0x40dfcc9a	6.993726
118	0x4191aec1	18.21033
119	0xc1091fc4	-8.570255
120	0x419272d7	18.306074
121	0x412dff58	10.87484
122	0x418eb074	17.836159
123	0x41a73ae0	20.903748
124	0x411122ed	9.071027
125	0xc197e835	-18.988382
126	0xc107d406	-8.489264
127	0x41a0c7b6	20.097515
128	0xc1b7f261	-22.99335
129	0x41c15730	24.167572
130	0x40a5f506	5.18616
131	0x415e8ad3	13.908893
132	0xc101e80f	-8.119155
133	0xc1a1e5ad	-20.237146
134	0x410910e5	8.566625
135	0x412729cb	10.447703
136	0x41b7f56d	22.994837
137	0xc03cc544	-2.9495401
138	0x40748096	3.8203483
139	0x41794ee4	15.58176
140	0x4068b40f	3.63599
141	0xbfb27cb6	-1.3944309
142	0x404934f2	3.1438565
143	0x410ed33b	8.92657
144	0xbf975402	-1.1822512
145	0xc1c2823d	-24.313593
146	0x4151b167	13.105811
147	0x40202798	2.5024166
148	0x3fc304cb	1.5235838
149	0xc13b8382	-11.719606
150	0x40869ba7	4.2065005
151	0xc09cd5d2	-4.901101
152	0x40832034	4.097681
153	0x3f8fd075	1.1235491
154	0xc0dfe4d9	-6.9966855
155	0xc069860e	-3.648807
156	0x404c710e	3.1944003
157	0xc0f05b36	-7.511134
158	0xc104014e	-8.250319
159	0xbfb1fbe7	-1.3905
160	0x41a88d63	21.069036
161	0x4094a038	4.644558
162	0x41a55f79	20.671618
163	0x409165e7	4.5436893
164	0xc00d6ded	-2.2098343
165	0xbf9ee962	-1.2414973
166	0x40a5ae43	5.177522
167	0x4092aada	4.583356
168	0x421a742e	38.613457
169	0xc08168fa	-4.0440645
170	0xc11a33ab	-9.637614
171	0x3fd3e6ef	1.655485
172	0xc15eaac7	-13.916694
173	0x4110012f	9.000289
174	0xc1183191	-9.512101
175	0x418de35f	17.736021
176	0x3f10110f	0.5627603
177	0xbfdbb160	-1.7163506
178	0xbfb27774	-1.3942704
179	0x4119df55	9.617024
180	0xbefd3c14	-0.49459898
181	0x412a61a2	10.648836
182	0xc1bf6b52	-23.927402
183	0x41b8a027	23.0782
184	0x40dff513	6.9986663
185	0x40fa3af2	7.8196955
186	0xc092be1b	-4.585706
187	0xc101a2af	-8.102218
188	0xbfe39197	-1.7778805
189	0xbe36fd45	-0.17870052
190	0x40b26e4c	5.575964
191	0x41ad5696	21.667278
192	0x410e184e	8.880934
193	0x3f53b4e7	0.8269791
194	0x415560ac	13.336102
195	0x4121510d	10.082288
196	0xbfec292f	-1.8450068
197	0xc15b51da	-13.707483
198	0x41b3f4a5	22.494455
199	0x408c42e4	4.3831654
200	0x427600af	61.500668
201	0xc203952c	-32.895676
202	0x4231a4d4	44.410965
203	0x414504d9	12.3136835
204	0x41bcb3b9	23.587755
205	0x41cb18d2	25.38712
206	0xc08a7a6c	-4.327444
207	0xc10ab451	-8.669023
208	0xc11499ea	-9.287577
209	0x419d3201	19.649416
210	0x414b97f2	12.724596
211	0x4096ff8f	4.718696
212	0xc143dab6	-12.240896
213	0xbf8bbbfa	-1.0916741
214	0x41a1f871	20.24631
215	0xc1bbaab9	-23.45836
216	0x41b9a2a0	23.204407
217	0x40bf7895	5.9834695
218	0x4123b961	10.2327585
219	0x42109b81	36.15186
220	0xc1b3a51e	-22.455624
221	0xc0ee8891	-7.4541707
222	0xc154067c	-13.251583
223	0xc14682d4	-12.40694
224	0xc20616e8	-33.52237
225	0x417acae6	15.674536
226	0x40edec22	7.435075
227	0xc08bb96d	-4.366385
228	0x412010e0	10.00412
229	0x410ba04c	8.726635
230	0x41ee73ec	29.806602
231	0x413b5d31	11.710252
232	0xc1d09a1f	-26.075254
233	0x41aecc06	21.84962
234	0x41ca1467	25.259962
235	0x41813060	16.14862
236	0x41c4fe8f	24.624296
237	0x4112ba7e	9.17053
238	0xc109f1c4	-8.621525
239	0xc15ff533	-13.997363
240	0xc257df98	-53.968353
241	0x408c77ac	4.3896084
242	0xc1f4a5c7	-30.580946
243	0xc00af7ff	-2.1713865
244	0x41872e7c	16.897697
245	0x3ffd7c28	1.9803514
246	0x414db8a4	12.857578
247	0xc1b27b28	-22.310135
248	0x408ecc8d	4.4624696
249	0xc1ded48b	-27.85378
250	0x41bc61ab	23.54769
251	0xbf6f2217	-0.9341139
252	0x414f2693	12.946918
253	0x410eeeb6	8.933279
254	0x410de30e	8.867933
255	0xbdf11d92	-0.11773218

hidden.linear.mask f4 [36, 40]
0	0x3f800000	1.0
1	0x3f800000	1.0
2	0x3f800000	1.0
3	0x3f800000	1.0
4	0x3f800000	1.0
5	0x3f800000	1.0
6	0x3f800000	1.0
7	0x3f800000	1.0
8	0x3f800000	1.0
9	0x3f800000	1.0
10	0x3f800000	1.0
11	0x3f800000	1.0
12	0x3f800000	1.0
13	0x3f800000	1.0
14	0x3f800000	1.0
15	0x3f800000	1.0
16	0x3f800000	1.0
17	0x3f800000	1.0
18	0x3f800000	1.0
19	0x3f800000	1.0
20	0x3f800000	1.0
21	0x3f800000	1.0
22	0x3f800000	1.0
23	0x3f800000	1.0
24	0x3f800000	1.0
25	0x3f800000	1.0
26	0x3f800000	1.0
27	0x3f800000	1.0
28	0x3f800000	1.0
29	0x3f800000	1.0
30	0x3f800000	1.0
31	0x3f800000	1.0
32	0x3f800000	1.0
33	0x3f800000	1.0
34	0x3f800000	1.0
35	0x3f800000	1.0
36	0x3f800000	1.0
37	0x3f800000	1.0
38	0x3f800000	1.0
39	0x3f800000	1.0
40	0x3f800000	1.0
41	0x3f800000	1.0
42	0x3f800000	1.0
43	0x3f800000	1.0
44	0x3f800000	1.0
45	0x3f800000	1.0
46	0x3f800000	1.0
47	0x3f800000	1.0
48	0x3f800000	1.0
49	0x3f800000	1.0
50	0x3f800000	1.0
51	0x3f800000	1.0
52	0x3f800000	1.0
53	0x3f800000	1.0
54	0x3f800000	1.0
55	0x3f800000	1.0
56	0x3f800000	1.0
57	0x3f800000	1.0
58	0x3f800000	1.0
59	0x3f800000	1.0
60	0x3f800000	1.0
61	0x3f800000	1.0
62	0x3f800000	1.0
63	0x3f800000	1.0
64	0x3f800000	1.0
65	0x3f800000	1.0
66	0x3f800000	1.0
67	0x3f800000	1.0
68	0x3f800000	1.0
69	0x3f800000	1.0
70	0x3f800000	1.0
71	0x3f800000	1.0
72	0x3f800000	1.0
73	0x3f800000	1.0
74	0x3f800000	1.0
75	0x3f800000	1.0
76	0x3f800000	1.0
77	0x3f800000	1.0
78	0x3f800000	1.0
79	0x3f800000	1.0
80	0x3f800000	1.0
81	0x3f800000	1.0
82	0x3f800000	1.0
83	0x3f800000	1.0
84	0x3f800000	1.0
85	0x3f800000	1.0
86	0x3f800000	1.0
87	0x3f800000	1.0
88	0x3f800000	1.0
89	0x3f800000	1.0
90	0x3f800000	1.0
91	0x3f800000	1.0
92	0x3f800000	1.0
93	0x3f800000	1.0
94	0x3f800000	1.0
95	0x3f800000	1.0
96	0x3f800000	1.0
97	0x3f800000	1.0
98	0x3f800000	1.0
99	0x3f800000	1.0
100	0x3f800000	1.0
101	0x3f800000	1.0
102	0x3f800000	1.0
103	0x3f800000	1.0
104	0x3f800000	1.0
105	0x3f800000	1.0
106	0x3f800000	1.0
107	0x3f800000	1.0
108	0x3f800000	1.0
109	0x3f800000	1.0
110	0x3f800000	1.0
111	0x3f800000	1.0
112	0x3f800000	1.0
113	0x3f800000	1.0
114	0x3f800000	1.0
115	0x3f800000	1.0
116	0x3f800000	1.0
117	0x3f800000	1.0
118	0x3f800000	1.0
119	0x3f800000	1.0
120	0x3f800000	1.0
121	0x3f800000	1.0
122	0x3f800000	1.0
123	0x3f800000	1.0
124	0x3f800000	1.0
125	0x3f800000	1.0
126	0x3f800000	1.0
127	0x3f800000	1.0
128	0x3f800000	1.0
129	0x3f800000	1.0
130	0x3f800000	1.0
131	0x3f800000	1.0
132	0x3f800000	1.0
133	0x3f800000	1.0
134	0x3f800000	1.0
135	0x3f800000	1.0
136	0x3f800000	1.0
137	0x3f800000	1.0
138	0x3f800000	1.0
139	0x3f800000	1.0
140	0x3f800000	1.0
141	0x3f800000	1.0
142	0x3f800000	1.0
143	0x3f800000	1.0
144	0x3f800000	1.0
145	0x3f800000	1.0
146	0x3f800000	1.0
147	0x3f800000	1.0
148	0x3f800000	1.0
149	0x3f800000	1.0
150	0x3f800000	1.0
151	0x3f800000	1.0
152	0x3f800000	1.0
153	0x3f800000	1.0
154	0x3f800000	1.0
155	0x3f800000	1.0
156	0x3f800000	1.0
157	0x3f800000	1.0
158	0x3f800000	1.0
159	0x3f800000	1.0
160	0x3f800000	1.0
161	0x3f800000	1.0
162	0x3f800000	1.0
163	0x3f800000	1.0
164	0x3f800000	1.0
165	0x3f800000	1.0
166	0x3f800000	1.0
167	0x3f800000	1.0
168	0x3f800000	1.0
169	0x3f800000	1.0
170	0x3f800000	1.0
171	0x3f800000	1.0
172	0x3f800000	1.0
173	0x3f800000	1.0
174	0x3f800000	1.0
175	0x3f800000	1.0
176	0x3f800000	1.0
177	0x3f800000	1.0
178	0x3f800000	1.0
179	0x3f800000	1.0
180	0x3f800000	1.0
181	0x3f800000	1.0
182	0x3f800000	1.0
183	0x3f800000	1.0
184	0x3f800000	1.0
185	0x3f800000	1.0
186	0x3f800000	1.0
187	0x3f800000	1.0
188	0x3f800000	1.0
189	0x3f800000	1.0
190	0x3f800000	1.0
191	0x3f800000	1.0
192	0x3f800000	1.0
193	0x3f800000	1.0
194	0x3f800000	1.0
195	0x3f800000	1.0
196	0x3f800000	1.0
197	0x3f800000	1.0
198	0x3f800000	1.0
199	0x3f800000	1.0
200	0x3f800000	1.0
201	0x3f800000	1.0
202	0x3f800000	1.0
203	0x3f800000	1.0
204	0x3f800000	1.0
205	0x3f800000	1.0
206	0x3f800000	1.0
207	0x3f800000	1.0
208	0x3f800000	1.0
209	0x3f800000	1.0
210	0x3f800000	1.0
211	0x3f800000	1.0
212	0x3f800000	1.0
213	0x3f800000	1.0
214	0x3f800000	1.0
215	0x3f800000	1.0
216	0x3f800000	1.0
217	0x3f800000	1.0
218	0x3f800000	1.0
219	0x3f800000	1.0
220	0x3f800000	1.0
221	0x3f800000	1.0
222	0x3f800000	1.0
223	0x3f800000	1.0
224	0x3f800000	1.0
225	0x3f800000	1.0
226	0x3f800000	1.0
227	0x3f800000	1.0
228	0x3f800000	1.0
229	0x3f800000	1.0
230	0x3f800000	1.0
231	0x3f800000	1.0
232	0x3f800000	1.0
233	0x3f800000	1.0
234	0x3f800000	1.0
235	0x3f800000	1.0
236	0x3f800000	1.0
237	0x3f800000	1.0
238	0x3f800000	1.0
239	0x3f800000	1.0
240	0x3f800000	1.0
241	0x3f800000	1.0
242	0x3f800000	1.0
243	0x3f800000	1.0
244	0x3f800000	1.0
245	0x3f800000	1.0
246	0x3f800000	1.0
247	0x3f800000	1.0
248	0x3f800000	1.0
249	0x3f800000	1.0
250	0x3f800000	1.0
251	0x3f800000	1.0
252	0x3f800000	1.0
253	0x3f800000	1.0
254	0x3f800000	1.0
255	0x3f800000	1.0

out.tau_mem f4 [6]
0	0x41ca7516	25.30717
1	0x418a680a	17.3008
2	0x411abe5b	9.6714735
3	0x41093b2a	8.576944
4	0x41908f7a	18.070057
5	0x420cc8b4	35.196

out.linear.weight f4 [6, 36]
0	0xbed58853	-0.4170557
1	0x40dc6480	6.887268
2	0xc1193cba	-9.577326
3	0xc087a27b	-4.238584
4	0x40264bcc	2.5983763
5	0xc0106ca3	-2.2566307
6	0x40bf2c6c	5.9741726
7	0xc1189ab8	-9.537773
8	0x405c54dd	3.4426796
9	0xc159decf	-13.616897
10	0x40af2947	5.4737887
11	0x408c9e66	4.3943357
12	0x401cdc10	2.4509315
13	0xc08e15dd	-4.440169
14	0x41334a7e	11.205687
15	0x3e04aafd	0.12955852
16	0x3edf538d	0.43618432
17	0x407d682b	3.959483
18	0x3ececf2d	0.40392438
19	0xc074106a	-3.8135018
20	0x410e9890	8.912247
21	0xc1341b3c	-11.256649
22	0xbf00a1b4	-0.5024674
23	0xc1589ff2	-13.539049
24	0x40b1ae7a	5.5525484
25	0xc136c3ae	-11.422773
26	0xc0fa2636	-7.8171644
27	0x401e7422	2.4758382
28	0xbf770a2f	-0.96499914
29	0x3ff5840b	1.9180921
30	0xc012c669	-2.29336
31	0x3ebd85aa	0.3701604
32	0x408c0c94	4.3765354
33	0x409b840d	4.8598695
34	0xc0c59070	-6.1738815
35	0x40fe7f79	7.9530606
36	0xbf3dfdf0	-0.742156
37	0xc12b4497	-10.704246
38	0x3fc244db	1.5177263
39	0x409cd890	4.901436
40	0xc06aa59f	-3.6663587
41	0x3f4a4eb2	0.7902633
42	0xbf95dcbe	-1.170799
43	0xbffa599c	-1.9558597
44	0xc0321665	-2.7826169
45	0xbf8f2d61	-1.1185724
46	0xc03f3b26	-2.9879851
47	0xbc1ab45b	-0.009442414
48	0xbfbbcb53	-1.4671425
49	0x3fedeeb6	1.8588474
50	0xc001af3d	-2.0263207
51	0xc073538e	-3.8019748
52	0xc03052ed	-2.7550614
53	0x3df3fe88	0.11913782
54	0xbf29e415	-0.6636365
55	0xbffccd21	-1.97501
56	0xc03a6b6f	-2.9128072
57	0x410e63dc	8.89938
58	0xc09a9e28	-4.831806
59	0xbf2c1ec6	-0.67234457
60	0x3f3e29f9	0.74282795
61	0xbfa8ebc1	-1.3196946
62	0xc0d1ef76	-6.560481
63	0x3fe61ac7	1.7976922
64	0xc0223812	-2.5346723
65	0xbf97f69d	-1.1872135
66	0xc0996167	-4.79314
67	0xc0a2f19a	-5.0919924
68	0xc0b458cf	-5.635841
69	0x40632c96	3.5495963
70	0xc00cb206	-2.1983657
71	0x3fd75692	1.6823294
72	0xbdcb623d	-0.09930847
73	0xc1f513ab	-30.634604
74	0x405c1591	3.4388163
75	0xbfb9a944	-1.4504781
76	0xbef63a7a	-0.4809149
77	0xc082dcdf	-4.089462
78	0x40418da8	3.024271
79	0x3fa860c4	1.315453
80	0x4049bf24	3.1522913
81	0xbf450191	-0.76955515
82	0xc17a53ce	-15.64546
83	0x3fc1799b	1.5115236
84	0xc0dd6c93	-6.9195037
85	0x401b16a6	2.4232574
86	0xc01a9118	-2.4151058
87	0xc02cf7a2	-2.7026143
88	0xc0425624	-3.0365076
89	0xc0026c10	-2.0378456
90	0x403e9e18	2.9783993
91	0xbadc5790	-0.0016810764
92	0xbf9ad849	-1.2097255
93	0xbfc56b11	-1.5423299
94	0xbfcafe6b	-1.5858892
95	0x3e551a97	0.20810924
96	0xc0bdf8e3	-5.9366317
97	0x3e8c209f	0.27368638
98	0xc0478ee5	-3.1180966
99	0xc0d559cc	-6.6672115
100	0xc0939c09	-4.6127973
101	0xbfbb7528	-1.4645128
102	0xc1439da0	-12.225983
103	0xc11c0272	-9.750597
104	0xc08ca77d	-4.3954453
105	0xc1855bf4	-16.669899
106	0xc0505c10	-3.255619
107	0xc0f0d668	-7.5261726
108	0xbffd7236	-1.980048
109	0x409caddc	4.896223
110	0xc0c0fb79	-6.0306973
111	0xbfa8b714	-1.3180871
112	0xbe33c6c0	-0.17556286
113	0xbeaabe4e	-0.33348316
114	0xc138d971	-11.553086
115	0x401a69c5	2.4127057
116	0x3e6766e3	0.22597842
117	0xbfb98a04	-1.4495244
118	0xc194d5e6	-18.604443
119	0xc0968e53	-4.7048736
120	0xc0dcfcbd	-6.905852
121	0xc0068097	-2.1015985
122	0x3e65a0d8	0.22424638
123	0x3fc70c23	1.5550579
124	0xc133b523	-11.231723
125	0xc076e999	-3.8580077
126	0xc0c19bf5	-6.0502877
127	0x3f8ab11c	1.08353
128	0xc066b1b7	-3.6045969
129	0xc0531034	-3.297864
130	0xc0319c65	-2.7751706
131	0x3e958f14	0.29210722
132	0x3ec8780d	0.3915409
133	0xbf4b7ed6	-0.7949041
134	0xbfe57da0	-1.7928963
135	0x3ffcf4f7	1.9762257
136	0xbf89593d	-1.0730358
137	0xbe0fe3fb	-0.14051811
138	0x4038efd1	2.8896372
139	0xbf87fedc	-1.0624652
140	0x3ef12631	0.4709945
141	0xc20ddae8	-35.463776
142	0xc0493249	-3.1436942
143	0xc0923fce	-4.5702887
144	0x3fd854da	1.6900895
145	0xc15ec8af	-13.923995
146	0xc0de5c27	-6.948749
147	0xc0925ba0	-4.5736847
148	0xc0d5793b	-6.6710486
149	0xc07c8db6	-3.9461493
150	0xc08490d6	-4.14268
151	0x40251c65	2.579858
152	0xc01fd16a	-2.4971566
153	0xc0b62577	-5.6920733
154	0xc169d4a1	-14.614411
155	0xbf801aa9	-1.0008136
156	0xc0d3a81d	-6.6142716
157	0x401e936b	2.4777477
158	0x40a49442	5.143098
159	0x410d64aa	8.837076
160	0x3f7fa266	0.99857175
161	0xc04990db	-3.1494663
162	0xc042c6e3	-3.043389
163	0xc088288e	-4.2549505
164	0xc107eb19	-8.494897
165	0x3fde73b7	1.7379063
166	0x402a1f5c	2.658164
167	0x404c1804	3.1889658
168	0x40f38cfd	7.6109605
169	0xc09afb90	-4.8432083
170	0x40f6cf0e	7.712775
171	0x40695fab	3.646464
172	0x3ef789fe	0.48347467
173	0xbfaa192e	-1.3288934
174	0x40c02111	6.0040364
175	0x3e257f92	0.16161945
176	0x3df9b733	0.121931456
177	0xbfd03a4f	-1.6267794
178	0xc185ec7e	-16.740475
179	0xc09d5816	-4.9170027
180	0x4093d840	4.6201477
181	0xbff5e680	-1.9210968
182	0xbfb2e0f9	-1.3974906
183	0xbfb262d4	-1.393641
184	0xc0c32cbb	-6.0992103
185	0xc1584d6a	-13.5189
186	0xbf97b1d2	-1.1851141
187	0xbfed8f24	-1.8559308
188	0x3fd397ea	1.6530735
189	0xc165a923	-14.353793
190	0xc0e05582	-7.010438
191	0xc146ba1f	-12.42044
192	0xc0c705e7	-6.2194705
193	0xc115a519	-9.352807
194	0xbfc0a740	-1.5051041
195	0xc0891e36	-4.284938
196	0xc0d24bed	-6.5717683
197	0xc0408876	-3.008329
198	0xbfeec1d4	-1.8652902
199	0x40807b50	4.015053
200	0xc05aaf11	-3.4169352
201	0x3fb0e33b	1.3819345
202	0xc00fd56e	-2.2474017
203	0x3f92f116	1.1479824
204	0x40cdf90a	6.4366503
205	0x3fec63f5	1.8468004
206	0x3edd7362	0.43252093
207	0x40d89bf0	6.7690353
208	0x4069a804	3.6508799
209	0x40a0f408	5.029789
210	0x410dcd62	8.862642
211	0x4100249d	8.008939
212	0x3f8a96b1	1.0827237
213	0x402d0535	2.7034428
214	0x4024ad11	2.5730631
215	0xbffe8264	-1.9883542

exp_avg f4 [36]
0	0xc01114d0	-2.2668953
1	0xbfd07db9	-1.6288368
2	0x3f482351	0.7817889
3	0xbfdc2739	-1.719947
4	0x3f965d62	1.1747248
5	0xbf4c0ce6	-0.7970718
6	0xbe89bab5	-0.2690026
7	0x3f4573db	0.77129906
8	0x3ebb9a37	0.36641094
9	0xbf5bde0c	-0.8588569
10	0x3f43e7d8	0.7652564
11	0xbf070735	-0.5274537
12	0xbf881b9c	-1.0633426
13	0x409be78a	4.872014
14	0x401f8354	2.4923906
15	0x37c10af1	2.3012488e-05
16	0xbed9464f	-0.42436454
17	0x404358c0	3.0522919
18	0x1f08e335	2.898706e-20
19	0xbf18d1e5	-0.59695274
20	0x3fb15099	1.3852721
21	0x3ecd0cf8	0.40048957
22	0xbfd5c338	-1.6700201
23	0x1304395f	1.6689028e-27
24	0x400a3364	2.1593866
25	0x3fe1f563	1.7653011
26	0x402c2d9d	2.690284
27	0x3f0d0147	0.55080074
28	0x3ff6f805	1.929444
29	0xc01c7e7d	-2.4452202
30	0x409f414d	4.9767213
31	0xbf19f243	-0.6013529
32	0x3dad30a9	0.08456547
33	0x3e8b8406	0.27249163
34	0x3fe50335	1.7891604
35	0xc007d11a	-2.1221375

exp_avg_sq f4 [36]
0	0x435d7724	221.4654
1	0x42aad3a8	85.41339
2	0x411d0dc9	9.8158655
3	0x42ffb92d	127.86167
4	0x42a20d03	81.02541
5	0x41092c8d	8.573377
6	0x432c4b0c	172.29315
7	0x4297b219	75.84785
8	0x418456d1	16.54239
9	0x41bdc0d9	23.719164
10	0x437dd6b2	253.83865
11	0x43e680f5	461.00748
12	0x43cc2e8e	408.3637
13	0x43a5f026	331.87616
14	0x428d8f3f	70.77978
15	0x3f8f2847	1.1184167
16	0x42e0f983	112.48733
17	0x42ba0f06	93.02934
18	0x3c134651	0.008988933
19	0x41a4a086	20.57838
20	0x429b7b8f	77.741325
21	0x40e92b07	7.2865024
22	0x444dfe80	823.97656
23	0x3d7d9a0b	0.061914485
24	0x430a8a69	138.54066
25	0x436cecd0	236.92505
26	0x43d1407c	418.50378
27	0x437c564e	252.33713
28	0x43aeac8d	349.34805
29	0x440bf096	559.75916
30	0x442072ed	641.7957
31	0x442d92d8	694.29443
32	0x429fd9cd	79.92539
33	0x43c23445	388.40836
34	0x438eba7f	285.457
35	0x4359d7e5	217.84334

exp_avg f4 [36]
0	0xbe9417af	-0.2892432
1	0xbee564d3	-0.44803485
2	0x3e129534	0.14314729
3	0x3f0f78e2	0.5604383
4	0xbf270c69	-0.6525331
5	0x3dbf9367	0.09354287
6	0x3e0960b6	0.13415799
7	0x3a690f51	0.0008890527
8	0xbf8e26c8	-1.1105585
9	0xbd9f44cc	-0.07776794
10	0x3f29dcd8	0.66352606
11	0x3dfe50de	0.12417768
12	0xbec032bd	-0.3753871
13	0xbf7d8333	-0.9902832
14	0x3ff00309	1.8750926
15	0xbc48a871	-0.012247191
16	0xbef48c20	-0.47763157
17	0xc009d887	-2.1538408
18	0x3feaec96	1.835345
19	0x3dfb4acf	0.12270128
20	0xbe768e63	-0.24077754
21	0xbe90ce83	-0.28282556
22	0xbe9907ea	-0.2988885
23	0xc0a329e3	-5.098863
24	0xc00276e3	-2.0385063
25	0x3f0c65eb	0.54843014
26	0x405f0b9b	3.4850833
27	0xc034f351	-2.8273509
28	0x4006d96a	2.10702
29	0xbf8e9ddc	-1.1141925
30	0x3f62e511	0.8863078
31	0xc00e3a3d	-2.2223046
32	0x3ed9bea1	0.4252825
33	0x3f3217d6	0.6956762
34	0xbf8be7bf	-1.0930098
35	0x3ff5f120	1.921421

exp_avg_sq f4 [36]
0	0x4347ff0a	199.99625
1	0x409a3250	4.8186417
2	0x409b7696	4.858226
3	0x42166b69	37.604893
4	0x4278a650	62.162415
5	0x4157e3f0	13.493149
6	0x41df2f40	27.898071
7	0x417a0a2f	15.627486
8	0x41d148cb	26.160543
9	0x4254425a	53.064796
10	0x424b5a14	50.837967
11	0x4364051e	228.01999
12	0x43048721	132.52785
13	0x42f16d41	120.71339
14	0x42846c3a	66.21138
15	0x423158ba	44.336647
16	0x42d676bf	107.231926
17	0x42417a36	48.369347
18	0x428411ef	66.03503
19	0x419d05ce	19.627834
20	0x434d2df5	205.17952
21	0x40558820	3.3364334
22	0x428042ac	64.13022
23	0x43be801b	381.00082
24	0x4277b17a	61.923317
25	0x414f3a19	12.951684
26	0x42998e27	76.77764
27	0x4255260c	53.287155
28	0x43005991	128.34987
29	0x43d5ff3a	427.99396
30	0x42edf8d3	118.985985
31	0x43a7e691	335.8013
32	0x42a690d7	83.28289
33	0x41e63061	28.773623
34	0x42b5663e	90.69969
35	0x426849c3	58.072033

exp_avg f4 [36, 40]
0	0xbd7839ac	-0.060601875
1	0xbc998f84	-0.018745191
2	0xbd181a5a	-0.037134506
3	0xbc03ca2a	-0.008043805
4	0xbcaaed46	-0.020865094
5	0xbc51b846	-0.012800282
6	0xbd421fb6	-0.047393523
7	0xbd396ef6	-0.045271836
8	0xbbedbae2	-0.007254944
9	0xbd832d1b	-0.064050876
10	0xbd2a2450	-0.041538537
11	0xbd988227	-0.074466996
12	0xbd763986	-0.060113452
13	0xbd8fea17	-0.07027071
14	0xbd37e68c	-0.0448976
15	0x3b77da96	0.0037819496
16	0xbdef750d	-0.116922475
17	0xbd93328c	-0.071873754
18	0xbd082fbd	-0.03324865
19	0xbd153069	-0.03642312
20	0x3c3530c7	0.011058993
21	0xbb9c3681	-0.0047672396
22	0xbe12204a	-0.1427013
23	0xbcea0a67	-0.028569413
24	0xbd8784c9	-0.06617124
25	0xbd1c4d49	-0.038159642
26	0xbcb90042	-0.02258313
27	0xbdfe7a48	-0.12425667
28	0xbced44a6	-0.028963398
29	0xbdd50d3a	-0.104029134
30	0xbdbb40c5	-0.09143213
31	0xbd8ecb3e	-0.06972359
32	0xbd8b850e	-0.068124875
33	0xbd401d3e	-0.046902888
34	0x3ba56762	0.0050477246
35	0xbd4ea335	-0.050448615
36	0xbe313092	-0.17303684
37	0xbdac4058	-0.0841071
38	0xbdb9293e	-0.090410694
39	0xbdb28693	-0.08717074
40	0x3a9796c3	0.0011565316
41	0x3a813219	0.0009856849
42	0x3adb4544	0.0016729017
43	0x3b01c85f	0.0019803268
44	0x3c7f4f79	0.015582913
45	0x3bbfee3f	0.0058572586
46	0x3ad869fe	0.001651108
47	0x3c8afb6a	0.016965587
48	0x3afbc0b5	0.0019207211
49	0x3ba49d88	0.005023662
50	0x3d545672	0.051840253
51	0x3bc1a6b2	0.005909764
52	0x3b8f5233	0.0043738126
53	0x3ca92aeb	0.020650348
54	0x3cda76ae	0.026667919
55	0x3be171f2	0.0068800384
56	0x3d0eefef	0.034896787
57	0x3c78058b	0.01513804
58	0x3c530681	0.012879969
59	0x3cea3693	0.028590476
60	0x3ca7d845	0.020488868
61	0xba3bf527	-0.00071700144
62	0x3dab3867	0.08360367
63	0x3ad2901c	0.0016064676
64	0x3c204498	0.009781979
65	0x3b77933b	0.0037776965
66	0x3d1be470	0.03805965
67	0x3d451a45	0.048120756
68	0x3ca5e134	0.020248987
69	0x3d09bf31	0.0336296
70	0x3bd53943	0.0065070703
71	0x3d17c620	0.03705418
72	0x3d04af4e	0.032393746
73	0x3ca7f638	0.020503148
74	0x3d087940	0.033318758
75	0x3cbccd68	0.023047164
76	0xb8c93803	-9.59486e-05
77	0x3d80270a	0.06257446
78	0xbb298a79	-0.002586989
79	0x3c8a5fab	0.016891321
80	0x3a9262c6	0.0011168353
81	0xbc3b48e4	-0.011430953
82	0xbd08e1c7	-0.033418443
83	0x3c92c26f	0.017914979
84	0x3c56f87b	0.013120766
85	0x3afb3d36	0.0019168023
86	0xbcaf7afe	-0.021420952
87	0x3ca0e4ca	0.019640345
88	0xbd3b952b	-0.045796555
89	0xbcc69511	-0.024241002
90	0x3cea68ff	0.02861452
91	0xbd2d2bb7	-0.042278018
92	0x3c0c2e12	0.008555906
93	0xbc10ef79	-0.008846157
94	0x3958f421	0.0002069031
95	0x3bdc3535	0.00672021
96	0x3cc49562	0.023997013
97	0x3ca87e92	0.020568166
98	0xbd0154d4	-0.03157504
99	0x3c1704f8	0.009217493
100	0x3cba9e2b	0.022780498
101	0xbc28fbd4	-0.010313947
102	0x3c83401d	0.016021783
103	0xbd0bac7e	-0.03410005
104	0xbcc60e6f	-0.024176804
105	0xbc1d1145	-0.009586637
106	0xba5996f4	-0.0008300387
107	0xbc9dfb4f	-0.019284872
108	0xbcc323c7	-0.02382077
109	0xbd9592f9	-0.073034234
110	0xbcd498f7	-0.025951846
111	0xbb33b786	-0.002742262
112	0x3d1abcd2	0.03777773
113	0x3cbdbf71	0.023162575
114	0xbc3712d7	-0.011173925
115	0xbd158bc4	-0.036510244
116	0xbb58405d	-0.0032997348
117	0x3b90e425	0.004421728
118	0xbb60605e	-0.0034237127
119	0xbd4191e6	-0.04725828
120	0x3d1db408	0.03850177
121	0x3ca9b5e6	0.020716619
122	0x3e16e3c1	0.14735319
123	0xbc85f249	-0.016350882
124	0x3ce08271	0.02740595
125	0xbc5e4ff6	-0.013568869
126	0x3d1b67ba	0.03794072
127	0x3d338913	0.043831896
128	0x3dbc52c9	0.091954775
129	0x3d5b753c	0.0535786
130	0xbdcb4e49	-0.09927041
131	0x3e0f76b6	0.14010128
132	0xbd195e73	-0.03744359
133	0xbd08f7b9	-0.03343937
134	0xbd5a5308	-0.05330184
135	0x3d34ce14	0.044141844
136	0xbdbfd20b	-0.093662344
137	0x3d114fa4	0.03547634
138	0x3eaa175c	0.33220947
139	0xbd0d5e5a	-0.03451381
140	0xbd488ec4	-0.048964277
141	0x3e08e54a	0.13368717
142	0xbd75d8f5	-0.06002136
143	0x3e0ac2be	0.13550851
144	0x3d40f28f	0.047106322
145	0x3cb2da1c	0.021832518
146	0x3c5d7679	0.013517016
147	0x3e8fecd5	0.28110376
148	0x3eb3322d	0.3499922
149	0x3e38858a	0.18019691
150	0x3ea8b39f	0.3294954
151	0xbd154e49	-0.03645161
152	0xbcda62d6	-0.026658457
153	0xbcb7bcda	-0.022428919
154	0xbd862e08	-0.065517485
155	0xbd6b8a41	-0.057504896
156	0x3f098bbc	0.5372884
157	0xbdab184d	-0.083542444
158	0x3cc0c427	0.023531033
159	0x3e1a365c	0.15059799
160	0x3c32a59f	0.010903745
161	0x3cd6f1f7	0.026238425
162	0xbb906a8d	-0.004407233
163	0x3bf58b81	0.007493437
164	0x3cd21592	0.025645051
165	0xb9cc60e3	-0.00038982098
166	0x3c8729a9	0.016499357
167	0x3d144cda	0.036206104
168	0x3cc27fbd	0.023742551
169	0x3d30b3ab	0.043140095
170	0xbc83b029	-0.01607521
171	0xbba19144	-0.004930647
172	0x3b82650f	0.0039793323
173	0x3bd9fb28	0.0066522546
174	0x3c7ba5be	0.01535934
175	0xbc6183c7	-0.013764328
176	0x3d29cd53	0.041455578
177	0x3d1041c4	0.03521897
178	0x3b1d4fc4	0.0024003843
179	0x3c05d9e0	0.008169621
180	0x3b74e4ca	0.0037367814
181	0x3ca1c783	0.019748455
182	0x3d1526f1	0.03641409
183	0xbd443e73	-0.04791112
184	0x3c6408e6	0.013918137
185	0x3c7685b3	0.015046525
186	0x3c4de177	0.012565962
187	0xbc622b9e	-0.013804344
188	0xbc444e4f	-0.011981561
189	0x3c85638d	0.016282821
190	0xbc83c42e	-0.016084757
191	0x3d79a56f	0.060948785
192	0xbcece43e	-0.028917428
193	0xbb1329e6	-0.0022455393
194	0x3c296a25	0.010340248
195	0x3d013057	0.03154024
196	0xbce391b1	-0.027779432
197	0x3c274343	0.010208908
198	0x3ac39747	0.0014922403
199	0xbc1b32fb	-0.009472604
200	0x3d71da18	0.05904588
201	0xbc667e19	-0.01406815
202	0x3c58caed	0.013231975
203	0xbc5b2272	-0.013374912
204	0x3be56e6c	0.0070016887
205	0x3a03c9e5	0.0005027338
206	0xbb9fe534	-0.004879618
207	0x3c0fa644	0.008767668
208	0x3ca881db	0.020569732
209	0x3d100552	0.035161324
210	0x3b62c36c	0.0034601344
211	0x3c26b08b	0.010173927
212	0xbd007ed4	-0.031370953
213	0x3abfc63b	0.0014631221
214	0xba73dae9	-0.00093023345
215	0x3c77479c	0.015092757
216	0x3d3374f2	0.0438127
217	0xbcbd7b4a	-0.023130078
218	0xbc1d2cc4	-0.0095931925
219	0x3c7fb100	0.015606165
220	0xbbbb3180	-0.005712688
221	0x3c6ac633	0.014329481
222	0x3dc4d268	0.09610444
223	0x3b6740ad	0.0035286353
224	0x3c50046c	0.012696367
225	0x3d0af5ad	0.0339257
226	0x3ceaf783	0.028682476
227	0x3d341115	0.043961603
228	0x3d8e3e94	0.069455296
229	0x3e1cd91c	0.15317196
230	0x3a5a0d70	0.00083180424
231	0x3d89e367	0.06732827
232	0xbc92b65f	-0.017909227
233	0xbc99a998	-0.018757626
234	0x3d274cc4	0.040844694
235	0x3d9b283b	0.07576033
236	0xbc897360	-0.016778648
237	0x3d2f56aa	0.04280726
238	0xbb600c55	-0.0034187038
239	0x3d818e2c	0.06325945
240	0x3b8dabb5	0.0043234476
241	0xbc221a25	-0.009893929
242	0x3ca11ad8	0.01966612
243	0x3cb17c82	0.021665815
244	0x3d057c17	0.032589044
245	0xbca49ecc	-0.020095252
246	0xbbf8dd76	-0.0075947596
247	0x3cc4ab77	0.024007542
248	0x3d126909	0.0357447
249	0x3c9d3996	0.019192498
250	0xbc2cd6ea	-0.010549286
251	0x3b00358b	0.0019563164
252	0x3d1a33c2	0.037647016
253	0xbcaf6af2	-0.0214133
254	0xbca8fe6b	-0.020629128
255	0x3c8d4c89	0.017248409

exp_avg_sq f4 [36, 40]
0	0x3d4f00da	0.05053792
1	0x3cddd7e0	0.027080476
2	0x3d837629	0.06419022
3	0x3ce68eab	0.028144201
4	0x3e11c43f	0.14235018
5	0x3e20b3ac	0.1569354
6	0x3d837a94	0.06419864
7	0x3d935a07	0.07194906
8	0x3dfdae84	0.12386802
9	0x3d220950	0.039559662
10	0x3fa7c7ab	1.3107809
11	0x3df50021	0.11962915
12	0x3d93270e	0.071851835
13	0x3ea1a248	0.31569123
14	0x3e928442	0.2861653
15	0x3de9b857	0.11412113
16	0x3f8e7834	1.1130433
17	0x3df167f2	0.11787404
18	0x3edd6622	0.43241984
19	0x3ed77291	0.42079595
20	0x3e325464	0.17415005
21	0x3dcf8b7d	0.10134027
22	0x40379c52	2.868916
23	0x3dd0284b	0.10163935
24	0x3e188a0c	0.1489641
25	0x3d8a9928	0.067674935
26	0x3e9ab5d9	0.30216864
27	0x3f53ae14	0.826875
28	0x3ebd6112	0.3698812
29	0x3f269d88	0.65084124
30	0x3ee90065	0.45508114
31	0x3f2ebc62	0.682562
32	0x3e6d66c3	0.23183732
33	0x3e53211c	0.20618099
34	0x3eba69be	0.364088
35	0x3f0bd29a	0.5461823
36	0x3f84fa23	1.0388836
37	0x3fc7163d	1.5553662
38	0x3dca6a70	0.098835826
39	0x3f061f40	0.52391434
40	0x380c575e	3.3459968e-05
41	0x37ee21cf	2.8387554e-05
42	0x3863495c	5.418934e-05
43	0x37d076d8	2.4850873e-05
44	0x3cfdc95b	0.030979803
45	0x3ccd6883	0.02507425
46	0x3ab2bd8e	0.0013636814
47	0x3c6de9ce	0.014521075
48	0x3d34a36e	0.04410117
49	0x3bda5e47	0.0066640708
50	0x3e7cda00	0.24692535
51	0x3a0a53d5	0.0005276774
52	0x3b37ac4b	0.0028026279
53	0x3dc38b5d	0.09548066
54	0x3e2b5237	0.16730581
55	0x3cdabdca	0.026701827
56	0x3e181870	0.14853072
57	0x3cd27935	0.025692562
58	0x3c96ca72	0.01840708
59	0x3e343564	0.17598492
60	0x3c4607c7	0.012086815
61	0x3d25747f	0.040394302
62	0x3f061e01	0.5238953
63	0x3c3216be	0.01086968
64	0x3b0110e5	0.0019693908
65	0x3b0f28a3	0.002184429
66	0x3cfae255	0.030625502
67	0x3e2c18c0	0.16806316
68	0x3c4df1bc	0.012569841
69	0x3deff2f6	0.11716263
70	0x3aebac0e	0.0017980353
71	0x3deb52a5	0.114903726
72	0x3d374016	0.04473885
73	0x3cfefb46	0.031125676
74	0x3d64c2fd	0.055850018
75	0x3d73fe55	0.05956872
76	0x39daf449	0.00041762207
77	0x3e28d898	0.16488874
78	0x3cf64b5f	0.030065237
79	0x3d5b1be7	0.053493407
80	0x3cdb187c	0.026745073
81	0x3c78c0dd	0.015182701
82	0x3d036401	0.032077793
83	0x3cc82829	0.024433212
84	0x3b6aa429	0.0035803413
85	0x3c4258d1	0.011861996
86	0x3cc8d9e2	0.024517957
87	0x3be771e1	0.007063136
88	0x3d3e53d4	0.046466663
89	0x3c841cf0	0.01612708
90	0x3d98d61a	0.07462712
91	0x3d0375ee	0.03209489
92	0x3d55e203	0.052217495
93	0x3c948823	0.018131321
94	0x3c87dfe2	0.016586248
95	0x3c2d755c	0.010587063
96	0x3d0d42e0	0.034487605
97	0x3d83e451	0.06440032
98	0x3ce01228	0.027352408
99	0x3cb63584	0.022242315
100	0x3d11986c	0.03554575
101	0x3d08fae3	0.03344239
102	0x3dbd3a4d	0.092396356
103	0x3d258ac3	0.040415537
104	0x3da808c2	0.082047954
105	0x3d0f61bc	0.035005316
106	0x3c908985	0.0176437
107	0x3d201e87	0.039091613
108	0x3c63b17d	0.013897297
109	0x3dab5f01	0.0836773
110	0x3d236b7b	0.039897423
111	0x3d1e6700	0.038672447
112	0x3ce73ba7	0.028226687
113	0x3caaf879	0.020870434
114	0x3d6b580c	0.057457015
115	0x3d7d9142	0.061906107
116	0x3e5b5b76	0.21421608
117	0x3da33741	0.07969523
118	0x3cd2e328	0.025743082
119	0x3cd96c14	0.026540793
120	0x3dbf7726	0.09348898
121	0x3d70c300	0.058779716
122	0x3e22c4aa	0.15895334
123	0x3d49d372	0.049273916
124	0x3e86fa9e	0.2636308
125	0x3e2ea6eb	0.17055862
126	0x3daac022	0.08337428
127	0x3df76292	0.12079348
128	0x3e0395fc	0.12850183
129	0x3dbcd2ec	0.09219918
130	0x3f2b9445	0.67023116
131	0x3e451b60	0.19248724
132	0x3e09eddc	0.13469642
133	0x3e37cdcc	0.17949599
134	0x3ec1c42a	0.37844974
135	0x3e138585	0.14406402
136	0x3f71678e	0.94298637
137	0x3e20ae17	0.1569141
138	0x3f12e875	0.5738595
139	0x3ebb8243	0.3662282
140	0x3e26c7f0	0.16287208
141	0x3e1734a3	0.14766173
142	0x3fd7fcf4	1.687407
143	0x3e03f075	0.12884696
144	0x3e99dd06	0.3005144
145	0x3d88d52a	0.06681283
146	0x3ea0398f	0.31293914
147	0x3f6d1f98	0.92626333
148	0x3f4f2f29	0.80931336
149	0x3f0f32bb	0.55936784
150	0x3f39f526	0.7263969
151	0x3ec1a34d	0.378199
152	0x3e842d22	0.25815684
153	0x3ea3f322	0.32021433
154	0x3e304b82	0.17216304
155	0x3e994751	0.29937223
156	0x40233f7a	2.5507493
157	0x3f2e5081	0.6809159
158	0x3ea0efbe	0.3143291
159	0x3f41295e	0.75453746
160	0x3ce5c23e	0.028046723
161	0x3caa38fa	0.020779122
162	0x3d05bade	0.032648914
163	0x3cbc1646	0.02295984
164	0x3d02caac	0.031931564
165	0x3a3508ce	0.0006905914
166	0x3cfd9a21	0.030957283
167	0x3cc136d2	0.02358571
168	0x3d8de170	0.069277644
169	0x3caf0596	0.021364968
170	0x3d2ae308	0.04172042
171	0x3d12399a	0.035699464
172	0x3d533a03	0.051568996
173	0x3d10f43b	0.035389166
174	0x3c7e8915	0.015535613
175	0x3cedfeaa	0.029052097
176	0x3cf98473	0.030458665
177	0x3daa940d	0.0832902
178	0x3d692847	0.056923177
179	0x3bf9f9db	0.007628662
180	0x3d127614	0.03575714
181	0x3d2cd91c	0.04219924
182	0x3d69ca3d	0.057077635
183	0x3d4644e5	0.048405547
184	0x3dbe5225	0.092930116
185	0x3d0af65c	0.033926353
186	0x3cdd5881	0.027019741
187	0x3d10e85a	0.035377838
188	0x3d883d35	0.06652299
189	0x3db19004	0.08670047
190	0x3d9b0275	0.07568828
191	0x3de0f58a	0.10984333
192	0x3d042f10	0.032271445
193	0x3d57080b	0.052497905
194	0x3de139e4	0.1099737
195	0x3deae8c8	0.11470181
196	0x3e78a317	0.24280964
197	0x3da19c8b	0.07891186
198	0x3d168251	0.036745373
199	0x3d9a476c	0.07533154
200	0x3ce967e4	0.028491922
201	0x3c2e5efc	0.010642763
202	0x3ca23d5d	0.01980465
203	0x3c4eb99d	0.012617496
204	0x3c39beec	0.011337023
205	0x3a420925	0.00074018753
206	0x3c795938	0.015219025
207	0x3bc72e8b	0.0060785464
208	0x3cf2aacf	0.029622464
209	0x3d5e9143	0.05433775
210	0x3d07ddfa	0.033170678
211	0x3c11cf51	0.008899526
212	0x3cd1db40	0.025617242
213	0x3bf49248	0.007463727
214	0x3bd664bb	0.0065427697
215	0x3babc098	0.005241465
216	0x3d167fd3	0.036742996
217	0x3cd10650	0.025515705
218	0x3c2c2fb3	0.010509419
219	0x3bcea992	0.0063068355
220	0x3c9c7163	0.019097036
221	0x3c466fff	0.012111663
222	0x3dde3602	0.10850145
223	0x3c6f0fb4	0.014591146
224	0x3d0644f8	0.032780617
225	0x3ccbf3fe	0.024896618
226	0x3c856b6a	0.01628657
227	0x3c90ce30	0.017676443
228	0x3d2e7928	0.042596012
229	0x3e36250f	0.17787574
230	0x3c09d2ff	0.008412122
231	0x3d87198f	0.06596672
232	0x3ca2e94c	0.019886635
233	0x3c43bd2d	0.0119469585
234	0x3d987aac	0.07445273
235	0x3d9af94a	0.07567079
236	0x3e02b17d	0.12763019
237	0x3d842d5e	0.064539656
238	0x3c39572e	0.011312289
239	0x3d0d2e1e	0.03446781
240	0x3c1fc95a	0.009752596
241	0x3c83b12b	0.016075691
242	0x3c64e34e	0.013970209
243	0x3cb0efa6	0.021598648
244	0x3d4f3547	0.05058792
245	0x3c9e122a	0.01929577
246	0x3c98165b	0.018565347
247	0x3d162847	0.036659505
248	0x3d6895de	0.05678355
249	0x3cf2cadd	0.029637748
250	0x3db80818	0.08985919
251	0x3d6bdbb6	0.05758258
252	0x3d2a025e	0.041506164
253	0x3d6b303c	0.057419047
254	0x3d5a677c	0.053321347
255	0x3d88615a	0.06659193

exp_avg f4 [6]
0	0xbc854ecc	-0.016272925
1	0x3b2db544	0.0026505748
2	0xbd3d74eb	-0.04625408
3	0xbee4479e	-0.4458589
4	0x3dc0a1b7	0.09405845
5	0xbe3d14f9	-0.18465032

exp_avg_sq f4 [6]
0	0x3edf6d4f	0.43638083
1	0x3e320a80	0.17386818
2	0x3f1773c3	0.59161013
3	0x40b20db2	5.564172
4	0x4097e67d	4.746886
5	0x3fb56f90	1.4174671

exp_avg f4 [6, 36]
0	0xbca4e551	-0.020128878
1	0x3d0739a6	0.033013962
2	0x3d23c5a3	0.039983403
3	0x3e490b1f	0.19633149
4	0x3e12035e	0.14259097
5	0x3e4fdc23	0.20298819
6	0x3ea4ac6b	0.32162794
7	0x3cd8eaf0	0.026479214
8	0x3d81afd1	0.063323624
9	0x3d9ecdc1	0.07754088
10	0x3cd5e911	0.026112111
11	0x3e64aac3	0.22330765
12	0x3f0eafc1	0.5573693
13	0x3e884702	0.26616675
14	0xbe094f44	-0.13409144
15	0x3dbb11a9	0.09134228
16	0x3e1dd2e7	0.15412484
17	0x3e8a8d2b	0.27060828
18	0x3f9cca43	1.2249225
19	0xbd2c4143	-0.042054426
20	0xbd23e5dc	-0.040014133
21	0x3dfbd1fe	0.12295912
22	0x3eac5f1f	0.33666322
23	0x3efd9590	0.4952817
24	0x3d81ca1e	0.06337379
25	0x3f0a04d1	0.539136
26	0x3e091874	0.13388234
27	0x3f1f0c33	0.6212799
28	0x3eef2ba5	0.46712986
29	0x3cf8fde6	0.030394506
30	0x3ed6f482	0.4198342
31	0x3f2d46c1	0.67686087
32	0x3f317d49	0.69331795
33	0x3f518468	0.8184266
34	0xbd4427c2	-0.04788948
35	0x3e1c917e	0.15289876
36	0xbd952ee8	-0.07284337
37	0xba91e1bb	-0.0011129895
38	0x3e0083f4	0.12550336
39	0x3cb9de76	0.022689085
40	0x3d9993d0	0.07498896
41	0x3e2928c0	0.16519451
42	0xbcb3b080	-0.021934748
43	0x3e475762	0.19466928
44	0x3e550a3d	0.20804687
45	0x3df63445	0.12021688
46	0xbcde2473	-0.02711699
47	0x3e4a12e9	0.19733776
48	0x3e15fd78	0.14647472
49	0x3e1e475a	0.15456906
50	0x3d60c26e	0.054872923
51	0xbc977212	-0.01848701
52	0x3d0e819c	0.034791574
53	0x3e2d852f	0.16945337
54	0x3e78720b	0.24262254
55	0x3df23889	0.118271895
56	0x3e938d8f	0.28818938
57	0x3e6fb2a6	0.23407993
58	0xb98df858	-0.00027078646
59	0x3e6df460	0.23237753
60	0x3df2b9d8	0.11851853
61	0x3e826195	0.25465074
62	0x3e3f713a	0.18695536
63	0x3d73fde7	0.059568312
64	0xbdafa1b2	-0.08575763
65	0xbcf1a760	-0.029498756
66	0xbcdd716b	-0.027031621
67	0x3d9bed36	0.07613604
68	0x3f294d90	0.66133976
69	0x3d0c7122	0.03428758
70	0x3e72bb67	0.23704301
71	0x3e0a0d25	0.13481577
72	0xbc175d20	-0.009238511
73	0x389f731b	7.603151e-05
74	0xbe17d95d	-0.14829011
75	0x3ca4a727	0.020099236
76	0xbe8ec252	-0.2788263
77	0xbdd8d1ee	-0.10586916
78	0xbc33ca98	-0.010973595
79	0xbe6cf995	-0.23142083
80	0xbe2d8cb7	-0.1694821
81	0xbe286fc1	-0.1644888
82	0xbd1c9870	-0.038231313
83	0xbd4b1608	-0.049581558
84	0x3c4a13bb	0.012333806
85	0xbe3991ce	-0.18122026
86	0xbe8db6ce	-0.2767853
87	0xbd0023ed	-0.03128426
88	0xbd29b72c	-0.041434452
89	0xbe6e185c	-0.2325148
90	0x3d352873	0.04422803
91	0xbe943902	-0.28949744
92	0xbe50c4e8	-0.20387614
93	0xbdae250a	-0.085031584
94	0xbbbfcb75	-0.0058531114
95	0xbe643e69	-0.22289433
96	0xbca086d8	-0.019595549
97	0xbde54af8	-0.1119594
98	0xbe97a187	-0.29615423
99	0x3c0d5d78	0.008628242
100	0xbc03411b	-0.008011128
101	0xbd457b96	-0.048213564
102	0x39bdfcc3	0.0003623721
103	0x3c34a38e	0.011025323
104	0xbef6131a	-0.48061448
105	0x3c6859f9	0.014181607
106	0xbe5a458f	-0.21315597
107	0xbb03827f	-0.0020066795
108	0x3d0cb2ae	0.03435009
109	0xb9cfa57b	-0.0003960541
110	0x3e30a228	0.17249358
111	0x3d7cc525	0.06171145
112	0x3e406d6b	0.1879174
113	0x3dccef8c	0.100066274
114	0x3c24365a	0.010022724
115	0x3e939037	0.28820965
116	0x3db8b815	0.09019486
117	0x3dc962ab	0.098332725
118	0x39c503ec	0.0003757769
119	0x3d654912	0.05597789
120	0x3c9eff59	0.019408869
121	0x3e2e2fad	0.17010374
122	0x3e889007	0.26672384
123	0xba4a1930	-0.00077094417
124	0x3ca86451	0.020555647
125	0x3df1ddc0	0.118098736
126	0x3e12f1be	0.1435003
127	0x3e5f831b	0.21827357
128	0x3e5c40e1	0.21509124
129	0x3d8fb651	0.07017196
130	0x3b874cb0	0.004129015
131	0x3eb231ba	0.34803563
132	0x3e257cad	0.16160841
133	0x3e75a30d	0.2398798
134	0x3eb5a5ae	0.35477966
135	0x3c54756b	0.012967448
136	0x3a712532	0.0009198963
137	0x3db2bbae	0.08727203
138	0x3c0b53b2	0.008503841
139	0x3c26184f	0.010137632
140	0x3f39bf7a	0.72557795
141	0x3bfecd03	0.007775904
142	0x3e31bc80	0.17357063
143	0x3db92fb7	0.09042304
144	0x3d7636e0	0.060110927
145	0xba356514	-0.0006919664
146	0xbe8ef144	-0.27918446
147	0xbecdaeda	-0.40172464
148	0xbeb4a31e	-0.352807
149	0xbe988467	-0.29788515
150	0xbe30900d	-0.17242451
151	0xbee90342	-0.45510298
152	0xbe81aad0	-0.25325632
153	0xbd5f2d64	-0.054486647
154	0x3c9bc0b8	0.019012794
155	0xbeffbc8c	-0.49948537
156	0xbd369a6b	-0.04458086
157	0xbf5724e0	-0.8404064
158	0xbebaf043	-0.3651143
159	0xbc8cf909	-0.017208593
160	0xbedf0e32	-0.43565518
161	0xbef25e21	-0.4733744
162	0xbfbfc4b2	-1.4981902
163	0xbe65ea71	-0.22452714
164	0xbee625e8	-0.44950795
165	0xbeb4940a	-0.35269195
166	0xbec5225e	-0.38502783
167	0xbf9b19ae	-1.2117212
168	0xbeb7b5f8	-0.3588102
169	0xbf318211	-0.6933909
170	0xbf570ce2	-0.8400403
171	0xbf362ce7	-0.71162266
172	0xbf1d9ab7	-0.615642
173	0xbecd103c	-0.40051448
174	0xbf49ce0e	-0.7883004
175	0xbf66d903	-0.90174884
176	0xbfde187e	-1.7351224
177	0xbf55dab8	-0.83536863
178	0xbe0ed6e4	-0.13949162
179	0xbec396b5	-0.38200918
180	0x3d176288	0.0369592
181	0xbc8fe0e2	-0.017563287
182	0x3e0ff9b2	0.14060095
183	0x3df64e3a	0.12026639
184	0x3e1f4971	0.1555536
185	0xbc86bf4f	-0.016448645
186	0xbd39d3cc	-0.045368
187	0x3e3585c3	0.17726807
188	0x3d994493	0.074837826
189	0xb9511511	-0.00019939641
190	0x3d6eb945	0.058282156
191	0x3d5c1a09	0.053735767
192	0xbf0c8cba	-0.5490223
193	0x3ec46245	0.38356224
194	0x3efb481c	0.49078453
195	0xbbc81693	-0.0061062067
196	0x3e8437bf	0.2582378
197	0x3d32beef	0.04363912
198	0xbe2b5abf	-0.16733836
199	0x3e2bb93b	0.16769879
200	0x3e8acdbd	0.2711009
201	0x3de0cfa5	0.10977105
202	0x3d984440	0.07434893
203	0x3eb12fd8	0.34606814
204	0x3e1ed091	0.1550925
205	0xbe2bd929	-0.16782059
206	0x3ee82cb2	0.453466
207	0xbe069cd1	-0.13145758
208	0x3e49925b	0.19684736
209	0x3e9c061d	0.30473414
210	0x3e35cf63	0.17754893
211	0xbdd31a4b	-0.10307749
212	0x3df900db	0.12158366
213	0xbe2485d8	-0.16066682
214	0xbd0c388d	-0.03423362
215	0x3dc011cb	0.09378394

exp_avg_sq f4 [6, 36]
0	0x401444e0	2.3167038
1	0x3e060914	0.130894
2	0x3eb4c3e7	0.35305712
3	0x3fed822e	1.8555353
4	0x3f1fe2cc	0.6245544
5	0x3f49b5ae	0.78792846
6	0x4117cb47	9.487128
7	0x3f1136b0	0.5672407
8	0x3fd0a2da	1.6299698
9	0x3fac9beb	1.3485082
10	0x40233c6f	2.5505636
11	0x3f9d34e8	1.2281771
12	0x410da0f6	8.851797
13	0x4002d0cd	2.0439942
14	0x3f89b3c9	1.0757991
15	0x3fd85a5b	1.6902574
16	0x4006d9fe	2.1070552
17	0x3fbf89f2	1.4963973
18	0x41faaf46	31.335583
19	0x3e9aa84d	0.30206528
20	0x403e9a39	2.978163
21	0x3f478ff4	0.7795403
22	0x403e66b8	2.9750195
23	0x40f0aecf	7.521339
24	0x3fdc2c2b	1.7200979
25	0x40e73d7a	7.2262545
26	0x3faaad3c	1.3334117
27	0x40af5aef	5.4798503
28	0x402a250a	2.6585107
29	0x404981a3	3.1485374
30	0x404086fd	3.008239
31	0x40a17881	5.04596
32	0x4111318a	9.0745945
33	0x415f92c8	13.973335
34	0x3f6a582e	0.915408
35	0x400573f3	2.085202
36	0x3fe07970	1.753706
37	0x3ce35905	0.027752409
38	0x3f8c4708	1.0959177
39	0x3fb01fae	1.3759668
40	0x3f88926f	1.0669688
41	0x3f5c9db2	0.86178124
42	0x400192de	2.024589
43	0x3f102d99	0.56319577
44	0x3f9883f4	1.1915269
45	0x3fc9d6ae	1.576864
46	0x3fdc2b95	1.72008
47	0x3f2ff179	0.68727833
48	0x404153d9	3.0207427
49	0x401ea092	2.4785504
50	0x3e326473	0.17421131
51	0x3f6dfe8b	0.92966527
52	0x3f9de986	1.2336891
53	0x3f2f8764	0.68565965
54	0x411cf3f0	9.809555
55	0x3e9b6cfa	0.3035658
56	0x4051b1f6	3.2764869
57	0x3fe370db	1.7768816
58	0x3f2b9089	0.6701742
59	0x4076bc70	3.8552513
60	0x3edd8f5e	0.43273443
61	0x405c0935	3.438062
62	0x3f611f3f	0.879383
63	0x3f247184	0.6423571
64	0x3f093c7f	0.53607935
65	0x400bce06	2.1844497
66	0x3e0f4483	0.13990979
67	0x3ed5e96c	0.4177965
68	0x4097aece	4.7400885
69	0x403c7bc6	2.9450545
70	0x3fd64a60	1.6741447
71	0x3ee81118	0.45325541
72	0x3e0575a8	0.13033164
73	0x3912ef63	0.00014012824
74	0x40831d89	4.0973554
75	0x3df9e1e2	0.12201287
76	0x40ae62b0	5.449547
77	0x3f48356e	0.7820653
78	0x3ce551fc	0.027993195
79	0x403f4e22	2.9891438
80	0x406a0871	3.6567652
81	0x3fb29c17	1.3953885
82	0x3d115dd7	0.035489883
83	0x3debfedc	0.1152322
84	0x3db19377	0.08670705
85	0x40a20910	5.0636063
86	0x4008c730	2.1371574
87	0x3d41794c	0.04723482
88	0x3ebc438c	0.36770284
89	0x3f810a36	1.0081241
90	0x3f3bfa91	0.7342921
91	0x40636502	3.55304
92	0x40fb2007	7.8476596
93	0x402bd15c	2.6846533
94	0x3ce57797	0.028011126
95	0x40310698	2.7660275
96	0x3da20ab7	0.079122
97	0x40089b41	2.134476
98	0x409e4f42	4.947175
99	0x3b4fac1a	0.0031688274
100	0x3c07986f	0.008276089
101	0x3f895980	1.0730438
102	0x3a6d837d	0.0009060426
103	0x3b3634ca	0.002780246
104	0x415e1186	13.879278
105	0x3d09bc5c	0.0336269
106	0x404bfee4	3.1874323
107	0x3ac3f58d	0.0014950499
108	0x3d984528	0.074350655
109	0x365de1c4	3.306298e-06
110	0x3f4edb4f	0.8080339
111	0x3de19bba	0.110160306
112	0x3fe3d71e	1.7800024
113	0x3f2b3861	0.668829
114	0x3ad04743	0.0015890378
115	0x4000e9cd	2.01427
116	0x3f91f71c	1.1403537
117	0x3f016f19	0.50560147
118	0x3b114f32	0.0022172448
119	0x3d3c8c60	0.04603231
120	0x3cdfe775	0.027332047
121	0x3f8bcd03	1.092194
122	0x4050f83d	3.2651513
123	0x3d14a5b3	0.036290836
124	0x3c6fcb81	0.014635921
125	0x3fa417d7	1.2819775
126	0x3e3a1c16	0.18174776
127	0x40031b11	2.048527
128	0x400e2037	2.2207162
129	0x3e8a0ffd	0.26965323
130	0x3c6dd10d	0.014515174
131	0x40792ffe	3.8935542
132	0x406b0f53	3.6728103
133	0x3fdefd8d	1.7421128
134	0x40959f97	4.675731
135	0x3b4fb2b9	0.003169222
136	0x3aeb6885	0.0017960226
137	0x3f4b9e35	0.7953828
138	0x3b26aa91	0.0025431255
139	0x3b6a3608	0.0035737772
140	0x4170c7ca	15.048777
141	0x3a3e1892	0.0007251586
142	0x3f738aef	0.9513387
143	0x3e0cef03	0.1376305
144	0x3f3a2fc5	0.7272914
145	0x391e96cc	0.0001512423
146	0x3f8f2df2	1.1185896
147	0x3fb82884	1.4387364
148	0x401aa10e	2.41608
149	0x3fcbca2b	1.5921072
150	0x3ff97d25	1.9491316
151	0x40286885	2.6313794
152	0x3fa3a5a9	1.278493
153	0x3f05ed3b	0.5231511
154	0x3da91bda	0.082572654
155	0x4020df93	2.513646
156	0x3f6a55bd	0.91537076
157	0x40a8af95	5.2714334
158	0x40c5aa29	6.1770215
159	0x3e2da917	0.16959034
160	0x3ff8fef9	1.9452811
161	0x403135a3	2.7688987
162	0x41b0e92f	22.11386
163	0x3fe23b1a	1.7674286
164	0x40082c08	2.1276875
165	0x3fde2883	1.7356113
166	0x40178ccd	2.3679688
167	0x41938e5a	18.444508
168	0x40ff18ff	7.9718013
169	0x40ef284e	7.47367
170	0x41162c9d	9.385892
171	0x40c8d51c	6.2760143
172	0x402cdb00	2.7008667
173	0x405f404c	3.4882994
174	0x40d412e5	6.6273065
175	0x4109841d	8.594754
176	0x42164372	37.565865
177	0x410a534e	8.645338
178	0x3f20773b	0.6268193
179	0x40e61119	7.189587
180	0x4092ab90	4.5834427
181	0x3d7a5d18	0.061123937
182	0x406f1f21	3.736275
183	0x407deccf	3.9675786
184	0x40b460ff	5.6368403
185	0x4066ac2f	3.6042593
186	0x416f2e8d	14.948865
187	0x40a7526e	5.228812
188	0x40dfd641	6.994904
189	0x406adf80	3.6698914
190	0x404c121a	3.1886048
191	0x3feeedeb	1.8666357
192	0x415a95a3	13.661532
193	0x4142dc11	12.178727
194	0x40d02488	6.5044594
195	0x3fee5d11	1.8622152
196	0x40a842ac	5.2581387
197	0x4081447e	4.039611
198	0x428a0f40	69.029785
199	0x404b224d	3.1739686
200	0x415ec857	13.923911
201	0x40adca39	5.4309354
202	0x40a971f8	5.295162
203	0x41eda7c8	29.706924
204	0x40d8d188	6.7755775
205	0x41bc5158	23.539719
206	0x413880a3	11.531405
207	0x4143d66e	12.239851
208	0x40b5e495	5.684153
209	0x411bb2ef	9.731185
210	0x41064113	8.390887
211	0x41444322	12.26639
212	0x4255bf73	53.436962
213	0x41c3e171	24.485079
214	0x408e6268	4.4495125
215	0x40bc0a89	5.876286
