experiments/ecg/models/10-06_14-07-40_Adam(0.05),NLL,LinearLR,no_gc,RSNN(4,36,6,sub_seq_10,bs_64,ep_400,h_o_bias(False)),ALIF(tau_m(20.0,0.5),tau_a(7.0,0.2),linearMask_0.0)LI(tau_m(20.0,0.5)).pt (torch, 39709 bytes, 16 tensors)

hidden.tau_mem f4 [36]
000000 41 a9 96 41 c4 40 a4 41 aa 20 92 41 03 06 a0 41
       18.832644 20.531624 18.26595 20.002935
000010 54 58 94 41 5b b1 9b 41 0b 82 99 41 fd 3c a1 41
       18.543129 19.4616 19.188498 20.15478
000020 e7 11 93 41 6c 17 9f 41 b9 f4 a2 41 fa e1 a2 41
       18.383741 19.886436 20.369493 20.36034
000030 d1 5a 95 41 bb 57 a2 41 f6 93 9d 41 dc 7a 9d 41
       18.669344 20.292837 19.697247 19.68499
000040 97 b5 9c 41 b8 48 97 41 27 42 9d 41 63 fa 92 41
       19.588667 18.910507 19.6573 18.37226
000050 50 7a 9a 41 ef bd 9c 41 b9 91 9d 41 73 ae 98 41
       19.309723 19.592741 19.696154 19.08518
000060 29 3f 9a 41 2f 33 a5 41 91 63 99 41 e2 eb 98 41
       19.28084 20.649992 19.173616 19.115177
000070 85 8c a0 41 63 9d 9c 41 7c 93 97 41 48 ed a0 41
       20.068613 19.576849 18.947014 20.11586
000080 e7 63 97 41 23 17 9e 41 7a 3a 9a 41 5b 4f a0 41
       18.92378 19.761297 19.278553 20.038748

hidden.tau_adp f4 [36]
000000 3a 81 01 41 68 e7 ce 40 5e 79 bb 40 bc 57 d0 40
       8.094049 6.465748 5.8585653 6.51071
000010 ba a1 cd 40 29 87 dd 40 7d 9f e5 40 f4 a4 f3 40
       6.425992 6.922749 7.175719 7.613886
000020 51 f6 91 40 23 2e ef 40 0a d3 ed 40 0a 72 db 40
       4.561318 7.474382 7.4320116 6.857671
000030 06 d5 d0 40 82 a9 b0 40 4a 7f f4 40 70 c5 f9 40
       6.526004 5.520692 7.640538 7.8053513
000040 b9 48 ef 40 66 6d e9 40 4d 8b d0 40 e9 b1 eb 40
       7.4776273 7.2946043 6.5170045 7.3654675
000050 32 81 ff 40 0e b6 ef 40 9b 37 e3 40 72 35 ef 40
       7.984521 7.4909735 7.100538 7.475274
000060 fe c4 f8 40 2f 81 e8 40 d0 a9 dd 40 86 a5 f2 40
       7.774047 7.2657695 6.926979 7.5827055
000070 cb c6 d7 40 66 33 ee 40 ed eb ca 40 c5 cf c3 40
       6.7430167 7.443774 6.3412995 6.1191125
000080 f6 d3 b5 40 a4 e2 d4 40 fb e5 ec 40 e5 bc c3 40
       5.682124 6.652666 7.403074 6.1168084

hidden.linear.weight f4 [36, 40]
000000 6b df 85 bf 03 39 ac bf 8c 3d b3 bf 4f 78 85 bf
       -1.0458807 -1.3454899 -1.4003158 -1.042734
000010 d0 62 da bd 90 d8 55 3f 1f 17 b0 be 95 6d 37 3f
       -0.10663378 0.83533573 -0.3439264 0.71651584
000020 c3 94 f9 bd 06 cb 30 be 5e 1d 45 be d6 e4 66 3e
       -0.12186577 -0.17264947 -0.19249484 0.22548231
000030 6b 66 e5 3e 88 91 93 be 69 3d 50 bd c2 68 34 be
       0.448047 -0.2882197 -0.050839815 -0.17618087
000040 fc 4e f9 bd 0e 0f 26 3f 14 f4 aa be eb c2 f5 bd
       -0.12173268 0.6486672 -0.33389342 -0.12000068
000050 00 18 75 be 91 a9 0c be ff c7 d0 3f 26 08 7b bf
       -0.23934937 -0.1373656 1.6311034 -0.9805931
000060 46 78 a7 be 85 cb 14 bf eb 92 00 3e fe 3e 97 be
       -0.3270895 -0.58123046 0.12556045 -0.29540247
000070 90 24 82 be 8d 22 c5 be 71 48 b8 be b7 a2 66 bc
       -0.2541852 -0.38502923 -0.35992768 -0.01407688
000080 9e 69 89 be 1b c6 ce 3d 2b 07 88 be ce 38 71 3f
       -0.26838392 0.10096379 -0.2656797 0.942273
000090 89 d5 07 bd 7f 2e d1 bd be 17 19 be e1 b6 24 3d
       -0.033162627 -0.102139466 -0.14950463 0.04021347
0000a0 ba 1b 27 3d e9 87 c7 3d 4d 6c c5 3e a2 11 aa 3d
       0.040797926 0.0974272 0.3855919 0.083041444
0000b0 e3 5e e9 3b 18 e2 82 3e b3 e0 1a 3f 9e fb 1c 3f
       0.007121907 0.2556312 0.60499114 0.6132144
0000c0 fd 1c 21 bf ba 37 9c be 45 ba f9 bd 70 20 6b be
       -0.6293486 -0.30511266 -0.12193731 -0.22961593
0000d0 cc 1a 92 3e 68 de 3b bf 83 b8 5f bf 42 79 85 bf
       0.2853607 -0.7338624 -0.8739092 -1.042763
0000e0 a1 cb 94 3e 2e 93 a1 3f aa ed 8b 3e 49 c3 19 bf
       0.29061607 1.2623041 0.2732976 -0.60063607
0000f0 24 56 e7 be 9b fe 00 bf 9d 9d 81 3f bf 08 d6 3e
       -0.45182908 -0.503885 1.0126225 0.41803548
000100 88 03 6e be c2 b1 15 bf 4a d8 49 3e c8 f4 2b bf
       -0.23243535 -0.5847436 0.19711414 -0.6717038
000110 4a c8 35 bf 88 56 85 be e3 39 42 bf 27 d9 f0 be
       -0.7100874 -0.2604258 -0.7586958 -0.47040674
000120 88 5c 1b bf 7b bf 3b bf 18 ab 7b 3f b6 a0 21 3f
       -0.60688066 -0.7333905 0.98307943 0.6313585
000130 c6 0c 20 3f 53 4a 82 bf 90 b7 b8 be f0 3c 0d 3f
       0.6251949 -1.0178932 -0.36077547 0.5517111
000140 39 2c e4 3f ef 0e ae 3f 73 b0 e4 3f cf 1b c2 3f
       1.7825996 1.3598307 1.7866348 1.5164737
000150 c8 3b 06 3f a0 f7 3e be a3 11 df 3e c4 30 4b bf
       0.5243497 -0.18649149 0.43568143 -0.79371285
000160 c6 31 42 be c5 05 02 3f 55 74 95 3e 22 cb be ba
       -0.189643 0.50790054 0.29190317 -0.0014556388
000170 34 d7 be be 7f 9d b0 3e bf 10 bb 3d ed be 12 3e
       -0.37273562 0.3449516 0.091340534 0.14330645
000180 d6 08 a2 3e 90 41 f3 3e 7c de 88 3e 34 8d 8c 3e
       0.31647366 0.47510958 0.26732242 0.2745148
000190 54 f8 f8 3e c3 0b 0b 3f 36 0a 9c be 4b e8 1e 3f
       0.4862696 0.5431482 -0.3047654 0.620732
0001a0 48 62 ba 3e 86 2d b2 3e e5 34 33 3f 9b 9f 13 3d
       0.36403108 0.34800357 0.70002586 0.036040884
0001b0 cc b9 60 3e 57 1e 7b 3e b2 8f bc 3d ad af 33 3d
       0.21945876 0.24523292 0.09207095 0.04386871
0001c0 6b a5 92 3e 5f 0b 9a be db b5 3a 3e d2 7b db be
       0.2864183 -0.300868 0.18233435 -0.42867905
0001d0 ca 70 6c 3f 1f 6b 4b 3d 30 9f b5 3e 52 a3 2e 3f
       0.923596 0.049662706 0.35473013 0.6821796
0001e0 d8 16 d1 3e 98 9f ff 3e 10 5c 9c 3e 2b fb 2f 3e
       0.4083774 0.49926448 0.30538988 0.17185657
0001f0 54 30 81 be af 8e 8d 3d 3b b3 0f 3f 04 c3 d9 3e
       -0.25232184 0.0691198 0.5613286 0.42531598
000200 18 fc 13 bf 09 b9 fc 3c 26 d5 80 be d6 ac c6 be
       -0.5780654 0.03084995 -0.2516262 -0.38803738
000210 15 90 b4 3e 80 d1 f8 be ae 2d f2 be 42 7a 14 bf
       0.35266176 -0.48597336 -0.47300476 -0.5799905
000220 92 90 2c 3f d0 38 7f 3f 74 c4 12 be 0d 2b 46 bf
       0.67408097 0.99696064 -0.14332753 -0.7740944
000230 21 52 78 be 82 0e 20 be d6 1b 63 3f ca a3 9f 3e
       -0.2425008 -0.15630534 0.8871435 0.3117965
000240 6b aa a8 3d 9d 3b 1e bf 4c 7f 97 3e 83 06 e2 be
       0.0823563 -0.6180971 0.29589307 -0.44145593
000250 2f ce 32 bf df 94 11 bf bf 8d 0c bf 26 6c a2 be
       -0.6984586 -0.56867784 -0.5490379 -0.31723136
000260 95 be 00 bf e0 e0 b6 be 29 3d 03 3f 96 4a 2f 3f
       -0.50290805 -0.3571844 0.512652 0.68473184
000270 9c 71 94 3f 99 c1 44 bf 2c df 3b 3d 45 d8 f4 3e
       1.1597171 -0.76857907 0.04586713 0.4782125
000280 17 29 e6 bf 5d 58 a3 bf 9d c3 e1 bf c8 c7 91 bf
       -1.798129 -1.2761341 -1.7637821 -1.1389093
000290 e8 87 fc 3c fb a0 6b 3f 8c fb 81 bf 9f 85 04 3f
       0.030826524 0.9204251 -1.0154891 0.5176639
0002a0 f3 78 0d 3f 61 58 a2 3d 27 90 e0 be 01 90 2e bf
       0.5526268 0.07927013 -0.4385998 -0.6818848
0002b0 5d 60 0d 3f 1c 21 f5 3d b4 2d 70 be cf 7e ba 3e
       0.55225164 0.11969206 -0.23454934 0.36424872
0002c0 8c 37 4c 3e ca b4 e9 3e 04 8e 22 be 28 fa 06 be
       0.19943064 0.45645744 -0.15874487 -0.13181365
0002d0 ca e4 82 be 44 51 4e be 02 8b 44 3f de cb a4 bf
       -0.25565177 -0.20148188 0.7677461 -1.2874715
0002e0 f6 f1 31 be 0f f8 8e 3e f9 30 93 bd e0 c6 64 3c
       -0.17377457 0.2792363 -0.07187075 0.013963431
0002f0 85 55 4f be 58 a0 bb 3d f9 14 90 3e b3 ae ed bd
       -0.20247467 0.091614425 0.28141 -0.11605587
000300 af ec 12 be dd 36 c8 3e 6d ca 89 be 25 e4 8f 3e
       -0.143481 0.39104357 -0.2691225 0.28103748
000310 69 c9 a9 be f0 a2 bb 3e 6c 9d df bc 14 b7 1c bd
       -0.33161476 0.3664775 -0.027296744 -0.038260534
000320 97 94 91 bf b8 9b a2 bf 17 fe 34 bf db 85 92 bf
       -1.1373471 -1.2703772 -0.7070021 -1.14471
000330 66 a0 6f be dc 53 98 3e 0f 2d 2d be eb 97 5b 3f
       -0.23401031 0.2975148 -0.1691172 0.85778683
000340 db 06 00 bf 39 8e 66 3c 2d 07 9b 3e 7e cc 74 3e
       -0.5001046 0.014071994 0.30278912 0.23906133
000350 f9 37 1c bf 98 f5 43 bf 08 16 33 bf b2 7a 52 bf
       -0.6102291 -0.7654662 -0.6995549 -0.8221847
000360 bd 53 d5 bd 2c b8 2a 3f 6e 55 76 be 34 57 b6 be
       -0.104163624 0.66687274 -0.24056026 -0.35613406
000370 21 89 99 be b0 db 91 be c7 66 51 3f 07 75 5a be
       -0.29987434 -0.2848792 0.8179745 -0.21333705
000380 2c 86 9b bd dc f3 12 bf 48 a9 1d be 4e e5 35 bf
       -0.07593951 -0.5740335 -0.15396607 -0.71053016
000390 35 09 4f be 7d 75 dc be 6b cd 9d bf bf db 1a bf
       -0.20218356 -0.43058386 -1.2328314 -0.60491556
0003a0 36 9b ba bf be ad f1 be 94 78 5e be 5a 45 43 3f
       -1.4578617 -0.47202867 -0.21725684 0.762777
0003b0 f2 59 8e 3e 75 1d 9d bf 65 a3 c1 be ba 83 0d 3e
       0.27802998 -1.2274615 -0.37819973 0.13819781
0003c0 fb 83 6e bf e9 93 a7 bf 8c f6 82 bf 5e cf 64 bf
       -0.93170136 -1.3092014 -1.023149 -0.8937892
0003d0 c1 84 85 be a4 3a 7c 3f bc 85 fe bd 21 22 f9 3e
       -0.26077846 0.9852698 -0.124278516 0.4865885
0003e0 6a 26 22 bf 7d 08 d0 3d 48 21 fc 3c 88 c2 ac 3d
       -0.63339865 0.10157869 0.030777588 0.084355414
0003f0 93 bd 0c 40 9f 5c d0 be fe 16 d5 be 16 8b a9 be
       2.1990707 -0.40695664 -0.41619104 -0.33113927

hidden.linear.mask f4 [36, 40]
000000 00 00 80 3f 00 00 80 3f 00 00 80 3f 00 00 80 3f
       1.0 1.0 1.0 1.0
000010 00 00 80 3f 00 00 80 3f 00 00 80 3f 00 00 80 3f
       1.0 1.0 1.0 1.0
000020 00 00 80 3f 00 00 80 3f 00 00 80 3f 00 00 80 3f
       1.0 1.0 1.0 1.0
000030 00 00 80 3f 00 00 80 3f 00 00 80 3f 00 00 80 3f
       1.0 1.0 1.0 1.0
000040 00 00 80 3f 00 00 80 3f 00 00 80 3f 00 00 80 3f
       1.0 1.0 1.0 1.0
000050 00 00 80 3f 00 00 80 3f 00 00 80 3f 00 00 80 3f
       1.0 1.0 1.0 1.0
000060 00 00 80 3f 00 00 80 3f 00 00 80 3f 00 00 80 3f
       1.0 1.0 1.0 1.0
000070 00 00 80 3f 00 00 80 3f 00 00 80 3f 00 00 80 3f
       1.0 1.0 1.0 1.0
000080 00 00 80 3f 00 00 80 3f 00 00 80 3f 00 00 80 3f
       1.0 1.0 1.0 1.0
000090 00 00 80 3f 00 00 80 3f 00 00 80 3f 00 00 80 3f
       1.0 1.0 1.0 1.0
0000a0 00 00 80 3f 00 00 80 3f 00 00 80 3f 00 00 80 3f
       1.0 1.0 1.0 1.0
0000b0 00 00 80 3f 00 00 80 3f 00 00 80 3f 00 00 80 3f
       1.0 1.0 1.0 1.0
0000c0 00 00 80 3f 00 00 80 3f 00 00 80 3f 00 00 80 3f
       1.0 1.0 1.0 1.0
0000d0 00 00 80 3f 00 00 80 3f 00 00 80 3f 00 00 80 3f
       1.0 1.0 1.0 1.0
0000e0 00 00 80 3f 00 00 80 3f 00 00 80 3f 00 00 80 3f
       1.0 1.0 1.0 1.0
0000f0 00 00 80 3f 00 00 80 3f 00 00 80 3f 00 00 80 3f
       1.0 1.0 1.0 1.0
000100 00 00 80 3f 00 00 80 3f 00 00 80 3f 00 00 80 3f
       1.0 1.0 1.0 1.0
000110 00 00 80 3f 00 00 80 3f 00 00 80 3f 00 00 80 3f
       1.0 1.0 1.0 1.0
000120 00 00 80 3f 00 00 80 3f 00 00 80 3f 00 00 80 3f
       1.0 1.0 1.0 1.0
000130 00 00 80 3f 00 00 80 3f 00 00 80 3f 00 00 80 3f
       1.0 1.0 1.0 1.0
000140 00 00 80 3f 00 00 80 3f 00 00 80 3f 00 00 80 3f
       1.0 1.0 1.0 1.0
000150 00 00 80 3f 00 00 80 3f 00 00 80 3f 00 00 80 3f
       1.0 1.0 1.0 1.0
000160 00 00 80 3f 00 00 80 3f 00 00 80 3f 00 00 80 3f
       1.0 1.0 1.0 1.0
000170 00 00 80 3f 00 00 80 3f 00 00 80 3f 00 00 80 3f
       1.0 1.0 1.0 1.0
000180 00 00 80 3f 00 00 80 3f 00 00 80 3f 00 00 80 3f
       1.0 1.0 1.0 1.0
000190 00 00 80 3f 00 00 80 3f 00 00 80 3f 00 00 80 3f
       1.0 1.0 1.0 1.0
0001a0 00 00 80 3f 00 00 80 3f 00 00 80 3f 00 00 80 3f
       1.0 1.0 1.0 1.0
0001b0 00 00 80 3f 00 00 80 3f 00 00 80 3f 00 00 80 3f
       1.0 1.0 1.0 1.0
0001c0 00 00 80 3f 00 00 80 3f 00 00 80 3f 00 00 80 3f
       1.0 1.0 1.0 1.0
0001d0 00 00 80 3f 00 00 80 3f 00 00 80 3f 00 00 80 3f
       1.0 1.0 1.0 1.0
0001e0 00 00 80 3f 00 00 80 3f 00 00 80 3f 00 00 80 3f
       1.0 1.0 1.0 1.0
0001f0 00 00 80 3f 00 00 80 3f 00 00 80 3f 00 00 80 3f
       1.0 1.0 1.0 1.0
000200 00 00 80 3f 00 00 80 3f 00 00 80 3f 00 00 80 3f
       1.0 1.0 1.0 1.0
000210 00 00 80 3f 00 00 80 3f 00 00 80 3f 00 00 80 3f
       1.0 1.0 1.0 1.0
000220 00 00 80 3f 00 00 80 3f 00 00 80 3f 00 00 80 3f
       1.0 1.0 1.0 1.0
000230 00 00 80 3f 00 00 80 3f 00 00 80 3f 00 00 80 3f
       1.0 1.0 1.0 1.0
000240 00 00 80 3f 00 00 80 3f 00 00 80 3f 00 00 80 3f
       1.0 1.0 1.0 1.0
000250 00 00 80 3f 00 00 80 3f 00 00 80 3f 00 00 80 3f
       1.0 1.0 1.0 1.0
000260 00 00 80 3f 00 00 80 3f 00 00 80 3f 00 00 80 3f
       1.0 1.0 1.0 1.0
000270 00 00 80 3f 00 00 80 3f 00 00 80 3f 00 00 80 3f
       1.0 1.0 1.0 1.0
000280 00 00 80 3f 00 00 80 3f 00 00 80 3f 00 00 80 3f
       1.0 1.0 1.0 1.0
000290 00 00 80 3f 00 00 80 3f 00 00 80 3f 00 00 80 3f
       1.0 1.0 1.0 1.0
0002a0 00 00 80 3f 00 00 80 3f 00 00 80 3f 00 00 80 3f
       1.0 1.0 1.0 1.0
0002b0 00 00 80 3f 00 00 80 3f 00 00 80 3f 00 00 80 3f
       1.0 1.0 1.0 1.0
0002c0 00 00 80 3f 00 00 80 3f 00 00 80 3f 00 00 80 3f
       1.0 1.0 1.0 1.0
0002d0 00 00 80 3f 00 00 80 3f 00 00 80 3f 00 00 80 3f
       1.0 1.0 1.0 1.0
0002e0 00 00 80 3f 00 00 80 3f 00 00 80 3f 00 00 80 3f
       1.0 1.0 1.0 1.0
0002f0 00 00 80 3f 00 00 80 3f 00 00 80 3f 00 00 80 3f
       1.0 1.0 1.0 1.0
000300 00 00 80 3f 00 00 80 3f 00 00 80 3f 00 00 80 3f
       1.0 1.0 1.0 1.0
000310 00 00 80 3f 00 00 80 3f 00 00 80 3f 00 00 80 3f
       1.0 1.0 1.0 1.0
000320 00 00 80 3f 00 00 80 3f 00 00 80 3f 00 00 80 3f
       1.0 1.0 1.0 1.0
000330 00 00 80 3f 00 00 80 3f 00 00 80 3f 00 00 80 3f
       1.0 1.0 1.0 1.0
000340 00 00 80 3f 00 00 80 3f 00 00 80 3f 00 00 80 3f
       1.0 1.0 1.0 1.0
000350 00 00 80 3f 00 00 80 3f 00 00 80 3f 00 00 80 3f
       1.0 1.0 1.0 1.0
000360 00 00 80 3f 00 00 80 3f 00 00 80 3f 00 00 80 3f
       1.0 1.0 1.0 1.0
000370 00 00 80 3f 00 00 80 3f 00 00 80 3f 00 00 80 3f
       1.0 1.0 1.0 1.0
000380 00 00 80 3f 00 00 80 3f 00 00 80 3f 00 00 80 3f
       1.0 1.0 1.0 1.0
000390 00 00 80 3f 00 00 80 3f 00 00 80 3f 00 00 80 3f
       1.0 1.0 1.0 1.0
0003a0 00 00 80 3f 00 00 80 3f 00 00 80 3f 00 00 80 3f
       1.0 1.0 1.0 1.0
0003b0 00 00 80 3f 00 00 80 3f 00 00 80 3f 00 00 80 3f
       1.0 1.0 1.0 1.0
0003c0 00 00 80 3f 00 00 80 3f 00 00 80 3f 00 00 80 3f
       1.0 1.0 1.0 1.0
0003d0 00 00 80 3f 00 00 80 3f 00 00 80 3f 00 00 80 3f
       1.0 1.0 1.0 1.0
0003e0 00 00 80 3f 00 00 80 3f 00 00 80 3f 00 00 80 3f
       1.0 1.0 1.0 1.0
0003f0 00 00 80 3f 00 00 80 3f 00 00 80 3f 00 00 80 3f
       1.0 1.0 1.0 1.0

out.tau_mem f4 [6]
000000 ba 92 2c 42 56 4f d5 40 93 01 28 41 23 57 a2 41
       43.143288 6.6659346 10.500384 20.292547
000010 30 6f d7 41 5f 50 5e 41
       26.92929 13.894622

out.linear.weight f4 [6, 36]
000000 5c e4 23 40 f5 c1 0a 3d 12 e0 5d be 4d 38 a8 bf
       2.560813 0.033876378 -0.21667507 -1.3142182
000010 47 0a aa 40 6a 35 85 c0 75 13 60 bd 45 40 cf bf
       5.3137546 -4.1627703 -0.054706056 -1.6191489
000020 c7 92 24 c0 12 da 97 40 d7 7e 0c 41 6e 49 29 41
       -2.5714586 4.74537 8.780967 10.580427
000030 6f a6 bf bf ec ae 06 c0 8e a1 aa 3f c1 fe 47 40
       -1.4972667 -2.1044264 1.3330553 3.124924
000040 90 6c 57 40 3b 30 7b c0 39 f7 a6 3d 90 33 09 3f
       3.3660011 -3.9248188 0.08152623 0.53594303
000050 cf 0e 0a c1 a1 1e 43 3f e3 28 9e 3f 7b 08 05 40
       -8.628615 0.7621861 1.2356228 2.0786426
000060 0c 86 14 3f 46 74 d8 40 17 67 2c 40 e6 95 1d 40
       0.5801704 6.7641935 2.693792 2.462274
000070 84 fb 5c 40 13 0e 58 3f 20 05 ae bf a7 41 60 bf
       3.4528513 0.84396476 -1.3595314 -0.8760018
000080 11 81 15 c0 ab 66 bb 3f 89 3d 2d 40 d9 2a d5 bf
       -2.3360026 1.4640707 2.7068808 -1.6653701
000090 75 a4 15 c0 3a df da be a7 a8 1c 40 12 42 18 3e
       -2.3381627 -0.42748433 2.4477937 0.14868954
0000a0 07 69 21 3f a3 3e fe c0 ff 6c c2 c0 79 36 5f c0
       0.63050884 -7.945146 -6.075805 -3.4876997
0000b0 ff 33 da bf 6c af 19 c0 0f 8d 32 c0 7e 9a 7a c0
       -1.7047118 -2.401332 -2.7898595 -3.9156795
0000c0 6c cd 21 40 a7 1e 1b c0 e6 c6 cd c0 6b 7b fc 3f
       2.528163 -2.4237459 -6.4305296 1.9725164
0000d0 c8 83 03 c0 e7 ec 74 c0 94 de 9a c0 d0 38 73 40
       -2.0549183 -3.8269594 -4.83967 3.8003426
0000e0 40 9a 4d 3f 1f bd 91 bf c2 bc 92 c0 87 c4 4b bd
       0.8031349 -1.138584 -4.5855417 -0.04974797
0000f0 e7 bb 57 40 6a 7e 83 bf c7 46 00 40 b5 d8 bc be
       3.3708436 -1.0272954 2.00432 -0.36884084
000100 79 51 09 40 20 c4 bc 3d 62 fb 4f 40 1a 32 66 c0
       2.1455977 0.092170954 3.2497182 -3.596808
000110 7c 1f 43 3f 31 54 92 3e fc 08 18 c0 cb 54 06 40
       0.76219916 0.28579858 -2.3755484 2.0989254
000120 b9 d7 1b c1 60 08 11 be a2 a3 39 40 ec 4f 6c 3e
       -9.740167 -0.14163351 2.9006124 0.23077363
000130 dc 22 8c bf de 7a d5 c0 97 41 25 c1 0e ca 00 c1
       -1.0948138 -6.6712484 -10.328513 -8.04933
000140 94 a9 b9 3f 1a c2 eb bf a8 9d 3a c0 f7 82 3a c0
       1.4504876 -1.841861 -2.9158726 -2.9142435
000150 d1 8a 57 40 1e 10 00 c0 1c e2 3a c1 18 af 37 c0
       3.3678477 -2.0009837 -11.6802025 -2.8700619
000160 f7 0b 18 c0 a4 b2 bd c0 99 58 92 c0 c3 9c 22 40
       -2.3757303 -5.9280567 -4.573315 2.540818
000170 c8 9f fc bf 0a 53 87 bf 5f 1d 3a c1 f0 bf de c0
       -1.9736261 -1.0572217 -11.632171 -6.96093
000180 e5 26 88 c0 63 fd 4f c0 a6 b6 81 c0 8c 83 e5 c0
       -4.254748 -3.2498405 -4.053546 -7.172308
000190 ae 90 b3 c0 55 c2 21 3f 12 a0 6f 40 26 0a 4f c0
       -5.611411 0.6318715 3.744145 -3.2349944
0001a0 67 5b 74 40 d3 fa fc c0 b7 d0 20 c1 19 cb 72 40
       3.8180788 -7.905618 -10.050956 3.793646
0001b0 cb 6a ba c0 e8 62 8b 40 86 7d a5 c0 3a 0e f1 3f
       -5.8255363 4.3558235 -5.1715727 1.8832467
0001c0 c6 6c 91 bf 0f b4 14 c1 5f b9 52 c0 35 56 ac c0
       -1.136132 -9.29396 -3.2925642 -5.3855233
0001d0 b5 fb c6 40 4e a5 90 bf 5e 32 fa bf cf 96 03 c0
       6.218226 -1.1300447 -1.9546621 -2.0560796
0001e0 85 26 32 3f 63 f0 71 40 c6 50 63 c0 e1 c8 db bf
       0.69590026 3.780297 -3.551805 -1.7170678
0001f0 3d c5 e2 bf 7b 81 e3 c0 a9 47 c2 3f 20 f5 a0 c0
       -1.7716442 -7.1095557 1.5178119 -5.0299225
000200 d6 4a 55 c0 2e 5c 84 bf bd 07 d4 c0 ee 43 05 c1
       -3.3326926 -1.0340631 -6.6259446 -8.329084
000210 58 19 84 c0 3a d2 47 c0 03 e6 b8 bf fb 16 12 c1
       -4.1280937 -3.1222062 -1.4445194 -9.13061
000220 f0 96 76 c0 17 bb 7b bf dc 32 26 c0 f9 38 b0 3f
       -3.8529625 -0.9833235 -2.5968542 1.3767387
000230 3c 14 cd 3f 67 91 42 c1 5e 6f fe c0 88 7f 25 40
       1.60218 -12.160499 -7.9510946 2.585909
000240 17 3f b9 3f a6 a9 e8 bc 31 d7 82 bf f1 4e 67 be
       1.4472378 -0.028401207 -1.0221921 -0.22588708
000250 27 75 0f c0 f5 f0 f3 40 52 2a 1a 40 17 e8 34 40
       -2.2415254 7.6231637 2.408833 2.8266656
000260 48 84 11 bd b7 f6 71 bf 91 7f 1c c0 47 80 7d c0
       -0.035526544 -0.9451708 -2.445286 -3.9609544
000270 d3 11 ae be 58 1c 05 3f 96 d0 07 40 06 a7 5c c0
       -0.33997974 0.51996374 2.122106 -3.4476943
000280 8d 8b 6f bf 09 46 3c 40 23 aa 44 3f 5f 6d a6 bf
       -0.9357231 2.9417746 0.7682211 -1.3002127
000290 01 0b 31 40 f1 a7 f2 be 1d 63 27 40 3d 84 49 c0
       2.7662966 -0.47393754 2.6154244 -3.1486962
0002a0 a0 4e 57 c0 20 26 7d c0 cc 49 7b c0 18 9e e1 bf
       -3.364174 -3.955452 -3.9263792 -1.7626371
0002b0 aa f0 ff c0 2f e1 10 3e e2 0a 49 bf fe a8 32 3f
       -7.998128 0.141484 -0.7853223 0.6978911
0002c0 ee d3 c9 be 78 e3 af c0 b3 2e 1e be d0 a8 4b bf
       -0.39419502 -5.496517 -0.15447502 -0.7955446
0002d0 27 e7 69 bf 23 35 cc be 77 81 1d 3f 80 3b eb be
       -0.91368335 -0.3988429 0.6152567 -0.45943832
0002e0 3d 6e 57 40 9d 79 53 bf 93 d5 ca bf 3c 96 0c c0
       3.3661034 -0.8260744 -1.5846428 -2.1966696
0002f0 b0 11 c9 bf d7 23 b0 3f e1 e7 dd 3f 41 13 ad 3f
       -1.5708523 1.3760937 1.7336389 1.3521501
000300 29 13 85 bd 77 a0 3f be d3 15 04 c0 d2 c1 be 40
       -0.06497795 -0.18713556 -2.063832 5.9611597
000310 26 40 c8 3f 42 50 3c c0 58 b9 4b 3f 2b 5b 69 3e
       1.5644577 -2.9423985 0.7957969 0.22788684
000320 89 0c 04 3f d6 2f eb 3e a9 d4 15 bf f8 a6 a2 3f
       0.5158163 0.45934933 -0.5852762 1.2707205
000330 ab dd 21 40 dd 3b 97 40 23 72 b7 40 c2 80 1e 3f
       2.5291545 4.7260575 5.7326827 0.6191522
000340 3e c0 b1 40 d0 a4 c3 bd ce ba 86 bf b7 d7 06 3f
       5.554717 -0.0955292 -1.0525758 0.52672905
000350 dc 84 98 bf a8 78 d8 3f 76 e7 95 bf d2 05 8c bf
       -1.1915545 1.6911821 -1.1711261 -1.0939276

exp_avg f4 [36]
000000 6d b9 9c bc 4b 74 f2 3c 2b 8d 07 be 5f 90 20 3d
       -0.019131387 0.029596468 -0.13237445 0.039200183
000010 67 fe 9a bf be e2 37 bc f4 c2 22 3e c0 99 c8 3d
       -1.2108887 -0.011223493 0.15894681 0.097949505
000020 18 01 ed 3d 0e ba fe be 39 0d 40 bf 15 03 85 bf
       0.11572474 -0.49751323 -0.75020176 -1.0391566
000030 d7 5b 11 3c 68 45 30 3d 68 fb 37 3e 5b 33 12 bf
       0.008871994 0.04303494 0.17966998 -0.5710961
000040 20 10 9d be 5f b6 85 3d 08 c5 44 3e 9e 2f 38 be
       -0.30676365 0.06528925 0.19215786 -0.17986915
000050 31 c4 61 3d 97 09 a3 3c 1b 32 26 3e d6 aa f5 be
       0.055118743 0.019902034 0.16230051 -0.479819
000060 36 d6 25 bf 08 19 03 bf 0c 8a 63 bf c7 8b e4 be
       -0.64779985 -0.5121007 -0.8888252 -0.44637892
000070 c1 95 3d bf a9 e0 45 be a9 0a 3a 3c 00 78 f1 3d
       -0.7405663 -0.19323982 0.011355081 0.11790466
000080 4b 6d f3 bd e9 70 65 bf 9f 14 a0 bc b4 c9 7c bc
       -0.1188608 -0.8962541 -0.019541083 -0.015428949

exp_avg_sq f4 [36]
000000 7f 10 fb 4b fa 2a d8 4c c6 8a 9c 4b 67 0f 91 4b
       3.2907518e+07 1.1333422e+08 2.0518284e+07 1.9013326e+07
000010 5a ec 02 4b 40 26 fe 47 3e 4c 37 4a 00 1c 20 4b
       8.580186e+06 130124.5 3.0031515e+06 1.0492928e+07
000020 d9 84 e7 49 07 06 70 48 0f 88 fe 49 05 74 b3 4a
       1.8966031e+06 245784.11 2.0851219e+06 5.8803225e+06
000030 62 d3 07 4d f8 46 92 4d 42 32 10 4c d1 54 f9 4a
       1.4242358e+08 3.0676557e+08 3.78002e+07 8.1700885e+06
000040 74 4c 2f 4b f4 66 f4 4a 04 6f 84 4c c9 48 13 4e
       1.1488372e+07 8.00857e+06 6.943338e+07 6.177552e+08
000050 4b 97 09 4c df f4 14 49 07 f2 df 4b ea 77 40 4b
       3.6068652e+07 610125.94 2.9352974e+07 1.261361e+07
000060 3d 81 d7 47 56 38 37 48 80 4f 72 49 b8 ba e5 4a
       110338.48 187617.34 992504.0 7.527772e+06
000070 50 17 c5 49 8e c6 51 48 f4 c9 29 4d 58 68 28 4c
       1.61457e+06 214810.22 1.7803654e+08 4.414704e+07
000080 e9 68 a3 4d 21 5c 2d 4b 71 f8 dc 4b 5c 8e 33 4c
       3.426952e+08 1.1361313e+07 2.8963042e+07 4.706955e+07

exp_avg f4 [36]
000000 75 dc e3 3c ae 14 28 3e 2a a4 91 be 4c 12 58 3d
       0.027815083 0.16414139 -0.2844556 0.052751824
000010 15 c4 8d 3e 9a 1f 9a 3e 20 6f 0c 3d 4e 70 79 3d
       0.2768866 0.30102235 0.034285665 0.060898118
000020 18 64 25 3f bc 1d 46 3d e6 ff 0a 3e 45 3c 5e 3e
       0.64605856 0.0483682 0.1357418 0.21702679
000030 c7 71 ac bd 08 77 4a 3f 65 f4 8f bb 0d 4e fc 3d
       -0.08420139 0.7908788 -0.004393148 0.123195745
000040 c1 25 98 3c bc 64 ce 3d cd d3 45 3e 09 1b 28 be
       0.01857269 0.10077807 0.19319077 -0.16416563
000050 1c 86 15 3e 60 b1 dd 97 2d 2a 40 3d f6 b4 c7 3e
       0.1460194 -1.4326566e-24 0.046915222 0.3900525
000060 55 53 10 3e 7a ae 1d 3e 9e 76 91 3e f7 37 9e 3e
       0.14094289 0.15398589 0.2841081 0.30902073
000070 e9 4a a4 3e 38 48 6c 98 68 bd 53 be eb 86 ad 3e
       0.32088402 -3.0538746e-24 -0.20677722 0.33891997
000080 25 05 42 3f d3 e0 31 3f 15 70 98 3c da a6 28 3e
       0.757891 0.6948368 0.018608132 0.16469899

exp_avg_sq f4 [36]
000000 4b 7f 58 4c a6 03 93 40 67 d1 c4 48 99 53 08 42
       5.6753452e+07 4.5941954 403083.22 34.08164
000010 cb ad 01 4e 3d 97 8c 45 ef 4a 2f 46 eb 56 17 46
       5.4391264e+08 4498.905 11218.733 9685.7295
000020 b1 a7 0f 40 86 38 d0 4c da b6 1f 4d fa 4d 8b 4d
       2.24461 1.0916766e+08 1.6747254e+08 2.921429e+08
000030 d6 95 33 42 2b e1 c0 44 29 dd cd 4a 6d 89 5b 4d
       44.896324 1543.0365 6.7457485e+06 2.3020104e+08
000040 18 f2 04 4d 39 91 b3 45 2a c1 46 42 d4 20 29 4c
       1.3940365e+08 5746.153 49.688637 4.433595e+07
000050 da 73 b8 4a 02 c4 13 4c d1 21 c5 4b d4 da 94 4d
       6.044141e+06 3.873588e+07 2.5838498e+07 3.1217114e+08
000060 01 b7 27 4d 49 5a 3e 4d 7d 1c a8 4d db f7 7a 4d
       1.7586178e+08 1.9959925e+08 3.525549e+08 2.6315922e+08
000070 e9 4e 1f 47 9e f6 23 4d fb a5 77 43 a3 45 fd 41
       40782.91 1.7192803e+08 247.64836 31.659002
000080 42 67 04 44 62 63 d2 4d 2e 6d 85 4c 14 b6 71 43
       529.6134 4.4121606e+08 6.99539e+07 241.71124

exp_avg f4 [36, 40]
000000 29 4e a8 3f 20 44 5b 3f ec df 6e 3f d8 7e 6b bd
       1.3148853 0.85650826 0.9331043 -0.057494015
000010 19 78 13 bf 85 ca 88 be 44 71 1b bf f2 d2 a0 be
       -0.5760513 -0.2671701 -0.60719705 -0.31410939
000020 0a 5d 1d be b3 e1 a9 be e5 22 68 bf 6a 86 0e bf
       -0.15367523 -0.33180007 -0.90678245 -0.5567385
000030 18 83 9f be e5 9a 0e be 00 4e 9f be 5f f5 ae be
       -0.31154704 -0.13926275 -0.31114197 -0.34171578
000040 a6 4a 39 be 5a ab 1a bf c8 48 64 bf 7e 28 23 be
       -0.18094882 -0.6041771 -0.89173555 -0.15933415
000050 35 18 ac bd 45 91 c2 be 8a e1 06 bf b2 e2 12 bf
       -0.084030546 -0.38001457 -0.52687895 -0.5737716
000060 70 24 a3 3d f3 67 4b 19 a3 be 7c bf 5b 39 2b bf
       0.07965934 1.05158464e-23 -0.9872839 -0.6688439
000070 0b 9d a2 bd 6a 52 c1 be b6 fc 34 be 43 65 1d bf
       -0.0794011 -0.3775819 -0.17674527 -0.6148264
000080 30 69 77 be c4 f6 0b 19 06 9c 45 be 96 fd f9 be
       -0.2416122 7.2359655e-24 -0.192978 -0.48826283
000090 2c 77 af be 06 05 17 bf 40 63 22 bf 9a 25 28 be
       -0.34270608 -0.5899204 -0.63432693 -0.16420594
0000a0 67 40 25 3f 31 85 be 3e 14 57 04 3f 09 3d bd be
       0.64551395 0.37210992 0.5169537 -0.3696063
0000b0 0a 7f 81 be 59 ca 5d be 9b 40 ad be 05 0f 5c be
       -0.25292236 -0.21659221 -0.33838353 -0.21490104
0000c0 8c 8a b4 bd 25 e5 0c be 6e f4 f8 be 8d 64 91 be
       -0.08815488 -0.13759287 -0.48623985 -0.28397027
0000d0 54 fe 79 be 3b cc c5 bd 45 6e 1e be cb ee 36 be
       -0.24413425 -0.096580945 -0.15471752 -0.1786453
0000e0 c8 94 af bd 27 c7 cd be 3a 72 ef be 3f be ed bd
       -0.085733 -0.40191004 -0.46766835 -0.11608552
0000f0 36 d9 80 bd 1b f6 77 be 33 0d b1 be bd 83 94 be
       -0.0629143 -0.24214976 -0.34580383 -0.29006758
000100 9c a8 a7 3d dc 2e 45 98 29 6e eb be 5b 0f 7a be
       0.081864566 -2.5485311e-24 -0.45982483 -0.2441992
000110 65 6e a3 3d 51 6f 5c be 55 2c bd bd 0b ea 56 be
       0.079800405 -0.21526839 -0.09236971 -0.20987718
000120 64 f0 a3 bc cc d1 15 98 6f 1a ff bd 25 04 ad be
       -0.020012088 -1.9363719e-24 -0.12456214 -0.33792225
000130 85 63 54 be 43 18 36 be c2 b4 91 be 97 32 f5 bd
       -0.20741089 -0.17782693 -0.2845822 -0.1197254
000140 f4 02 7a bf f0 ed 0b 3f 18 24 2b bf 38 eb e3 3f
       -0.97660756 0.5465994 -0.6685195 1.7806158
000150 c6 5f 9e 3e f9 13 30 3e f1 6f 58 3f 99 d4 82 3e
       0.30932444 0.17195119 0.8454581 0.25552824
000160 0e 6f db 3e 2c 8a c1 be c6 1e 2b 3e b6 65 47 bd
       0.42858166 -0.3780073 0.16710958 -0.048680983
000170 8c 3d bc 3e 44 d5 65 3e 6b 14 bb 3e a2 f9 db 3e
       0.36765707 0.22444636 0.36539015 0.42963892
000180 94 b8 85 3e ca 66 18 3f eb 81 5c 3e 61 c3 d4 3e
       0.26117384 0.59531844 0.21533935 0.41555312
000190 fc 34 18 3e a9 46 1a bd 7d 62 c5 3e c0 2c 4c 3f
       0.14863962 -0.037665043 0.38551703 0.79755783
0001a0 71 79 31 be e9 5d 97 98 70 63 84 3e 68 66 56 3f
       -0.17331482 -3.912741e-24 0.25857115 0.8375001
0001b0 52 09 01 3f 00 0d 0f 3f d1 55 1c 3f ba 02 30 3f
       0.50404847 0.5587921 0.61068445 0.6875416
0001c0 aa 85 8b 3f 5c 2f 65 98 cc 2d 8e 3e 32 c3 c2 3e
       1.0900166 -2.9621467e-24 0.27769315 0.38039547
0001d0 95 9d ec 3e 79 a0 74 3f 65 22 dc 3e 46 32 9a 3e
       0.46213976 0.9555736 0.4299499 0.3011648
0001e0 01 92 2f 3f d2 8f 87 bc 5f 32 10 3f 27 45 89 bf
       0.6858216 -0.016548071 0.5632686 -1.0724229
0001f0 79 cb 08 bf 8e 01 e2 be 53 9a 84 bf 6b 81 01 bf
       -0.53435475 -0.4414181 -1.0359596 -0.505881
000200 ca bc d0 be 07 d0 a1 bc 82 2d 18 bf b7 b7 9c be
       -0.40769035 -0.019752515 -0.5944444 -0.30608913
000210 0d d1 16 bf 33 c2 74 be b9 b3 af be 49 54 d6 be
       -0.58912736 -0.23902206 -0.34316805 -0.4186118
000220 ef 77 bd be 24 5d 77 bf e0 04 1c bf ed 35 d2 be
       -0.37005565 -0.96626496 -0.6094494 -0.41056767
000230 35 4b 30 be b5 16 52 be 19 54 37 bf 5e bb 69 bf
       -0.17216189 -0.20516475 -0.716127 -0.91301525
000240 0a 09 d4 3d 09 f0 d4 97 f9 f4 33 bf 9a d9 56 bf
       0.103532866 -1.3760772e-24 -0.70295674 -0.83925784
000250 31 26 ab be 13 19 0b bf e3 de 0c bf bb 98 38 bf
       -0.33427575 -0.54335135 -0.550276 -0.7210805
000260 3c b4 58 bf 18 d5 a4 97 c6 fe c0 be fe 47 35 bf
       -0.84650016 -1.0652044e-24 -0.37694377 -0.70812976
000270 48 7d 28 bf fd ec 56 bf 46 ba 18 bf 73 3b d7 be
       -0.65816164 -0.83955365 -0.5965923 -0.42037544
000280 f4 f6 42 40 32 26 0f c0 5e ad 19 40 b6 a0 eb c0
       3.0463228 -2.2367063 2.4012065 -7.363368
000290 af fd 6e bf ea 5f 94 bf ed 3e 3b c0 f0 10 b4 bf
       -0.9335584 -1.1591771 -2.9257157 -1.4067669
0002a0 66 97 6b bf 61 db 6d 3f 73 21 3b bf 52 6d 6d bd
       -0.9202789 0.9291287 -0.73097914 -0.057965584
0002b0 f9 16 a3 bf 3c 0b fe be ad fd 4a bf 92 cd 6c bf
       -1.2741386 -0.49617946 -0.7929333 -0.92501175
0002c0 6b 32 d4 bf 2d 4a 0a c0 9a 49 57 bf 3c e2 6d bf
       -1.6577886 -2.1607773 -0.8409668 -0.9292333
0002d0 75 1c a8 be 5b a6 4b be a9 53 a9 bf a6 5e 3a c0
       -0.3283421 -0.19887678 -1.3228656 -2.912027
0002e0 02 cd 15 3f ba 6e 3a 19 31 ee 80 bf 79 38 f7 bf
       0.5851594 9.638336e-24 -1.007269 -1.9314109
0002f0 e9 64 31 bf cb e0 9b bf 40 aa a0 bf fc 95 d4 bf
       -0.692946 -1.2177976 -1.2551956 -1.6608272
000300 ef d4 02 c0 b1 42 e6 18 99 18 f8 bf 79 42 bf bf
       -2.0442464 5.9520948e-24 -1.9382507 -1.4942161
000310 74 3a 07 c0 f0 18 06 c0 bc da a6 bf 2b ca cd bf
       -2.1129427 -2.095272 -1.3035502 -1.6077322
000320 bc 1d f3 bf c8 a8 66 3f bf 5e d6 bf ab 84 1e 40
       -1.8993449 0.9010129 -1.6747664 2.4768474
000330 d6 1b a8 3f f6 02 3f 3f 2f 11 aa 3f 77 32 5b 3f
       1.3133495 0.74613893 1.3286494 0.8562388
000340 94 d2 20 3f 1a a6 a8 bf 28 1f 14 3f 37 6a 26 3e
       0.62821317 -1.317569 0.5786004 0.16251455
000350 b1 1c 89 3f 8a 48 47 3e 09 3c aa 3e 85 7d c2 3e
       1.0711881 0.19461265 0.33248928 0.3798639
000360 fc 84 41 3f 54 d0 d3 3f 48 b5 4c 3f 11 c4 f3 3e
       0.75593543 1.6547952 0.79964113 0.47610524
000370 a1 2c f5 3d e4 f6 6c 3b 54 38 9d 3f 16 f8 b2 3f
       0.11971403 0.00361579 1.2282815 1.398196
000380 79 95 45 3b 13 23 59 18 fa 37 7b 3f 68 94 18 40
       0.0030148907 2.80643e-24 0.9813229 2.384058
000390 d6 74 e9 3f f4 3b 01 3f 6c 02 7d 3f 97 47 07 40
       1.823878 0.50482106 0.9883182 2.1137445
0003a0 99 84 26 40 25 07 23 18 71 78 25 3f 60 f1 90 3f
       2.601843 2.1070863e-24 0.64636904 1.1323662
0003b0 56 34 9c 3f 68 50 31 40 03 d1 c4 3f d4 0c 4f 3f
       1.2203472 2.7705326 1.5376285 0.8087895
0003c0 d7 ad 33 3f 8c 32 56 3f fe b8 56 3e 5c b9 49 3f
       0.70187134 0.8367088 0.20969006 0.7879846
0003d0 ec a6 90 bd f2 7d de 3c 29 ba ea 3d d1 c0 98 3d
       -0.07063088 0.027159665 0.114612885 0.07458652
0003e0 75 b9 01 3e f5 8f d0 be b9 14 b1 be d4 91 91 be
       0.12668402 -0.4073483 -0.34586123 -0.2843157
0003f0 2a b7 03 bc e8 25 9d ba 3e 02 73 bd 6d d1 54 bd
       -0.008039275 -0.0011989446 -0.05932831 -0.051957536

exp_avg_sq f4 [36, 40]
000000 f9 41 1a 50 89 b1 bc 4f 13 9e f7 4f 85 c9 f8 4f
       1.0352059e+10 6.331503e+09 8.308664e+09 8.3479127e+09
000010 66 b7 c2 4d 66 3f 43 41 3c f6 79 4f c5 22 72 42
       4.083499e+08 12.202978 4.193664e+09 60.533955
000020 19 58 31 4f cc 1b 32 45 0d 23 97 46 fa 2e 3d 46
       2.9753408e+09 2849.7373 19345.525 12107.744
000030 87 1d 83 40 69 66 1e 4f 61 40 47 4f 08 2b 8b 4f
       4.0973544 2.6575117e+09 3.342885e+09 4.669706e+09
000040 3b cb 0f 45 ea 08 92 44 8e 33 d4 4b df 02 63 4f
       2300.702 1168.2786 2.781366e+07 3.8086162e+09
000050 e7 cc 7d 4f 5f 50 9e 45 f6 08 92 42 5b ac c8 4e
       4.2580641e+09 5066.0464 73.0175 1.6833693e+09
000060 4c 5c d3 4b 6a 6a f2 4e a3 a5 c0 4d 50 fe 88 4f
       2.7703448e+07 2.0335301e+09 4.0401008e+08 4.596736e+09
000070 4e 92 10 4f 40 97 27 4f fc f4 7d 4f 10 be 53 4f
       2.4255073e+09 2.8117074e+09 4.260691e+09 3.5524485e+09
000080 29 86 3a 4f 37 af 64 4e ab 33 2d 46 18 15 86 42
       3.1293545e+09 9.5917203e+08 11084.917 67.0412
000090 17 41 40 46 88 28 8f 4f 33 b7 c3 4d 5b 16 39 45
       12304.272 4.8035963e+09 4.104454e+08 2961.3972
0000a0 de 5b 13 4d 32 7f 04 4d ca 4d 19 4d b1 c5 0c 4d
       1.5451696e+08 1.3893302e+08 1.6075075e+08 1.4761038e+08
0000b0 e6 77 17 4c 9f 7f 75 42 50 82 a6 4c 60 13 0d 43
       3.970652e+07 61.37463 8.729869e+07 141.07568
0000c0 2d c0 28 4d 10 7c a4 46 c4 0b 9a 47 98 8c 65 47
       1.7694792e+08 21054.031 78871.53 58764.594
0000d0 8e 4a 8d 41 fb 4c 06 4d e8 e4 46 4d c6 64 66 4d
       17.661404 1.408245e+08 2.0855565e+08 2.4158525e+08
0000e0 28 80 8e 43 93 df 90 43 b4 65 5e 4a e3 6e 2f 4d
       285.00122 289.74667 3.643757e+06 1.8395499e+08
0000f0 93 4c 44 4d 6d a1 43 47 f4 48 1c 43 3e cd 79 4c
       2.0583454e+08 50081.426 156.28497 6.5484024e+07
000100 b5 54 5a 4a 7a 93 e9 4c 5e 17 cf 4b ce a3 69 4d
       3.5771332e+06 1.2246114e+08 2.7143868e+07 2.4498915e+08
000110 97 2b 16 4d 98 76 35 4d 3b de 6b 4d 13 48 36 4d
       1.5746494e+08 1.9027802e+08 2.4732562e+08 1.9113605e+08
000120 24 be 35 4d 8a 66 86 4c 9f 48 91 43 b9 6a 79 43
       1.9057107e+08 7.046459e+07 290.56735 249.41689
000130 07 cc c3 44 68 5f 69 4d 67 c0 19 4c 25 4a 3c 43
       1566.3759 2.44709e+08 4.0305052e+07 188.28963
000140 ca a1 d6 4d ee e2 c5 4d 6c 2c eb 4d ec 47 c5 4d
       4.501159e+08 4.1499795e+08 4.9319462e+08 4.1372813e+08
000150 01 be 9e 4c 62 77 3a 42 a6 b3 86 4d cd 1b 7b 42
       8.322663e+07 46.616585 2.8249005e+08 62.77715
000160 ad fd b9 4d e2 96 79 45 23 5b 9b 46 22 88 5d 46
       3.9005123e+08 3993.4302 19885.568 14178.033
000170 61 d0 34 41 d4 6b 96 4d b8 2a db 4d 27 e0 01 4e
       11.300874 3.1545613e+08 4.5962624e+08 5.447377e+08
000180 63 65 c5 42 37 a0 8b 43 5a 26 e2 4a 4c 92 c6 4d
       98.69802 279.25168 7.410477e+06 4.1643456e+08
000190 08 fb de 4d 6b 8f 13 46 24 02 72 43 85 ce 5b 4d
       4.676242e+08 9443.8545 242.00836 2.3048405e+08
0001a0 9c 1a dc 4a ed a5 80 4d 49 9c 5e 4c 1a 9a 02 4e
       7.212366e+06 2.6979472e+08 5.8356004e+07 5.477843e+08
0001b0 81 a7 a3 4d 3b 47 c7 4d 6c 2c 03 4e 16 50 cb 4d
       3.4320797e+08 4.1791677e+08 5.501816e+08 4.2637792e+08
0001c0 96 8c c9 4d c7 f8 13 4d 06 cc e0 44 9a 57 5d 43
       4.2267923e+08 1.5515966e+08 1798.3757 221.3422
0001d0 f6 62 0d 45 9a ce 02 4e 5b 9e 9e 4c 83 a8 6b 43
       2262.185 5.486445e+08 8.3161816e+07 235.65825
0001e0 f4 02 a5 4b fb fe 8e 4b f0 86 a4 4b 4e 8b 9f 4b
       2.1628392e+07 1.8742774e+07 2.1564896e+07 2.0911772e+07
0001f0 8d f0 3e 4b b9 f1 79 43 12 38 c1 4a 0c 53 a8 43
       1.2513421e+07 249.94423 6.331401e+06 336.6488
000200 8e a9 47 4c 73 1c 04 46 4a e0 f4 46 3f a2 b4 46
       5.234028e+07 8455.112 31344.145 23121.123
000210 d9 e5 a2 42 86 d8 19 4c 3e 1c 6e 4c 82 aa 84 4c
       81.44892 4.032975e+07 6.241919e+07 6.955522e+07
000220 84 7d aa 43 8b b7 d4 43 87 f0 90 49 e5 52 45 4c
       340.9806 425.43393 1.1873449e+06 5.1727252e+07
000230 6f 97 5d 4c e1 a0 9a 46 37 4d 29 44 b5 20 b8 4a
       5.8088892e+07 19792.44 677.2065 6.0334985e+06
000240 48 a5 8d 49 5e 5c 0a 4c 15 07 f9 4a fb fc 86 4c
       1.160361e+06 3.6270456e+07 8.1601385e+06 7.0772696e+07
000250 3d 6a 34 4c 3d aa 5c 4c 88 38 8b 4c 32 c4 52 4c
       4.7294708e+07 5.7846004e+07 7.299181e+07 5.5251144e+07
000260 3f 87 58 4c db 0b a5 4b 12 b7 6d 43 96 71 4a 44
       5.6761596e+07 2.163295e+07 237.71512 809.7748
000270 a2 6c c4 43 04 cb 84 4c 39 1f 46 4b 53 15 8f 43
       392.8487 6.962179e+07 1.2984121e+07 286.1666
000280 96 fd 46 50 9f 36 eb 4f a9 45 18 50 2d 3e 2c 50
       1.3354031e+10 7.892451e+09 1.0218808e+10 1.1559024e+10
000290 36 89 8d 4d 16 1a 11 44 4e 7d c8 4f 04 d3 4d 44
       2.9682246e+08 580.4076 6.7273103e+09 823.2971
0002a0 d8 7e fa 4e 0f 81 d9 44 7e de 27 45 ba 97 02 45
       2.1013084e+09 1740.0331 2685.9058 2089.483
0002b0 d1 42 2c 43 7f 11 f9 4e 66 1e 12 4f c3 7b 5a 4f
       172.261 2.0893367e+09 2.4514657e+09 3.665544e+09
0002c0 5c 5f 0d 45 5b 75 13 45 04 5e 1d 4b 19 31 38 4f
       2261.96 2359.3347 1.031322e+07 3.0902254e+09
0002d0 57 6d 4f 4f 61 79 23 45 f1 ec 9d 44 e1 d7 38 4f
       3.4800494e+09 2615.5862 1263.4044 3.1011556e+09
0002e0 fa 97 18 4b 07 da c9 4e 23 dd 8d 4d d4 d2 55 4f
       1.0000378e+07 1.6932545e+09 2.9750998e+08 3.5873638e+09
0002f0 12 87 ee 4e 11 4d f1 4e 9d 21 37 4f ad fe 1f 4f
       2.0009147e+09 2.0241798e+09 3.0724334e+09 2.6842678e+09
000300 5e cf 0a 4f 3d 74 18 4e 6d 63 17 46 31 03 bf 44
       2.3288458e+09 6.3943866e+08 9688.856 1528.0997
000310 ad 99 2f 46 28 61 6f 4f 14 6a 60 4d 52 da 3d 45
       11238.419 4.0161219e+09 2.3531552e+08 3037.645
000320 8e 0b 82 4d 45 3e 81 4d dc 81 98 4d 44 cb 79 4d
       2.727244e+08 2.7104272e+08 3.198309e+08 2.61928e+08
000330 b9 7d 2a 4c 21 ab 01 42 9f e1 47 4d 7a 21 0c 44
       4.469322e+07 32.417118 2.0959077e+08 560.5231
000340 3a 45 3e 4d 10 9f f5 46 a3 c9 1b 48 17 73 d4 47
       1.99513e+08 31439.531 159526.55 108774.18
000350 ec 8e c6 41 ae 2a 1f 4d 49 89 62 4d 7f 8b 85 4d
       24.819786 1.668984e+08 2.375405e+08 2.8006397e+08
000360 86 25 2e 46 91 f7 4d 46 73 34 80 4a 5e 16 51 4d
       11145.381 13181.892 4.2010175e+06 2.19244e+08
000370 75 7e 67 4d d4 e8 6e 47 02 41 19 44 5d ab c3 4c
       2.4273902e+08 61160.83 613.01575 1.0258711e+08
000380 b9 69 84 4a 6c 08 05 4d 26 eb f5 4b 5a c3 87 4d
       4.3389085e+06 1.394951e+08 3.2233036e+07 2.8471584e+08
000390 9f 31 29 4d ac 8c 49 4d 6b c5 85 4d 3f 09 54 4d
       1.7741259e+08 2.1133997e+08 2.8053846e+08 2.2233598e+08
0003a0 c1 1b 4d 4d 86 d4 96 4c 6f f4 82 47 8d 4d d7 43
       2.1507176e+08 7.907845e+07 67048.87 430.60587
0003b0 09 30 8c 47 43 a5 87 4d 55 98 22 4c 88 8b 56 46
       71776.07 2.8446934e+08 4.2623316e+07 13730.883
0003c0 db 00 09 4f 93 bd e8 4e 89 1c 0d 4f 11 62 02 4f
       2.2985347e+09 1.952369e+09 2.3674575e+09 2.187465e+09
0003d0 bb 73 7a 4e 91 e4 22 41 97 9b 45 4e db 01 b9 43
       1.0504721e+09 10.180802 8.288271e+08 370.0145
0003e0 61 f9 85 4f 85 35 3e 47 87 7d ad 47 a0 2b b3 47
       4.495426e+09 48693.52 88827.055 91735.25
0003f0 27 90 8c 40 d6 10 53 4f 53 58 a0 4f 9e 61 b5 4f
       4.3925967 3.541096e+09 5.380286e+09 6.086147e+09

exp_avg f4 [6]
000000 fc 82 74 bf cb 50 c0 bd 3f d8 4a be 00 30 b5 bc
       -0.95512366 -0.0939041 -0.19809054 -0.022117615
000010 08 8a c2 bc 01 1e 36 bc
       -0.023747459 -0.011115552

exp_avg_sq f4 [6]
000000 e5 24 38 3f 59 0d 48 3f 80 42 19 3f 32 7d 61 3d
       0.71931297 0.78145367 0.59867096 0.055051036
000010 c9 26 11 3e a8 51 b2 3e
       0.14174952 0.34827924

exp_avg f4 [6, 36]
000000 f7 ed ef bc 92 5c eb bd 28 8e e4 be 18 a7 39 be
       -0.029288275 -0.11492266 -0.44639707 -0.18130147
000010 e9 68 5b bc d5 ba 85 bd d7 39 d8 bd 8e 07 7c 3c
       -0.013391712 -0.06529776 -0.10557907 0.015382661
000020 31 bc fd 3c 3d 2a 04 be db a7 e2 be f6 a7 e8 be
       0.030973526 -0.12906738 -0.4426869 -0.45440644
000030 e0 02 7e be ac 72 d5 bd 4c 6d 09 be 3b 9b 76 bd
       -0.24805784 -0.104222625 -0.134206 -0.060206633
000040 7a b8 90 bd 70 70 38 bd 14 70 dc bd dc 4d 01 bf
       -0.07066436 -0.045029104 -0.10763565 -0.5050943
000050 14 07 6c 3e 94 db d6 91 8e 09 03 be 2a e1 f7 bd
       0.23049575 -3.3898572e-28 -0.12796614 -0.121034935
000060 b9 a3 05 3e 44 92 e1 be f9 d8 a8 3c cc d4 d0 bd
       0.13050736 -0.44056904 0.020611273 -0.10196838
000070 31 df d1 3c 46 01 ce 90 b3 79 c3 be a7 9f 16 be
       0.025619121 -8.1254635e-29 -0.38178787 -0.1470934
000080 94 e2 39 be a1 0d a6 bd 8a 82 cb bd de 4a 4c be
       -0.18152839 -0.08108068 -0.09937008 -0.19950435
000090 46 93 d6 bd 67 5c 09 be 9e 9d 18 bd 00 58 44 bd
       -0.10477309 -0.13414155 -0.03725969 -0.047935486
0000a0 af 3b 0f be b9 c6 2a 3e b9 34 af 3d 56 a1 63 3d
       -0.13987611 0.16677369 0.08554978 0.055573784
0000b0 c0 2b fc 3c e8 af 0f 3d fe b2 7b 3d 28 2a 83 3d
       0.03078258 0.035079867 0.061449997 0.06404525
0000c0 4b cb 16 be d7 c0 4b bd f5 27 95 3d 8a e0 17 bd
       -0.14725988 -0.049744453 0.07283012 -0.03707937
0000d0 38 8a bf 3c 18 d2 ee 3d f5 e0 97 bb 01 97 cc bd
       0.023381338 0.11661166 -0.0046349713 -0.09989739
0000e0 bf 15 85 bc 18 93 94 11 11 b5 95 bd 5b ab 01 3d
       -0.01624572 2.3440936e-28 -0.07309926 0.031657558
0000f0 c8 75 f5 bd b1 ac dc 3d 74 27 f8 bd ee 6f e2 bb
       -0.119853556 0.10775126 -0.121169 -0.0069103157
000100 fa 99 e2 bd 2e 52 66 10 4c e9 61 be 76 d7 9f 3c
       -0.11064525 4.542281e-29 -0.22061652 0.01951192
000110 2a fb 8d bd eb 55 21 3c 26 0c 6c bd 5a 9f 00 be
       -0.06932671 0.009847145 -0.057628773 -0.12560788
000120 42 03 e9 3d d5 fa 84 3d ac 63 5b 3e ad 97 d5 3d
       0.113775745 0.06493155 0.2142474 0.104293205
000130 6e ba 40 38 dd 41 9a 3d 06 f7 1f 3e 1a b8 13 3e
       4.5949993e-05 0.07532094 0.15621576 0.14425698
000140 2d 56 b6 3d a6 20 26 3b 11 a7 69 3b 75 69 9d 3b
       0.089031555 0.002534905 0.0035652558 0.004803831
000150 7d bb 5a 3e a3 15 cf 3d e1 9b cf 3d bd 7e 0b 3b
       0.21360584 0.10111549 0.101371534 0.0021285259
000160 21 e5 13 3b ed 18 e6 3d 33 da 5c 3d a1 80 5f 3e
       0.0022566991 0.11235223 0.05391903 0.21826412
000170 ca ff 40 3c fc 10 08 11 97 d9 57 3e 46 8e ab 3d
       0.011779735 1.0733742e-28 0.21079098 0.08376746
000180 80 bd 90 39 26 2c d1 3b 15 b9 2a bb 7f 44 9d 3d
       0.0002760701 0.0063834367 -0.002605026 0.0767908
000190 7f 68 15 bb 35 f6 63 0d 57 58 34 3e b9 d1 66 3d
       -0.002279788 7.0246137e-31 0.17611824 0.05635235
0001a0 06 14 4f 3e ab de 83 3d 43 5c e7 3d db 4d 07 3e
       0.20222482 0.06438955 0.112968944 0.13213293
0001b0 b1 9e 5e 3c ae b4 ed 3d a4 6b 97 3e 9b fd 25 3e
       0.01358764 0.116067275 0.2957431 0.16210024
0001c0 6d e1 87 bc fc 61 02 3e b0 58 1e bb 84 14 36 3d
       -0.016586984 0.1273269 -0.0024161749 0.04445316
0001d0 4c 25 88 3d 28 cd 7e ba f3 e1 d8 b9 39 ac 0f ba
       0.06647739 -0.0009719902 -0.00041367076 -0.000548068
0001e0 9c 22 8f 3e dd 2e cc 3d 5a b1 93 3c 62 10 72 bc
       0.27956092 0.09969876 0.018028904 -0.014774414
0001f0 3d b4 b5 ba f9 00 fa 3c c4 67 1a 3d 32 e0 95 3e
       -0.0013862919 0.030518042 0.037696615 0.2927261
000200 eb d2 4d 3d d0 10 c0 10 c3 de a2 3d 42 67 30 3e
       0.050249975 7.575655e-29 0.07952645 0.1722689
000210 f4 2f 31 bc 0c 6f 2f bb 8e fa 19 bd cb 93 19 3e
       -0.010814656 -0.002676907 -0.037592463 0.14997785
000220 72 0b 94 bd 48 8f 92 0f c5 6f b2 3e c1 27 76 3d
       -0.072287455 1.4451901e-29 0.34850898 0.060096506
000230 cd d2 77 3e 6a 1e 14 3e 37 5b 3c 3d ec 42 5f 3e
       0.24201508 0.14464727 0.045985427 0.21802872
000240 91 90 15 3f ea 76 63 3f 3d f1 50 3f 48 41 5e 3f
       0.58423716 0.88853323 0.816181 0.8681836
000250 71 2a 03 3c c3 f8 c3 be 24 27 2d 3f de a6 e1 3e
       0.008005724 -0.38275728 0.6763785 0.44072622
000260 7b 4c 5b 3f a9 78 c9 3c 38 97 17 3d f7 5a 35 3d
       0.85663575 0.024593668 0.037009448 0.044276204
000270 fc f4 39 3f 86 03 a5 3f 29 77 37 3f 45 fd 56 bc
       0.7263944 1.28917 0.716662 -0.013121908
000280 b9 95 9f 3c c1 dc fb 3e ef 6f 50 3f 59 d7 6b 3f
       0.019480573 0.4919186 0.814208 0.9212547
000290 ad e2 7c 3d 07 76 89 11 be fc 2d 3f d5 04 03 3f
       0.061739612 2.1687529e-28 0.6796378 0.5117925
0002a0 33 b2 4a 3e d6 7c 6f 3d 9e 1a ef bc 10 a4 f9 3e
       0.1979454 0.058468662 -0.029187497 0.48757982
0002b0 ba 34 bb 3d 08 6f 74 8f 38 c1 64 3f b1 e0 66 3f
       0.09140916 -1.2051513e-29 0.8935733 0.901866
0002c0 61 50 86 3f 4d 54 f5 3e e6 c8 32 3f 43 dd 54 3f
       1.049328 0.4791588 0.69837797 0.8315012
0002d0 47 8f d7 3d bf b6 4a be 75 c0 1f bd 16 f8 19 be
       0.10525375 -0.19796275 -0.0390019 -0.15036044
0002e0 26 6e ad be 6c 98 ea 3d b1 4e 10 3e 90 5c f7 3d
       -0.338731 0.114548534 0.14092518 0.12078202
0002f0 33 86 66 be 9f 9b 9a bd e6 af 27 3e 06 d2 cc 3d
       -0.2251213 -0.075492136 0.16375694 0.10000996
000300 91 ab 83 be 39 8f 88 be 03 e2 19 3e 94 b5 26 be
       -0.25716832 -0.2667177 0.15027623 -0.16280204
000310 69 e9 90 bd 1d bd e5 3e 9e 4c 8a bd 1b f6 21 be
       -0.070757695 0.44870844 -0.06752895 -0.15816538
000320 d1 64 67 3e 06 12 c2 91 19 9d 44 3e 2b d0 f8 3e
       0.22597052 -3.061891e-28 0.19200553 0.4859632
000330 25 be 2f 3e 73 e8 5c bd c4 72 6c be 19 c0 a2 3e
       0.17162378 -0.05393262 -0.23090655 0.31787184
000340 55 5e 04 3d 80 7a 2c 10 8f d7 8a bd b5 ed 0f be
       0.032316525 3.401539e-29 -0.06779396 -0.14055522
000350 6e 0d bf be f3 85 f6 3e 3b 5d 40 3e fe 1d 9c be
       -0.37314934 0.4814907 0.18785565 -0.30491632

exp_avg_sq f4 [6, 36]
000000 6d e4 83 40 39 92 03 41 f3 da 67 41 0c ab f8 40
       4.121634 8.223199 14.490954 7.7708797
000010 7a 6a 44 3f 14 10 1f 3f 33 d2 5d 40 18 aa c6 3f
       0.7672497 0.6213391 3.4659545 1.5520658
000020 f9 64 09 41 3f 72 e0 3e f6 3c b1 3f 7b 12 a5 3f
       8.587152 0.43837163 1.3846729 1.2896265
000030 30 e7 11 41 bc 05 af 41 78 53 70 40 9c 5c 90 3f
       9.118942 21.8778 3.7550945 1.1278262
000040 56 d2 16 3f 5f 0f 5b 3f 0a 31 29 41 d6 2b 60 41
       0.589147 0.8557033 10.574472 14.010702
000050 05 b0 02 3f a9 65 7f 3e ab ba b1 40 d5 0f bd 40
       0.51049834 0.24941124 5.5540366 5.9081826
000060 06 90 45 40 ae 3b e5 3f 78 b1 df 3f c1 49 a5 40
       3.0869155 1.7908838 1.7476034 5.165253
000070 54 42 a6 40 c2 96 cc 3d 19 b6 27 41 ec c9 2f 41
       5.1955967 0.09989692 10.481957 10.986797
000080 20 37 79 41 45 b5 a7 40 1b 32 77 40 fe fd 1a 41
       15.575958 5.2408776 3.8624332 9.68701
000090 34 d3 b2 3e de 1d 58 3f 7c 8c d6 3f c3 3e 59 3f
       0.3492676 0.84420574 1.6761622 0.8486139
0000a0 7d f1 ba 3d f9 36 93 3e 14 3d c6 3e ed 2a 67 3e
       0.091280915 0.28752878 0.38718474 0.22574969
0000b0 1a 0d 30 3f ab 54 ee 3d 7d 3c 73 3e 68 fe 32 3e
       0.6876999 0.11637243 0.23753543 0.17479861
0000c0 13 27 a8 3f e4 09 f8 3f 38 3d ad 3e 8a 84 3d 3e
       1.3136925 1.9378018 0.3383577 0.18507591
0000d0 5b 9b 0e 3e 18 31 70 3e e0 75 6c 3f 73 92 e7 3f
       0.13926451 0.23456228 0.9236736 1.8091568
0000e0 de db 2e 3e 68 01 43 3d 4f 4f fa 3e ff 25 db 3e
       0.1707606 0.047608763 0.48888633 0.42802426
0000f0 79 6f 8e 3e 98 5b 6b 3e ee bf 2a 3e 6e a5 c1 3e
       0.27819422 0.22984159 0.16674778 0.37821525
000100 aa c6 ae 3e 36 e5 47 3c 0c 0c dc 3f 0d 14 8b 3f
       0.34135944 0.012200644 1.7191176 1.0865494
000110 5a cd f2 3f b5 59 8f 3e b5 0f 97 3e 9f c4 a9 3f
       1.8968918 0.2799813 0.2950417 1.3263129
000120 3a cb d5 3e 3a 2f 28 3f 23 d7 88 3f 53 6c 27 3f
       0.41756612 0.6569706 1.0690655 0.65399665
000130 91 6e 05 3d 40 8c 12 3f 49 41 03 3f d4 4a 88 3e
       0.032576147 0.57245255 0.5127149 0.2661959
000140 b5 fe fc 3e c3 82 5f 3d 74 c6 25 3e 3e 53 b1 3d
       0.49413076 0.054568063 0.16188985 0.08658455
000150 9c c2 78 3f 58 09 ab 3f e0 8e db 3e f4 5c dd 3d
       0.9717195 1.3362226 0.42882442 0.10808745
000160 a5 75 a5 3d a6 cd c2 3e 48 79 30 3f 3f c1 8f 3f
       0.080790795 0.38047522 0.6893506 1.1230849
000170 b0 cf 1f 3e b8 30 80 3c ce 29 4b 3f bc 60 50 3e
       0.1560657 0.01564823 0.79360664 0.20349401
000180 64 af 16 3e cb fd 12 3e ce 91 fa 3c 09 40 85 3e
       0.14715344 0.14354627 0.030587103 0.26025417
000190 3b ff 9d 3d dd 04 d6 3a 81 d6 9c 3f 60 f7 51 3f
       0.07714697 0.0016328354 1.2252961 0.8201809
0001a0 8b 19 b4 3f e5 32 2c 3d fc a4 90 3e 8b bb 86 3f
       1.4070295 0.042040724 0.28250873 1.0525984
0001b0 45 84 f0 3e c5 13 3f 3f 42 dc 77 3f 07 ba 32 3f
       0.46975914 0.7463954 0.9682046 0.69815105
0001c0 09 b7 7e 3d 37 be 8c 3e bd 65 e5 3e b8 b0 c9 3e
       0.062186275 0.27488872 0.44804183 0.39392638
0001d0 d3 30 25 3f 05 85 d2 3d 30 65 93 3e b2 61 17 3e
       0.64527625 0.10279278 0.28788137 0.14783362
0001e0 21 8f 51 3f 96 ad c6 3f 63 61 af 3e e7 a1 46 3e
       0.8185902 1.5521724 0.34253988 0.19397698
0001f0 d5 64 0d 3e 3c da a7 3e 75 77 3e 3f 1e 2e 7d 3f
       0.13807996 0.32783687 0.74401027 0.98898494
000200 fd 28 90 3e aa 3d 8d 3c f3 c9 1e 3f 84 c1 ae 3e
       0.28156272 0.017241318 0.620269 0.34132016
000210 ec 25 67 3e ca 35 35 3e 35 47 a3 3c 1d 4a cf 3e
       0.2257306 0.176963 0.019931415 0.4048623
000220 c2 23 03 3d 70 af e6 3a 13 c7 7d 3f 94 cc 5d 3f
       0.032016523 0.0017599892 0.9913189 0.86640286
000230 6b 89 a5 3f 09 4e 16 3d 7c 08 c9 3e d2 e0 68 3f
       1.2932562 0.036695514 0.39264286 0.9096805
000240 fe 30 db 40 4d 57 a4 41 a2 8d 06 42 7a ed 9e 41
       6.8497305 20.542627 33.638313 19.865955
000250 ab ef e1 3e 69 19 83 40 ae 35 fd 40 4c b5 84 40
       0.44128165 4.096852 7.9128027 4.147131
000260 e6 be 8a 41 6c 4a 35 3f 99 da 00 40 8a 5e 85 3f
       17.343212 0.70816684 2.0133421 1.0419476
000270 de 05 ba 41 82 36 3d 42 51 1e f3 40 bf 36 bf 3f
       23.252865 47.30323 7.5974507 1.4938582
000280 5a 76 99 3f 97 e5 74 40 e6 ce ab 41 28 4e 04 42
       1.1989243 3.826513 21.476025 33.076324
000290 4c ff bf 3f 81 25 3c 3e f0 2c 32 41 34 96 e5 40
       1.4999785 0.18373682 11.135971 7.1745853
0002a0 6a 0c 5b 40 c5 9c fe 3f 41 9f 56 3f f4 01 d3 40
       3.4226327 1.9891592 0.8383675 6.5939884
0002b0 f0 41 16 40 a1 db 3c 3d 1d 8e eb 41 34 68 c5 41
       2.3477745 0.046107892 29.444391 24.67588
0002c0 d6 fd 14 42 8b 70 8e 40 63 c4 c8 40 2c ca c6 41
       37.247887 4.451238 6.273973 24.848717
0002d0 07 c3 b2 40 ae ea 29 41 88 eb 83 41 9b 81 20 41
       5.586307 10.619795 16.490005 10.031642
0002e0 4f 83 83 3f 41 8e bd 3f 5b 49 9c 40 25 8a 2e 40
       1.0274447 1.4809037 4.8839545 2.7271817
0002f0 24 ec 1e 41 d7 d7 81 3f c3 da 41 40 2f ac 05 40
       9.9326515 1.0143994 3.0289772 2.0886343
000300 ed fb 34 41 25 ff cb 41 2f 7c a1 40 ff 64 18 40
       11.311505 25.499582 5.046409 2.3811643
000310 ca 17 d5 3f 10 d6 06 40 f8 fb 47 41 6c 85 79 41
       1.6647885 2.1068153 12.499016 15.595074
000320 8e 78 a9 3f 33 54 ce 3e b6 59 f0 40 e1 89 ff 40
       1.3239915 0.40298614 7.510951 7.985581
000330 52 c2 92 40 c5 59 64 40 48 96 22 40 3d f6 dd 40
       4.5862207 3.567979 2.5404224 6.9363084
000340 16 6e ce 40 07 f6 34 3e 2b aa 54 41 b6 58 52 41
       6.450938 0.17671977 13.291545 13.146658
000350 5e 75 94 41 51 35 c3 40 cb f8 a8 40 b8 7d 40 41
       18.557308 6.1002584 5.28037 12.030693
